LSTMStockTrading/models/AAPL_improved_model_1.pth (torch, 29565 bytes, 6 tensors)

lstm.weight_ih_l0 f4 [128, 17]
000000 31 82 83 bc 39 88 cb bd 89 75 14 3e 99 06 5a bd
       -0.016053291 -0.09938092 0.14497961 -0.05322895
000010 05 77 07 be b0 fc f5 bd c4 99 91 3c 6b 6e 1c be
       -0.13228996 -0.12011087 0.017773516 -0.15276496
000020 79 d5 a0 3d 71 4f 38 3d e3 74 0c 3e de 95 00 be
       0.07853217 0.044997636 0.13716464 -0.1255717
000030 b9 a0 b1 bc 52 61 ac bd ab a7 c9 bc c7 37 ba 3d
       -0.021683084 -0.08417 -0.024616083 0.0909267
000040 fa ac 51 bc 9f 7a d6 bd 8e 75 b5 3d 84 fc 23 be
       -0.0127975885 -0.10472607 0.088603124 -0.16014296
000050 bc ad 36 be ba 73 72 3d b9 77 ba bd 03 a7 03 3e
       -0.17839712 0.059192397 -0.091048665 0.12856679
000060 3c a6 18 be 78 18 e6 3d cd 81 ba bc 1e ab 92 bd
       -0.14907163 0.11235136 -0.022766972 -0.07161544
000070 ba eb b4 3d 06 83 e2 bd 5d 06 7f 3d 51 bd 8d bd
       0.08834024 -0.11060147 0.062261928 -0.06920875
000080 2e c3 0d 3d 0c 82 64 3b 65 7e 0d 3e 67 48 c2 bd
       0.034609966 0.0034867553 0.13817747 -0.09486466
000090 f0 af b0 3c 19 e8 58 bd cf 8d a7 3d ab 41 1a be
       0.021568269 -0.05295572 0.08181345 -0.15064113
0000a0 bc ce 8f bd 64 14 ed 3d 74 57 ab 3d c2 6a 87 bd
       -0.07021853 0.11576155 0.0836629 -0.06612159
0000b0 f7 50 94 3c 21 84 9e 3c a1 43 d3 bd 79 c5 01 be
       0.018105013 0.019350113 -0.103156336 -0.12672986
0000c0 e4 92 2d be e3 7c e1 3d 3a 34 1b bd 17 72 96 3d
       -0.16950566 0.110101484 -0.037891604 0.0734598
0000d0 50 ce 0e be cc d8 30 3e 14 39 a3 3d 41 85 1a 3a
       -0.1394589 0.17270201 0.07969871 0.000589449
0000e0 fe 28 5d bd c6 a1 90 bd f2 e6 fc bd 60 ef 0e be
       -0.05399417 -0.07062106 -0.12348737 -0.13958502
0000f0 22 d0 36 bd 39 f1 00 3e 07 d2 03 be dc e6 10 3e
       -0.044632085 0.12592019 -0.12873088 0.14150566
000100 1a a9 51 3d 41 b8 eb bd 61 f9 01 3e 4d 0a 12 3d
       0.05118666 -0.11509753 0.12692787 0.035654355
000110 ad 57 d3 bc 68 b0 7e 3c 94 33 17 3d d1 72 bb 3d
       -0.025798643 0.015544988 0.036914423 0.09152759
000120 7a 2c 31 3e 07 d3 52 3d c9 e3 11 bc fb 5b f6 3a
       0.17302123 0.051470783 -0.008904406 0.0018795723
000130 51 af 23 3d d6 8d 75 bd 8b 7c 36 bd c7 15 08 be
       0.039962117 -0.05994972 -0.044552367 -0.13289557
000140 05 fb 20 3e e2 94 c9 bd c4 1d 09 bc 0f c8 19 be
       0.15720756 -0.0984285 -0.008368913 -0.15017723
000150 1a af 21 bd f6 b1 f7 3d 88 74 f1 bd 84 70 75 3d
       -0.03947363 0.1209449 -0.11789805 0.059921756
000160 02 58 13 3e f0 04 07 be 2e 1c 8e bc 4b ff 70 3d
       0.14389041 -0.13185477 -0.017347421 0.058837216
000170 72 c0 2a 3d a6 4a ae 3c bc ba 0e 3e 5a 5d 11 3e
       0.041687436 0.02127583 0.13938421 0.14195767
000180 a7 49 53 ba 80 ae 5b 3d 7b 96 06 bc f2 b6 89 bd
       -0.0008059986 0.053633213 -0.008214588 -0.06724347
000190 14 29 92 bd 96 24 9b 3d a5 e9 0b 3e ae 6a d1 3d
       -0.07136741 0.075753376 0.13663347 0.10225426
0001a0 52 0f 84 bd 77 68 98 3c 4a 86 b3 bd 91 d2 12 bd
       -0.064482346 0.0186045 -0.08765848 -0.035845343
0001b0 67 e4 d7 bd 1a ed 9b 3d 0d c8 cc bd b2 43 dc 3d
       -0.10541611 0.07613583 -0.09999094 0.10755099
0001c0 5f dc b9 bc 5b 26 83 3d f9 6c 13 bd e6 c8 9c 3d
       -0.022688089 0.064038 -0.035992596 0.07655506
0001d0 22 1e 24 be db f1 06 be 2a 54 b5 bd 5d 4b 60 3e
       -0.1602712 -0.13178198 -0.08853944 0.21903749
0001e0 45 35 12 3e 5f 40 19 3e 44 4a 4b 3e f2 f9 8e 3d
       0.14278133 0.14965962 0.19852549 0.06981267
0001f0 22 35 12 3d 96 c8 33 bd 93 be f8 bc f1 51 fc 3d
       0.035695203 -0.043892466 -0.03036431 0.123203166
000200 e8 9b 54 3e 00 f8 93 bd e7 6a 83 3d bd be 30 bd
       0.20762599 -0.072250366 0.064168744 -0.043150652
000210 11 f8 17 3e 54 28 83 bc 6e ec 13 bb 2d 08 e9 3c
       0.14840724 -0.01601044 -0.0022571343 0.028446281
000220 ac e5 08 bd 5a 93 02 3e c8 e9 a2 bd 5a e4 37 3d
       -0.033422157 0.12751523 -0.079547465 0.044895507
000230 eb af 31 3c c1 70 04 3e c6 3f fc 3d 3b 27 a5 bd
       0.010845165 0.12933637 0.12316851 -0.08064123
000240 70 28 a3 bc 0e 9b 9d bc 55 bd 62 bd 71 e4 d7 3d
       -0.019916743 -0.019238975 -0.055356342 0.105416186
000250 09 3e 02 3e a2 ce 07 be 6b 2a 8f bd e9 b4 2c 3e
       0.12718977 -0.13262418 -0.069905125 0.16865887
000260 f0 b1 27 3d 8d 91 87 bd ee 4f d3 3d 51 80 8d bc
       0.04094118 -0.066195585 0.1031798 -0.0172731
000270 1a e4 18 bd 89 e8 13 be c5 63 c5 3d a0 eb 15 bc
       -0.03732691 -0.14444174 0.0963817 -0.009150416
000280 fd 1d ac bd f6 e3 c6 bd 56 1f ec bd bb 18 8d 3d
       -0.08404157 -0.09711449 -0.11529414 0.068894826
000290 e7 d5 50 3d 85 16 e8 3c e3 d0 c6 bd 12 22 34 be
       0.050985243 0.02833105 -0.09707811 -0.17591122
0002a0 92 7b af bd a9 fb f2 bd 22 4f 2d 3d 78 c6 8d 3d
       -0.08568491 -0.118644066 0.042311795 0.069226205
0002b0 a1 3a 91 3a 34 f0 d4 bd 93 f4 d2 3d 30 a0 81 3d
       0.0011080095 -0.103973776 0.10300555 0.063293815
0002c0 bb ec c8 bd 1a 7c 63 bd cd f4 0f bd 26 b3 88 bc
       -0.09810778 -0.055538274 -0.03514557 -0.016686987
0002d0 0e 20 0a 3e 39 8a 40 3d e1 77 cb bd 5b 80 46 be
       0.1348879 0.04700682 -0.099349745 -0.19384901
0002e0 f8 5b 55 bd 1c 57 03 be ec b0 88 bc 4c 07 55 bd
       -0.05208966 -0.12826198 -0.016685925 -0.052008912
0002f0 4d 4e b5 bd a4 62 84 3d f8 61 6e bd 5f 60 d4 3d
       -0.08852825 0.06464127 -0.0581989 0.10369944
000300 ae fe a1 3d 9f 3a a0 bd a4 77 d6 bd 82 48 28 be
       0.079099044 -0.07823681 -0.104720384 -0.1643391
000310 cd 0a af 3c f4 eb e6 bd 45 7a 1c 3e 7b 8d a4 3d
       0.021367455 -0.11275473 0.15281017 0.08034798
000320 4c e1 c9 bb 4f 51 5e 3c 6e 6f 36 bd 7e 76 10 3e
       -0.0061608907 0.01356919 -0.04453986 0.14107701
000330 7a 60 ab 3d 80 b8 08 3e 8c 92 f2 3d ba 45 ac 3d
       0.08368011 0.13351631 0.11844358 0.08411737
000340 59 75 49 3c bb bd 15 3e 40 96 02 be a0 62 c9 3c
       0.012296044 0.14623158 -0.12752628 0.02458316
000350 22 06 16 be 5c 57 14 3e f0 81 1e 3e cb af 7d bc
       -0.14650777 0.1448645 0.15479255 -0.015483807
000360 93 6c 0e be 30 10 0b be 58 38 8b 3d e9 4c d4 bd
       -0.13908605 -0.13580394 0.06797856 -0.10366232
000370 56 50 99 bc dc de c5 3b c7 54 1c bc 3b f3 03 3e
       -0.018715065 0.00603853 -0.009541697 0.12885754
000380 de 9f d7 bd 23 97 88 3d fe 4e aa bd b0 53 0c 3d
       -0.10528539 0.06669452 -0.08315848 0.034259498
000390 fe 41 0f 3e 90 41 17 be 4b 8b b9 bd 7d 2e fa 3d
       0.13990018 -0.14771104 -0.09059771 0.12215898
0003a0 81 1e dd 3d ce 45 e5 bd 04 b1 5d 3d c6 04 c3 bd
       0.10796834 -0.11194955 0.054123893 -0.09522395
0003b0 41 06 4e be 3e 8a 9e bd e0 98 ac 3d ef 26 55 bc
       -0.20119573 -0.07741211 0.08427596 -0.013009771
0003c0 0d ff 0f 3e 56 01 b1 3d 02 4d 15 3b 2f 19 2d 3e
       0.14062138 0.08642833 0.0022781496 0.16904138
0003d0 a0 d2 c9 3d 48 2e 62 3d d4 52 1d be 77 ab 01 be
       0.09854627 0.05521992 -0.15363628 -0.12663065
0003e0 1e c4 01 3e b6 6c 29 3e 1b 04 8a 3d 53 5e a1 3d
       0.12672469 0.16545376 0.06739064 0.07879319
0003f0 03 27 e7 bd a9 41 84 bd af 31 43 bd eb bd 87 bd
       -0.11286738 -0.06457836 -0.047654804 -0.06628021

lstm.weight_hh_l0 f4 [128, 32]
000000 4f fc 84 3d b3 9f 78 3d d1 e6 b6 3d 61 73 de bb
       0.064934365 0.060699176 0.089307435 -0.0067886566
000010 83 d8 7b bc be f5 ea bd 80 3e 5e 3d f9 72 eb 3c
       -0.015371445 -0.11472653 0.054258823 0.028741347
000020 aa 30 da bd 0d e0 42 bc 13 99 f2 3c 0e 89 9f bd
       -0.10653813 -0.011894238 0.029614007 -0.07789813
000030 3b 8f 51 bd f2 60 0d 3c 9e bb e6 bd 4c 04 17 bd
       -0.051161986 0.008629071 -0.11266254 -0.036869332
000040 e3 fa 94 bc 6b 7d 57 bd b7 d7 50 bd 3d bf fa 3c
       -0.018186038 -0.052609842 -0.05098697 0.030608768
000050 6c d7 57 bd 92 25 f4 bd 9b 76 a4 bc cb 0c 71 bd
       -0.052695677 -0.119212285 -0.020076087 -0.05885009
000060 82 3a a0 bc 73 27 c9 ba e4 81 fc bc 20 60 01 3d
       -0.019559149 -0.001534684 -0.030823655 0.031585813
000070 25 22 94 3d 0e 86 1f bd 6d a2 ef 3c c7 f5 f5 3c
       0.07233075 -0.038946204 0.029252255 0.030024422
000080 20 f4 96 bd b5 6d d1 bc ae b3 00 be 26 26 b4 bc
       -0.07370782 -0.025565008 -0.12568542 -0.021990847
000090 2e 78 2f bd 95 eb 1c be b1 67 b8 3d 0f c2 f5 3d
       -0.04283922 -0.15324242 0.090041526 0.11999904
0000a0 ab af 48 bc f6 03 86 3b 39 7e 91 3d 5e 23 0b 3e
       -0.012248914 0.0040898276 0.07104153 0.1358771
0000b0 bd ec d8 bd 9b ba 59 bd 25 0f a5 bd 09 ac 2f bd
       -0.10592029 -0.053156476 -0.08059529 -0.042888675
0000c0 53 47 cd 3c ac 96 a0 bd 08 11 86 3d 62 a2 33 3c
       0.025058424 -0.078412384 0.06546217 0.010964008
0000d0 9b 27 53 3e d0 d7 f5 bd 66 28 ee bd 0e 32 86 bd
       0.20620577 -0.120040536 -0.11628799 -0.06552516
0000e0 10 95 1c bd 79 81 86 bd e5 33 c2 bc 9c c1 42 bd
       -0.038228095 -0.06567664 -0.023706386 -0.04754792
0000f0 68 e2 f2 bd 4f 28 e1 bd d8 5d c0 bd 09 c9 13 3e
       -0.1185959 -0.109940164 -0.09392899 0.14432158
000100 3d f1 ad 3d 29 c5 e5 3d 8e 3c fb 3d 80 d6 c2 bc
       0.08493278 0.11219246 0.12267409 -0.023783922
000110 4f 40 6a 3d 18 3b 35 3c dd 62 38 3b 95 02 82 3d
       0.057190236 0.011061452 0.00281351 0.06348149
000120 a9 fb bf 3d 8a 73 2c 3d 5f 6f c7 3b df e4 21 bc
       0.09374172 0.042102374 0.0060862745 -0.009881227
000130 b2 ce d0 bd e3 3e ae bd 78 40 aa bd 1d 4c e0 bd
       -0.10195674 -0.085080884 -0.08313078 -0.109520175
000140 60 80 48 bd 63 f7 79 3c 22 3a 80 3d da 6e 84 bd
       -0.048950553 0.0152567355 0.06261088 -0.06466456
000150 cb 98 0a bd 13 c4 eb bd e3 a5 49 bd 40 5a 2d bd
       -0.03383712 -0.115120076 -0.049230468 -0.042322397
000160 27 52 3d bd af 48 21 3d 97 19 94 bc af 93 68 bb
       -0.046220925 0.039375957 -0.018078608 -0.0035488417
000170 43 31 18 be 95 a7 b4 bd 33 d9 b4 bd 19 89 93 bd
       -0.14862542 -0.08821026 -0.0883049 -0.07203884
000180 fb d1 27 bd 3f b7 58 3d 2d 9e 9d bd d5 01 fd bd
       -0.040971737 0.052909132 -0.07696185 -0.12353865
000190 04 b7 e6 3d 0b 4b 61 bc 33 c4 43 bd a7 0e 96 bd
       0.11265376 -0.013750802 -0.047794532 -0.073270135
0001a0 99 2e 9b bb aa 80 e1 3c 80 8a f7 3d b9 c7 fd 3b
       -0.0047357795 0.027527172 0.12086964 0.007744756
0001b0 06 bc 06 3e 00 60 ad bc 56 3f 36 3d d0 c7 c7 3d
       0.13157663 -0.02116394 0.044493996 0.09754908
0001c0 1a fc 8d bd 17 c5 07 3b 9a 43 5a bd 55 af 08 3d
       -0.0693285 0.002071684 -0.053287126 0.033370335
0001d0 1f fc 6c bd 04 8a 92 bb 8c ac 97 3a 8d a9 3e 3d
       -0.05785763 -0.004472019 0.0011571809 0.046548415
0001e0 6f 9d 51 bd 6a ed 01 3b 70 74 67 3d 81 39 84 3d
       -0.05117553 0.0019825348 0.056507528 0.064562805
0001f0 0b 09 bd bd e3 6e fb 3d d2 91 ba 3d 32 a7 3b 3d
       -0.092302404 0.12277009 0.09109844 0.045813747
000200 86 79 06 3d 6d eb 52 bd a9 85 63 3c 52 c5 2a bc
       0.032830738 -0.05149405 0.0138868475 -0.010423021
000210 3f 1a 22 bd 97 dc c8 bc 98 8f a9 3c 87 44 bd bc
       -0.03957581 -0.024519248 0.020698354 -0.023103965
000220 8c e4 48 bb 6b 04 07 3d 56 ff 10 3d b2 51 50 bd
       -0.0030653803 0.032963198 0.035399757 -0.05085916
000230 16 6a d7 bc d5 14 85 3b 43 62 81 3c 4f 2b 06 3d
       -0.026295703 0.0040613213 0.015793925 0.032756146
000240 97 7c 3d 3b eb ae 38 bd 02 b6 41 bd f7 96 01 3d
       0.0028913373 -0.04508869 -0.047292717 0.031638112
000250 fd a0 b9 bd aa b0 84 3d 72 49 19 bd 81 02 2f 3d
       -0.09063909 0.064790085 -0.03742356 0.042726997
000260 b3 e2 2f bc ec 62 61 bd 01 72 b6 bb 96 b9 e9 bc
       -0.010735202 -0.05502598 -0.0055677895 -0.028530877
000270 5a eb 80 3d 6d 2a 99 bc 48 41 c4 3b b2 3a 36 bb
       0.0629489 -0.018696988 0.0059892274 -0.0027805981
000280 5a bd a5 bc 27 b4 f2 bc 23 17 cc bc 19 cc 25 bd
       -0.020231891 -0.029626919 -0.024913376 -0.040477846
000290 ed 41 01 bd 13 76 39 bd 60 3d b7 3c 9e de 49 3d
       -0.031557012 -0.04527862 0.022368133 0.04928457
0002a0 ff 90 9e 3d f3 67 23 3d a2 45 b7 bc 98 83 4a 3d
       0.077424996 0.039894056 -0.02237207 0.049441904
0002b0 3a 2a 9f bc d7 16 28 bc c4 52 da 3c 7f fb 69 bd
       -0.019429315 -0.010259352 0.026650794 -0.05712461
0002c0 3f 8e 32 3c ba 52 85 bd 56 00 cd bb 8d ff 07 bc
       0.010898172 -0.065099195 -0.0062561436 -0.008300674
0002d0 70 44 fa 3c aa 3e 16 3c 34 37 f2 3c 78 d9 67 3d
       0.030550212 0.009170214 0.029567339 0.05660388
0002e0 b8 f7 9b bc 55 bb af 3d 14 67 1e 3c db d7 fb 3c
       -0.01903902 0.085806526 0.00966813 0.030742576
0002f0 68 f1 62 bd 40 c3 24 3d 41 3c 88 bc b2 fc d2 3b
       -0.055406004 0.040225267 -0.016630294 0.006438815
000300 72 d8 11 bc 67 ce dd bc 00 a8 d6 bc 06 11 2d 3d
       -0.008901702 -0.02707596 -0.026203156 0.042252563
000310 09 39 85 3d 48 8e 46 bd 7b eb 46 3d 58 e6 32 3d
       0.06505019 -0.048475534 0.048564415 0.043676704
000320 3e c1 9b 3d a3 06 b7 3b 97 8c a8 3d 49 d1 5c 3d
       0.076052174 0.005585508 0.082299404 0.053910527
000330 cd e6 7e 3d af a0 7d 3a 88 88 c5 3d 09 8a 34 be
       0.062231828 0.0009675128 0.09645182 -0.17630781
000340 0c 03 c3 bd c9 26 88 3d d9 57 d1 bd a4 be 96 bd
       -0.095220655 0.06648023 -0.10221834 -0.073605806
000350 62 8e 8b 3d b5 84 3a 3d 39 a1 08 be 93 6c 0c 3e
       0.06814267 0.045536716 -0.13342752 0.13713293
000360 36 ab c8 bd 46 2f 7d 3c 7d 3b 87 bd 50 97 06 be
       -0.09798281 0.015453165 -0.06603143 -0.13143659
000370 11 8a d0 bc 6e 2c 03 3e 65 07 cc bc 23 bc 35 3c
       -0.02545646 0.12809917 -0.02490587 0.011092219
000380 6a 3a e6 bd 6c c3 45 bd 5a 50 cd bd c0 07 b6 bd
       -0.1124161 -0.048282072 -0.100250915 -0.08888197
000390 3e 3d 0b 3c eb fc 59 3d c4 23 7f bd b5 a8 9d 3d
       0.008498488 0.053219717 -0.062289968 0.07698194
0003a0 bf 9a 45 bd 92 5a 24 3d cf 1e 7f 3d d0 90 a4 bd
       -0.04824328 0.040125437 0.06228524 -0.08035433
0003b0 a1 f0 56 bd 87 51 1b bd 99 fc e9 bc 8b 0d 3b 3d
       -0.052475575 -0.037919547 -0.02856283 0.045667212
0003c0 35 a3 4c bd 8e 13 5b bd 0c 1a d4 bd e4 67 9a 3d
       -0.049960334 -0.053485446 -0.103565305 0.07539347
0003d0 24 2d be bd 2b 0e 15 3d 46 f4 69 3d b2 4d 21 3d
       -0.09285954 0.036390465 0.057117723 0.039380737
0003e0 f3 1e 09 be 9d 0a 0a be 9a 53 d3 bc b3 82 8e 3d
       -0.13390712 -0.13480611 -0.0257967 0.06958523
0003f0 6d 66 8d bd e7 98 21 3e af 17 8d 3d 9e b5 f3 bd
       -0.06904302 0.15780984 0.06889283 -0.11899875

lstm.bias_ih_l0 f4 [128]
000000 de 29 e2 bd 92 af f2 3d c4 70 37 3e 74 cb 16 bd
       -0.11043142 0.11849894 0.1791411 -0.03681512
000010 4e 4b e1 3d 64 80 fb 39 83 fc 20 bd 24 7a 77 3c
       0.11000691 0.0004797011 -0.039303314 0.015104804
000020 ce 0d d8 bc 07 4a 0a be 3d c4 e3 3c eb 15 9f 3d
       -0.02637377 -0.13504802 0.027803535 0.077678524
000030 4a 99 18 3e 14 5b 6d 3d a4 62 24 3b 76 9e dd bd
       0.14902225 0.057948187 0.0025083208 -0.1082124
000040 4a 18 a2 bb 47 16 0a 3e b5 30 f1 3d 19 85 c7 3c
       -0.004946743 0.1348506 0.11776868 0.024355458
000050 11 b0 33 bd 5b d0 2a 3e 34 98 b5 bc 82 b5 09 bd
       -0.043869082 0.16681044 -0.022167303 -0.033620365
000060 80 fd f1 bc 80 da 3c 3d 28 5d 09 3e 8a 03 01 be
       -0.029539824 0.046106815 0.13414443 -0.12599006
000070 cf 5b 1f bc f1 48 2a 3a 1d df d7 bd 6a 07 14 be
       -0.009726479 0.00064958545 -0.10540602 -0.14455953
000080 0a a9 25 bd 59 93 88 bd 3f 6a 6b 3d 46 2f 10 3e
       -0.04044441 -0.06668729 0.05747437 0.14080533
000090 41 66 8c 3a 0c 07 57 3c 20 3a c4 bd c9 71 cf bc
       0.0010711626 0.013124239 -0.09581399 -0.025322812
0000a0 16 47 0f 3e 19 34 1c be 7f 71 23 3e be 38 1f be
       0.13991961 -0.15254249 0.15961264 -0.15548989
0000b0 10 ae 10 3d 68 48 36 be f2 6c ec 3d 2a f3 e6 bd
       0.03532225 -0.17801058 0.11544217 -0.112768486
0000c0 c8 43 12 3e d0 b8 ee bd f6 14 a9 3d c1 eb b0 bd
       0.14283669 -0.11656344 0.08255951 -0.086387165
0000d0 af 5e 0e 3e e4 9d 9d bd b4 b0 1a 3d 6f 72 c7 bd
       0.13903306 -0.07696131 0.037766173 -0.09738623
0000e0 04 c6 78 3d e0 2b 84 3c ab b7 2a be 77 5d 35 be
       0.060735717 0.016134202 -0.16671626 -0.17711435
0000f0 65 59 6c bd 4a 2b 59 bd 4f eb 41 3d 79 e6 ef 3d
       -0.05770244 -0.0530198 0.04734355 0.11713881
000100 e1 77 50 bd f3 22 26 3e f2 bc 42 3e 26 1d 69 bd
       -0.050895575 0.1622427 0.1901739 -0.056912564
000110 66 7a db 3d 8e de 8e bd 93 7c 39 be c7 1b 15 bd
       0.10716705 -0.06976043 -0.18113928 -0.036403444
000120 32 5e 2d be 8e 53 18 be 02 14 c6 3d 32 95 9d 3d
       -0.16930464 -0.14875624 0.09671785 0.076944724
000130 4e 3a 69 3c 88 c5 5c bd eb 27 be bd 6b 5e 3b bd
       0.014235092 -0.053899318 -0.092849575 -0.04574434
000140 da 7e 2f 3d 70 a5 01 3d e6 2e 0f bd 94 c3 41 3d
       0.042845584 0.031651914 -0.034956835 0.04730566
000150 93 53 22 3e 6c 34 2e be 6f 50 25 3a 5f 82 c6 bd
       0.15852194 -0.17012185 0.0006306236 -0.09692835
000160 1d f1 fb bd 57 1b 02 bd ed 7c 09 3e 3a d2 8b bd
       -0.12301848 -0.031764355 0.13426562 -0.06827207
000170 73 d9 a0 3d 11 7a 9c bd 1a 78 2f 3e 0e df 1c 3e
       0.07853975 -0.0764047 0.17135659 0.15319464
000180 1a c7 60 bd 34 2d 0e 3e 6c 65 b5 bd ae f3 cd 3d
       -0.054877378 0.13884431 -0.08857235 0.10056244
000190 82 1a a2 3d 5e a2 f1 3d 76 b1 1a bd 64 f6 d4 bd
       0.07915212 0.11798547 -0.037766896 -0.10398558
0001a0 95 ec 0c be 42 1a 99 3d 8e e7 ce 3c 42 66 20 3a
       -0.13762124 0.074757114 0.025256898 0.0006118753
0001b0 63 3c 8e 3d d1 28 40 3d e2 7f cb bd 6b 29 64 3d
       0.069451116 0.046913926 -0.09936501 0.05570356
0001c0 17 0d 2e bc 11 9b 16 bd 70 05 9c 3d 89 17 12 3e
       -0.010623238 -0.036768977 0.076182246 0.1426679
0001d0 6e b6 1c 3e db 79 fb 3d e7 19 8b bd 53 ba ac 3d
       0.15303966 0.122791015 -0.0679205 0.08433976
0001e0 a9 ae 58 3d 91 4e ef 3c 7c 40 5c 3d f2 86 ac 3d
       0.052900944 0.029212268 0.053772435 0.08424176
0001f0 cc e0 6b 3d bf c1 29 3e 9e 2c fc 3d 08 a0 38 bd
       0.05758743 0.16577815 0.123131976 -0.045074493

lstm.bias_hh_l0 f4 [128]
000000 69 fb 9d bd 48 2d 66 bd f3 dc a5 3d ee 01 16 be
       -0.07713968 -0.056195527 0.08098783 -0.14649174
000010 16 92 8b 3b 47 41 1b 3d 4b 82 36 3d aa dc 1a be
       0.004259358 0.03790405 0.04455785 -0.15123239
000020 94 dd 97 bd 72 fd 29 3d 97 6e d3 bd c3 77 0b 3e
       -0.074153095 0.04150147 -0.10323828 0.13619904
000030 e1 30 fa bd 0f 09 2d 3d 8b b1 ef bb 47 4e 06 be
       -0.12216354 0.042244967 -0.007314866 -0.13115798
000040 aa 6e ae 3d 86 a1 b5 bd 33 b3 9a 3d 06 87 1e 3e
       0.08517201 -0.08868699 0.07553711 0.15481195
000050 f4 e0 19 3e c5 84 c8 3c 54 30 d2 bd 31 48 33 3e
       0.15027219 0.024477372 -0.10263124 0.17508008
000060 40 af bd bd f4 c0 01 3e e5 97 74 bd 84 03 a3 bd
       -0.09261942 0.12671262 -0.05971517 -0.07959655
000070 d4 30 99 3c 92 03 88 3c 2c d7 8d 3c 40 ea 96 3d
       0.01870004 0.016603265 0.017314516 0.073688984
000080 da b4 24 3e 8e 7c 2f 3d 65 07 23 bc 3a c8 0c 3e
       0.16084614 0.042843394 -0.009950493 0.13748255
000090 cc 3b 6a bd 64 00 bf 3d 1c e7 17 be 3c 55 8a 3d
       -0.057185933 0.093262464 -0.14834255 0.067545384
0000a0 ae 43 a9 3d 51 ec 71 3d 90 cd 18 3e 88 6b 09 bc
       0.08264862 0.05906326 0.14922166 -0.008387454
0000b0 fb 50 26 bd e4 7c da bd 7d 99 f5 bd 77 9c 0d 3e
       -0.040604573 -0.10668352 -0.11992166 0.13829218
0000c0 a7 2d 05 bd 6a 50 6f 3d 98 7d 1b be b8 f5 a4 3d
       -0.03251424 0.0584263 -0.15184629 0.0805468
0000d0 2a 4f 6f bd 84 db 1e bd a2 78 64 3d 83 31 31 bc
       -0.058425106 -0.038783565 0.055779107 -0.010815027
0000e0 57 3e 12 bd 2d f5 d6 bd 2d 96 b3 bd 16 7f 25 be
       -0.035703983 -0.10495982 -0.08768878 -0.1616176
0000f0 d0 2c c7 3d 59 36 23 be 49 47 ae bd 7b 06 a5 bd
       0.09725344 -0.159387 -0.0850969 -0.08057877
000100 7b b1 90 3d 09 95 20 3e 40 ac f6 3b 14 29 0b be
       0.07065102 0.15681852 0.007527858 -0.13589889
000110 6c 2f a0 bd 8c d1 19 be b3 02 b8 3d 0f 4f 00 3e
       -0.07821545 -0.15021342 0.0898489 0.12530158
000120 e2 7a 19 3e ee e6 ac bc 4a f3 1b be 21 8b 03 3d
       0.14988282 -0.02110621 -0.15229526 0.032115106
000130 f0 49 8e bc 64 e3 6c 3d 4f 02 f3 3c 56 0f e5 3d
       -0.01736924 0.057834044 0.029664187 0.11184566
000140 62 eb b8 bd c8 93 d9 bd 3e 75 5e bd 18 51 2c bd
       -0.09029271 -0.1062389 -0.05431103 -0.042069525
000150 1a 4c c7 bd 3a 9c c4 3b 1b 85 00 bc f2 c9 1b 3a
       -0.09731312 0.006000069 -0.007844235 0.0005942873
000160 3f ad 0d be 64 48 3b 3d 06 4e cc bd 7a 7c 17 3d
       -0.1383562 0.045723334 -0.09975819 0.036983944
000170 3e 16 44 be 69 39 fc 3d 49 bc 20 be 1b bc 03 bd
       -0.1914911 0.123156376 -0.15696825 -0.032161813
000180 90 ce df 3d 22 28 72 bc e7 de dc 3d 68 33 65 bc
       0.109280705 -0.014780076 0.10784703 -0.013989307
000190 c5 07 ab 3d d2 be 34 3d 3c c1 07 bd 93 82 04 3e
       0.08351091 0.044127293 -0.033143267 0.12940435
0001a0 32 dc 0e be 58 39 78 bc ca 5c 87 3d 12 b6 d3 bd
       -0.13951185 -0.015150391 0.06609495 -0.103374615
0001b0 81 0b e7 3c cd 68 11 be 66 bf 0f 3e 7c 0b e4 3d
       0.028203728 -0.14200135 0.14037856 0.11135003
0001c0 2d 8c d8 bd dc dc 82 3d 03 35 98 bb 1b 2c f6 3d
       -0.105736114 0.06389782 -0.0046449914 0.12020131
0001d0 5e 79 b3 3d 2b 1f 16 3e 8c 85 cd 3b 78 59 b1 3c
       0.08763383 0.14660327 0.0062720235 0.021649107
0001e0 47 cd 37 bd f5 cf dd bd f3 a4 56 3c d3 6a c4 3d
       -0.044873502 -0.1083068 0.01310085 0.095906876
0001f0 a2 9e 1e 3e ab 72 ba bd 2f 36 90 bd 7b bf a7 bd
       0.15490201 -0.091039024 -0.07041585 -0.08190819

fc.weight f4 [2, 32]
000000 8f 46 0e 3c 2b c4 48 3e 70 3c 34 3e a9 6e 54 3d
       0.008683815 0.19606082 0.1760118 0.051863346
000010 57 e6 fc bd ff 0e 1f be 37 3f 7b bd 1c d8 2d be
       -0.12348621 -0.15533064 -0.061339583 -0.1697697
000020 23 a1 b7 3d 9e 9d 80 3d 78 7e e0 bb 53 af d0 3d
       0.08966281 0.06280063 -0.0068510137 0.101896904
000030 75 72 23 be c7 70 1e 3e d1 e9 09 3c 63 38 d4 3d
       -0.1596163 0.15472709 0.008417563 0.103623174
000040 2d fb d3 3c 54 4b 2b 3e e9 da 47 3e 39 09 eb 3d
       0.025876606 0.16727954 0.19517101 0.114763685
000050 55 eb 9f 3c a2 af 09 be 8a 0c 4a bc 60 29 9c 3b
       0.019521395 -0.13445905 -0.012332091 0.0047656745
000060 59 75 a8 3d f1 aa 3e 3e da 21 f4 bd 36 62 c0 bc
       0.08225507 0.18619896 -0.11920519 -0.02348433
000070 12 c2 95 ba 61 e7 85 bd 02 05 28 3e 1d ac 7a 3d
       -0.0011425635 -0.06538273 0.1640816 0.061199296
000080 47 de b7 bd 63 4f 42 bb be 1e 10 3d e3 01 a6 bc
       -0.08977943 -0.002964937 0.035185568 -0.020264572
000090 dd 61 84 bd f9 c5 21 be 46 50 3a 3e 38 4c 92 3b
       -0.064639784 -0.15798177 0.18194684 0.0044646524
0000a0 66 a4 08 3e ae da 92 bd f4 62 1b 3e dd c5 d6 bd
       0.13343963 -0.07170616 0.15174466 -0.10486958
0000b0 83 27 23 3e f8 58 a1 bd e2 9b 01 be e3 75 33 bd
       0.15933041 -0.078782976 -0.12657121 -0.043813597
0000c0 eb 61 fa 3a 2b 8d 8f bd 23 3e 4b bd c9 da af bc
       0.0019102668 -0.070093475 -0.049619805 -0.02146663
0000d0 90 a1 14 be 31 12 25 3d fb b4 81 3d e4 dd a6 3d
       -0.14514756 0.04030055 0.063333474 0.08147791
0000e0 6c 4b 11 be dc cd 1a 3e 51 09 47 3d 94 9c 08 be
       -0.14188927 0.15117592 0.04859287 -0.1334098
0000f0 3b f6 1e 3e 26 ff 18 3e db b5 6c bc d3 16 16 be
       0.15523617 0.14941081 -0.014447655 -0.14657144

fc.bias f4 [2]
000000 3d 3f c5 3d 9e e7 42 bd
       0.09631202 -0.04758417
