LSTMStockTrading/models/AAPL_improved_model_0.pth (torch, 29565 bytes, 6 tensors)

lstm.weight_ih_l0 f4 [128, 17]
00000000: 2603 703d a2ee 8d3d dbef 52bd 6827 273e
00000010: 67ce b2bc e2c5 753d 82b6 01bd ce40 003e
00000020: db28 133e 077a 11be 5563 113e f2a2 283d
00000030: 2ac9 ee3d 0135 ba3c e7d2 673d 7b31 4fbd
00000040: 8870 dc3d bb15 f63c b3ad 8abd 03bf 6c3d
00000050: 69fe 6fbd 1984 0dbb 953e 04bd cf00 d83d
00000060: 9419 e4bd c499 5fbd 7149 04bd a9d1 98bd
00000070: f2fe 053d 3c67 1cbe fd76 083e 09b2 0dbe
00000080: e484 e13d d593 7b3b 17d0 0cbd 2b19 ed3d
00000090: a6f9 c63c d2c7 ee3d 0229 6e3c 68bd 13bd
000000a0: f445 023d db71 d43b 5d25 033e fb63 133e
000000b0: 05f2 b93d cec5 88bd a37f d63d d408 823d
000000c0: 89cb bc3d 6f9b c4bd d628 07be 4ecf fabd
000000d0: 7d7d 3dbe 1b87 ce3d 6538 b23c 5384 143d
000000e0: b2c0 143d 1d0f e7bc 2b54 e63d 712f 06be
000000f0: 9e12 e9bc 2ce4 14be fe27 b13c c1bd a5bd
00000100: fe8a 993d c4f4 18bd 7775 1a3e 0d8d 05be
00000110: feda 09be 3394 09be 331f 173e cfce 653d
00000120: c21f 063e 3889 4dbe 6245 4dbe f30d 20be
00000130: 3d96 98bd 3f64 433d 0620 333d 582a c83d
00000140: 4693 f3bd 15fe ddbd bfcd 983d eebe 20bd
00000150: bb23 c23d 48f3 a5bd cb32 233d eebf 04be
00000160: 5ede ccbd 68a5 4f3d 75e1 2b3d dee9 433b
00000170: 8554 3b3e 3cd8 5f3e c08a 10be 8301 babd
00000180: 5ae4 003e e253 babd 8fa6 a8bc d11d 12be
00000190: fe58 aabd a919 253d 47eb 32bd 170a 11be
000001a0: ab3b 1fbc 0092 f6bd 40cd 07be 930f d9bd
000001b0: f7d6 0cbe 93a6 b3bd e8e3 153e 55a6 913c
000001c0: bf5f 2b3d 63e6 25be 9860 dabd e502 6dbd
000001d0: 0430 8c3c 8393 fdbd 1d11 b8bd faf8 bdbd
000001e0: 126b 183c df63 19bd 535e a43c 51f6 ecbd
000001f0: 69d0 0cbe 0f9e 23be dc38 ecbd d8a1 0dbe
00000200: eb3e 273e 1063 06bc 8255 0d3e 679f 473d
00000210: cf1b 4ebe 0285 f93d a149 56bc 359c babd
00000220: f326 42be 3178 60be d930 d23c 85cb 39bd
00000230: 9508 b63d 4712 debd 221f 2b3e 2e3a b0bd
00000240: 8ba5 aebc c349 163c 7357 8d3d e5ac 183e
00000250: 8a94 383e a44b d4bd a0a7 6c3d 35f8 00be
00000260: 541a 26bd 77ff 91bd 591b 453e 3300 e1bd
00000270: e832 8a3d 5e0a 883d 9337 9b3d d9ea babd
00000280: 594b 2d3e 7669 b13d a7f7 063d 8fb7 0bbe
00000290: a82b a93d 0c53 5abc a104 1fbd 6d91 1b3e
000002a0: c1ba 443c b67b d2bd 2dc3 f0bb 828a 753d
000002b0: b9d0 de3c 4934 b9bd dea0 c2bd d7b6 a4bd
000002c0: 4680 07be ef76 0e3d 8d71 033e 85a4 20be
000002d0: 0ff9 2ebb 3795 493d e423 a73c 5449 79bd
000002e0: c69b 903d 9e9a e33d 3aa7 8c3d 87ea b5bc
000002f0: c099 15bd 1e80 06bc 337d ccbc a49a c1bc
00000300: b09b c33d 2b17 343e ba83 cd3c 005f 1537
00000310: f08b 02bc 16d3 64bc 1449 193d 1c13 513d
00000320: db0b e8bd 6592 30bd b193 e03d 3a51 603d
00000330: 4e9f 96bc a63b e9bd 6294 d8bd 0d16 15be
00000340: 14ae b0bc d107 e63d 14d4 143e 117b cd3d
00000350: 12ae 27be 4e19 cdbd d8f5 6bbc ac7d 4f3e
00000360: 2f6e 783d 595d eabc ad37 ce3d 8eba acbd
00000370: 95dc 95bd c5a8 af3d 9b41 cdbd a87f 62bd
00000380: 9055 36be 60d6 a33d 5724 bd3d 0844 9f3d
00000390: b4cb acbd c081 f5bd 7a9a 19be 1004 c33d
000003a0: 80e9 263d dd06 9e3d 5630 dc3d 9431 a13b
000003b0: 47c2 a4bc 6d3b 0cbe 260a 3bbe 2691 47be
000003c0: 54d0 883c 528f a9bd 07aa 34bc a371 e7bd
000003d0: 9874 66bd 8c39 08be 288d d6bd c98a b9b9
000003e0: 4bc3 7fbd 06cb a23d b7f5 96bd bc27 c6bd
000003f0: 0d75 46bd a61f adbd a874 8cbd cc0b 10be
0.058596753 0.06930281 -0.051498275 0.16323626 -0.021826936 0.06000317 -0.031668194 0.12524721
0.14371054 -0.14206706 0.14198048 0.04117102 0.11659463 0.022730352 0.056597617 -0.050584298
0.10763651 0.030039659 -0.06771412 0.05779935 -0.058592234 -0.002159363 -0.032286245 0.10547029
-0.11137691 -0.05459 -0.0322966 -0.074618645 0.032713838 -0.15273756 0.1332664 -0.13837446
0.11011675 0.0038387675 -0.034378137 0.11577066 0.024288964 0.116592064 0.014536144 -0.036069304
0.031804994 0.006483299 0.12807222 0.14393608 0.09079365 -0.06678353 0.104735635 0.0634934
0.09218509 -0.09599959 -0.13199171 -0.122465715 -0.18504901 0.10084363 0.021755407 0.036259007
0.03631658 -0.028205449 0.112465225 -0.13104035 -0.02845126 -0.14540166 0.021625515 -0.08092833
0.07497214 -0.0373428 0.15083872 -0.13042088 -0.13462445 -0.1343544 0.14757995 0.05610543
0.13098052 -0.20071876 -0.20045999 -0.15630321 -0.07450531 0.047703024 0.04373171 0.097737014
-0.118933246 -0.10839478 0.07461118 -0.039244585 0.09479471 -0.08103043 0.03984336 -0.1296384
-0.10003351 0.050694853 0.04196306 0.0029894034 0.1829396 0.2185983 -0.14115429 -0.090823196
0.12587109 -0.090980306 -0.020587234 -0.14269187 -0.08317755 0.040307675 -0.04368141 -0.14164005
-0.009718816 -0.12039566 -0.1326189 -0.10598674 -0.13753878 -0.08772006 0.1463772 0.017779509
0.041839357 -0.16201167 -0.10662955 -0.05786409 0.01711274 -0.12381651 -0.08987639 -0.09276004
0.009302871 -0.03744876 0.020064509 -0.115704186 -0.13751377 -0.15978263 -0.115342826 -0.1383127
0.16332595 -0.008202329 0.1380215 0.048736002 -0.20127796 0.12183572 -0.013079078 -0.091118254
-0.1896017 -0.2192085 0.025658058 -0.045360107 0.08888356 -0.1084333 0.16711095 -0.08604847
-0.021319171 0.00917286 0.06901445 0.14909704 0.18025413 -0.1036599 0.057777047 -0.12594683
-0.040552452 -0.07128804 0.19248714 -0.10986366 0.06747991 0.066426024 0.07578959 -0.09126825
0.16923274 0.08662693 0.032951023 -0.13644241 0.0826028 -0.013325464 -0.038822774 0.15192194
0.012007416 -0.10277502 -0.0073474855 0.059946544 0.027199136 -0.09043176 -0.09503339 -0.080426864
-0.13232526 0.034781393 0.12836285 -0.15687759 -0.0026698743 0.049214568 0.020402856 -0.060860947
0.070609614 0.11113475 0.068678334 -0.022206558 -0.03652358 -0.008209256 -0.024962043 -0.023633309
0.095511794 0.17586963 0.025087226 8.903211e-06 -0.007967934 -0.013966342 0.03742321 0.051043615
-0.11330386 -0.043108363 0.1096567 0.054764964 -0.01838651 -0.1138833 -0.10575177 -0.14559193
-0.021567382 0.112319596 0.14534026 0.10033239 -0.16374996 -0.10014592 -0.014401875 0.20262784
0.060651954 -0.028608965 0.10069213 -0.0843402 -0.07317463 0.08577112 -0.10022279 -0.055297524
-0.17806077 0.07999873 0.09235447 0.07776648 -0.08437291 -0.119876385 -0.15000334 0.09522259
0.040750027 0.07716153 0.10751407 0.0049192403 -0.02011217 -0.13694544 -0.1826559 -0.19488963
0.016700901 -0.08279289 -0.011026866 -0.11300971 -0.056263536 -0.13303202 -0.10476142 -0.00035389353
-0.062442105 0.0794888 -0.07371085 -0.096755475 -0.048451472 -0.08453302 -0.06858188 -0.14067

lstm.weight_hh_l0 f4 [128, 32]
00000000: cfd2 ae3d a0c8 a7b9 2f14 d0bc e5b2 713d
00000010: 96cb 443c c1cc 2a3c 341c 7fbd e290 61bd
00000020: 3205 2b3d 7b86 913c 632d 92bd bd82 943d
00000030: 8a03 a4bd 84f3 f1bd 255f 03bd 19ab 1fbd
00000040: 3efb 73bb b111 04bd e0c9 ec3c e442 04be
00000050: e8e7 7f3b 2d1b 86bc ddea 063d fe6c cf3d
00000060: 06fd f83d c7d9 babc de0d 71bd 49a0 72bd
00000070: aeab a8bd c410 0f3d a1dd de3c 217c cc3d
00000080: 5108 503d 1728 263b 1fa3 de3c ee29 e33c
00000090: 4ff1 fd3b 10bf a53d 9e62 cabd 252a 8a3d
000000a0: b36e b1bc 7923 89bd 8350 e1bc 6b53 bc3c
000000b0: 4810 893d b0e9 113d 889d 38bc 7606 c1bc
000000c0: 9780 55bd fb5d 833c 6096 10bd 314d a23d
000000d0: 3176 8d3d 5e09 acbd 762a 87bb 4ae2 3bbd
000000e0: f1a0 6a3c e829 8bbd 4461 dabb 6ea5 99bd
000000f0: 51bd a43d f74b c13d 8a3a 54bd fcfb a9bd
00000100: 610e fbba 43ea 35bc f69d 903d 361c 9abd
00000110: 4525 ec3b bfe9 133c a958 1dbd 2921 1abc
00000120: 7317 463d 6393 ba3b e0cd ddbd d0b4 c1bd
00000130: 2bba 84bd 316c c0bd 09a1 2e3d 40e0 b3bc
00000140: 90e2 52bd 02a7 a53c ed10 bfbc f3e3 dfbd
00000150: 26ed c8bc 0416 823d d672 1b3e 14d8 80bd
00000160: 3d66 8d3d 660e 67bc ec5d 0a3c 9b75 1abe
00000170: 51a5 bc3d 0bd9 103e ad46 333d 1495 d63d
00000180: 5ad9 0a3e 03cd ec3d 15fd fc3d 3c9a cebd
00000190: d254 f6bd 75d9 3fbd 3ede 9f3d 5718 d0bd
000001a0: 5685 9cbd 130e f0bc baa3 f0bd f599 28bd
000001b0: b6cd 063d 05ab 9cbd 3c6c ef3d c42e eabd
000001c0: caa1 07be fd6a e13d 2162 0a3e bc94 cabc
000001d0: 3769 9fbd 9c42 33bd c32d 583b 5ce4 363d
000001e0: dc2b 8b3d 973e 96bd 551c a8bd 8b04 19be
000001f0: 31f5 a7bd 79b4 923d 152e 0cbd eefb 83bd
00000200: d28e e43b 31a7 41bd 095b edbd 1d89 d0bd
00000210: b3d8 4cbd 6ef5 c53d 1eb7 7b3d 7ac8 66bb
00000220: d7db 463d 43f9 7f3d 311f e03c e5a2 c6bd
00000230: 3c8c 0dbd fa72 92bd c25e b5bc 1a11 fabd
00000240: c67a 85bd fb72 86bc 4aca 263e d654 263e
00000250: 277e 9a3d b0f1 a23a a7a3 84bd a9a1 7e3d
00000260: 2939 f6bd 53c3 99bd ec0c 0abd 6647 cfbc
00000270: e39d 19be ab63 8d3d 9246 e43d b104 0bbd
00000280: bda6 733d 1383 d03b 09cb 473d c896 b13c
00000290: 97bd 933d 6fb2 a03d 62b9 4fbc 0f4d 693d
000002a0: 4503 5b3d aff3 143d 009f a13b 35e6 e2bd
000002b0: 1e6f 8fbc 46f9 27bd b73e 7e3d c092 e0bd
000002c0: 6d4c d9bd bdc4 c43d 6cbe 3abd ad35 8f3b
000002d0: 9aaf 8f3d 1dd2 0a3e df67 603d be97 38bd
000002e0: 706f dcbc 5fc2 89bd 158a 19bd ed0d 44bd
000002f0: 7039 4e3d bd88 373e 009f af3d 1315 283e
00000300: ebfc 5abd b865 db3d 2717 003e e2a2 12bd
00000310: 183f 79bd 9dae 87bd d83f 25bd 3956 af3b
00000320: e227 a2bd ec2a c73c 0b1a 08bd 7e02 23bd
00000330: 0776 4cbd 233d 16bd 1b59 acbd cf67 8dbd
00000340: c068 f4bb e966 743d 7dc3 d03d a377 bebd
00000350: 99e9 503d 01a1 a5bd 1f7d 9fbd c6fb 303c
00000360: f8d4 b3bd f5cf f2bd 5186 d6bd 3fcf a5bd
00000370: 6fe4 1d3e 66c5 8e3d 55b3 6dbd ac15 c5bd
00000380: 53c0 dfbd f2e5 96bb cd3a 70bd 243e a83d
00000390: 50d2 363c 97af b1bd 6fdf af3d ba3f 3abd
000003a0: 3861 88bd 732c 1d3d 16d2 65bd 455a 9f3c
000003b0: c896 ee3d b799 24bc 654a c7bd 986c 753d
000003c0: 938d b8bd eb4e a23d f692 293c cb0f ab3d
000003d0: cfd9 4bbd 3ed5 e7bd fd9a 40bd 3ca3 903d
000003e0: 9467 8f3d bea7 e13d a94d 5abd c30a ffbc
000003f0: 6def 8a3c 7349 97bc 3a70 8cbc 8fa0 e2bd
0.08536302 -0.000320022 -0.02540025 0.059008498 0.012011429 0.010424794 -0.062282756 -0.05506981
0.041753 0.01776432 -0.07137563 0.07251499 -0.080084875 -0.11814025 -0.03207316 -0.03898153
-0.003722861 -0.032243434 0.028904855 -0.12916142 0.003904814 -0.01637038 0.032938827 0.101282105
0.121576354 -0.022808922 -0.058851115 -0.05923489 -0.0823587 0.0349281 0.02720529 0.09984613
0.05078918 0.0025353485 0.027177392 0.027729955 0.0077497135 0.08093083 -0.09882091 0.0674632
-0.02165923 -0.06696219 -0.027504211 0.022988996 0.066925585 0.035623252 -0.011268027 -0.023562651
-0.052124586 0.016036024 -0.03529966 0.07924879 0.06907309 -0.08400224 -0.004124935 -0.045870103
0.014320598 -0.06795102 -0.006664427 -0.07502256 0.08043922 0.09438317 -0.05181364 -0.08300015
-0.0019154066 -0.011103216 0.07061379 -0.07524912 0.0072065913 0.009027897 -0.03841463 -0.00940732
0.048362207 0.0056938394 -0.10830283 -0.09458315 -0.06480821 -0.09395636 0.042634044 -0.021957517
-0.051485598 0.020221237 -0.0233235 -0.1093215 -0.024527144 0.063518554 0.15180525 -0.06291214
0.06904266 -0.014102554 0.008445244 -0.15083925 0.09211219 0.14145295 0.043768574 0.10477653
0.13559476 0.115625404 0.12352959 -0.100880116 -0.12027897 -0.046838243 0.07806061 -0.101608925
-0.07642619 -0.029303586 -0.11749978 -0.04116245 0.032911025 -0.07649807 0.11690566 -0.11434701
-0.13245311 0.110067345 0.13513996 -0.024729125 -0.0778374 -0.043764696 0.003298626 0.044651374
0.06795475 -0.07336157 -0.08208529 -0.1494314 -0.082010634 0.07163329 -0.034223635 -0.06444536
0.0069750333 -0.047278587 -0.11589629 -0.10182402 -0.050011348 0.096659526 0.06145393 -0.0035214708
0.0485495 0.062493574 0.027358623 -0.096990384 -0.034557566 -0.07150836 -0.02213991 -0.12210293
-0.06517558 -0.016412249 0.16288105 0.162433 0.07543593 0.0012431648 -0.06476527 0.06216589
-0.12022621 -0.07507958 -0.03370373 -0.0253026 -0.15001635 0.06903776 0.11146273 -0.03394002
0.059485186 0.0063632815 0.048777614 0.021678343 0.07213896 0.078465335 -0.012678476 0.056958254
0.053469915 0.036365207 0.0049322844 -0.11079065 -0.01750904 -0.04100921 0.06207153 -0.1096549
-0.1061028 0.09607837 -0.045591757 0.0043704123 0.07015915 0.13556714 0.05478656 -0.045066588
-0.026908606 -0.067265265 -0.0374852 -0.047864843 0.050347745 0.17923255 0.08575249 0.16414289
-0.053463858 0.10712761 0.12508832 -0.03579987 -0.060851187 -0.06625102 -0.04034409 0.0053508547
-0.07917763 0.024312459 -0.03322796 -0.0397973 -0.049917247 -0.0366794 -0.08415433 -0.069045655
-0.0074587762 0.059668455 0.101935364 -0.09300163 0.051004026 -0.0808735 -0.07787537 0.010802215
-0.08780855 -0.11856071 -0.104748376 -0.0809617 0.15419172 0.069712445 -0.058032352 -0.09623274
-0.10925355 -0.0046050483 -0.058649827 0.082149774 0.011158541 -0.08676069 0.085875385 -0.04547093
-0.06659168 0.03837247 -0.056108557 0.019452224 0.11649853 -0.010046414 -0.097309865 0.059918016
-0.09011378 0.07925209 0.01034998 0.08352622 -0.049768265 -0.113199696 -0.04702281 0.070623845
0.07002178 0.110183224 -0.05329672 -0.031133061 0.01695987 -0.01846764 -0.017143358 -0.1106578

lstm.bias_ih_l0 f4 [128]
00000000: 0c5c bdbd 650a fd3d 1c90 3a3e 382e 2c3e
00000010: 1911 59bb 8e51 123e 0daf de3b 6687 91bd
00000020: 101e 1cbe c3df adbc 13eb 943d b0af d43d
00000030: 85f2 573d 69cd f53d 4536 003e d5f3 08bd
00000040: 983a 3d3e 8492 423c 69f3 64bc b016 4abd
00000050: fbf3 8bbd ae7f 01be 2e76 a33d 1546 123e
00000060: 6c9d ee3c 527f fd3c 7086 98bd e309 87bd
00000070: 0368 9ebc e78d ba3d eab3 5d3c c833 5bbd
00000080: 1a74 863c a423 b7bc 07ed 703d eef1 3d3e
00000090: 4bd6 51bd d972 973e 6838 a9bd 95b9 3b3e
000000a0: 8259 4a3d 6bc8 553d 6089 ccbc 690c a1bc
000000b0: 6038 0bbe bfee b0bd bff5 203e 8449 363e
000000c0: 85f6 f63d dbc9 66bd aea5 ba3d 423b e13a
000000d0: 149b b1bd b57e 0abe fe35 c13d b76e 28bd
000000e0: ddf3 0cbd 0d57 89bd 2d75 6e3d 02f3 99bd
000000f0: 7002 dbbb 7ebf 003e d308 1f3e dd39 353e
00000100: 5689 123d 6db9 023d 5e12 243e 5694 193e
00000110: e643 9d3d ed8c 863d 2dd1 153d 3a87 b03c
00000120: c485 d33d 0fc6 013d 2aa9 37be 2bfc 10be
00000130: 8493 18be 6756 11bd 68d6 b63c f92c 60bd
00000140: e52d 28be d5d3 b4bd 9db6 9b3d b90e bbbc
00000150: e03d 8ebc f739 fc3c e592 0ebd d5ab e8bd
00000160: 7aae 85bd 7a83 80bd 25c3 34be 8479 24be
00000170: 6f4e 6fbd 2918 933d be70 2f3e b318 a5ba
00000180: fe8c da3d f714 723d 2523 c5bd d7ad 34bd
00000190: 5ea6 21bd f1b3 a6bc 96e3 ee3c f30e 143d
000001a0: b14c debd 878e 36bd dce9 06be 4db6 303e
000001b0: d6aa e63d dc0f 8338 b96d 2f3e c630 eebd
000001c0: efc7 5b3e 7893 54bd 8078 b73d c22b 0c3e
000001d0: d44d a03d 542b 203d 2f28 8e3b c8a9 a43a
000001e0: a221 0c3e fbb4 65bd c751 77bd 506e c13c
000001f0: c15f 49bd 2b20 b9bc 32b1 3cbb 7bf9 1b3e
-0.09246072 0.12355498 0.18219036 0.16814506 -0.0033121763 0.14288923 0.00679577 -0.07105903
-0.15245843 -0.021224862 0.07271399 0.10385072 0.05272152 0.120020695 0.12520702 -0.03343566
0.18479383 0.011875752 -0.013974049 -0.049338043 -0.06833645 -0.12646362 0.07981525 0.14284547
0.029127799 0.0309445 -0.07447517 -0.065936826 -0.019336706 0.09109097 0.013531664 -0.05351618
0.016412783 -0.022355862 0.058819797 0.1854932 -0.051229756 0.2957981 -0.08262712 0.18332513
0.049401768 0.052193087 -0.02496785 -0.019659238 -0.13595724 -0.08639287 0.15718745 0.17801481
0.120587386 -0.056344848 0.09113632 0.0017183798 -0.08672157 -0.13524897 0.09434126 -0.04112121
-0.034412254 -0.06706057 0.058217216 -0.07517053 -0.00668364 0.12573048 0.1553071 0.17697854
0.035775505 0.031915117 0.16022632 0.14997992 0.07678966 0.06569848 0.03657644 0.021548856
0.10328248 0.031683024 -0.17935625 -0.14158694 -0.14900023 -0.03548279 0.022319034 -0.05473039
-0.16423757 -0.08829466 0.0760319 -0.022834169 -0.017363489 0.030789359 -0.03480806 -0.11360899
-0.065274194 -0.06275077 -0.17652567 -0.1606198 -0.05842441 0.071823426 0.17132851 -0.0012595862
0.106714234 0.059102025 -0.09625844 -0.0441111 -0.0394653 -0.020349475 0.029161256 0.03614707
-0.108544715 -0.04456952 -0.13175148 0.17257042 0.11263053 6.249521e-05 0.171317 -0.116303965
0.21462987 -0.05189845 0.089585304 0.13688567 0.078273445 0.03910382 0.0043382864 0.0012562806
0.13684705 -0.0560808 -0.060380723 0.023612171 -0.049163584 -0.022598347 -0.002879214 0.15231888

lstm.bias_hh_l0 f4 [128]
00000000: 64b1 8a3d 385c bcbd 5a02 173e 9ce9 43bc
00000010: 5e40 313d 9dc1 e83d 69e8 f53d ffef 37bd
00000020: ef0d 58bd b749 0abd f6e0 0c3c 30fb 66bd
00000030: db08 053e 1dfa 17bd 8126 4d3d 02fb 07be
00000040: 321b 4d3d bd76 a9bc 023f adbc c528 de3d
00000050: 47c8 e8bd 9788 ca3c c343 cd3c cc09 abbd
00000060: 4067 053e e61a eb3d 69a8 173d 9a4e ab3b
00000070: d44a 053e 031f 12bd e9fe 1dbe 71db 333e
00000080: d11b 9cbd d734 1d3d 0daa 963d 6367 553e
00000090: 3e31 3e3e d534 3b3d 83db 233c dc28 d5bd
000000a0: 835d c33d 65ed 103e 9670 45bd 75ed 473d
000000b0: 886a 45bd ddbc bf3c 546f 303e 9d13 19be
000000c0: c45a 403d c550 083c 630a a5bd b3c3 a23d
000000d0: b2b6 063e 3957 09be 4b14 cf3d 06c3 ccbb
000000e0: 7c60 203e f87a ffbd ae5e 003e 29eb 55bd
000000f0: 5bcb 463e 0edc 35bd ea26 a13c 317f 803d
00000100: 258a 9a3d d689 dc3d 9792 013e 6f2f 2fbd
00000110: faf2 10be 9f3f 853c d447 1e3e 2302 1f3e
00000120: 9aba eebd c561 d23d 9965 363d 53ea 8fbd
00000130: 9018 db3d a636 1d3c c528 0e3d 0e9b c3bd
00000140: 9a11 c2bc 593b 4b3e bcbb e03d 3775 1cbe
00000150: 59dd ee3a d76d ea3d 3757 95bd f0aa 25bd
00000160: cde6 d03d 0dbc 1f3e 3d7a 173e 4f87 00be
00000170: 2467 21be 22f5 043e ec7c 6cbc b99c 263e
00000180: e0a5 e33d 9571 74bd 5021 b23d 2b31 cd3d
00000190: aa68 5bbd a8dc 803e ae9a 9c3c e0a8 6cbd
000001a0: 7097 06be ddd5 f13d 6ea0 18be ec01 0c3e
000001b0: ccfe 4abd 571e f83c 3fcd 613d 7cde 243e
000001c0: 5088 3dbd 5182 dabd da1f 0d3e 747f 8abd
000001d0: 38b9 3bbd 1656 c73d 7c3c 3fbd 5d20 bd3d
000001e0: ae8b 87bd 39a3 073e 45e1 213e 6755 d03c
000001f0: 88b4 babc 938a 043e 4beb 003d 3101 b73c
0.06772116 -0.09197277 0.14746991 -0.011957552 0.043274276 0.11365054 0.12007219 -0.044906612
-0.052747663 -0.033761706 0.008598557 -0.056391895 0.1299166 -0.03710376 0.05008555 -0.13279346
0.050074764 -0.020686502 -0.021148209 0.1084762 -0.11366325 0.024723334 0.025056725 -0.08351478
0.13027668 0.1147974 0.037025843 0.005227876 0.13016826 -0.035674106 -0.15429272 0.17564179
-0.07622493 0.03838047 0.07356653 0.2084022 0.18573472 0.04570468 0.010001066 -0.10408184
0.0953932 0.14153059 -0.048203073 0.04881044 -0.0481973 0.023405487 0.17229968 -0.14948888
0.04696156 0.008320038 -0.08058622 0.07947483 0.1315563 -0.13412179 0.101112925 -0.0062488345
0.15661806 -0.12474626 0.12536117 -0.05222622 0.19413511 -0.044399314 0.019671876 0.0627426
0.0754588 0.107684776 0.12653576 -0.042769846 -0.14155188 0.016265688 0.15457088 0.15528159
-0.11656685 0.10272554 0.044530485 -0.07027116 0.10698044 0.009595549 0.03470685 -0.09551059
-0.023690034 0.19846858 0.109733075 -0.15279089 0.0018223926 0.114467315 -0.072920255 -0.04044622
0.10200272 0.1559908 0.14792724 -0.12551616 -0.15762001 0.12984136 -0.014434081 0.16270722
0.111156225 -0.059678633 0.0869776 0.10019144 -0.053566612 0.25168347 0.019116726 -0.05777824
-0.13143706 0.11808369 -0.14904949 0.13672608 -0.0495594 0.030287905 0.05512738 0.16100496
-0.046272576 -0.10669387 0.13781682 -0.06762591 -0.045830935 0.097332165 -0.04668854 0.092346884
-0.06618439 0.13245858 0.1580859 0.025431348 -0.022791162 0.12943487 0.031474393 0.022339435

fc.weight f4 [2, 32]
00000000: 64b6 103e d08e 713c 114f 673d b6e0 b9bc
00000010: 8594 2cbd ab01 b53b d74c b13c adc1 a33d
00000020: 7b59 253e b07a c33d d52f c7bd 14db 293e
00000030: a70c 0f3e 67f1 b83d f4b5 563c 0b7a b9bd
00000040: af75 2dbe b85f 32bc 6fc1 0dbe ad4a a93d
00000050: 1dea 23be 9dcc 27be 6bde c7bd e66b e43d
00000060: 8124 0a3e bf7b 14be 4d05 c4bd 1647 493d
00000070: ece7 45bd 9373 1ebe 051c 0c3d 99ad 28be
00000080: c7f3 dc3c ab2d 403d 6561 2c3e 2ec5 38be
00000090: 1019 113e 12ee 3a3c d357 133e 11d0 2e3e
000000a0: 7788 94bd 3281 74bc edc8 9fbc 420a 063e
000000b0: 5d88 c6bd bb94 b73d f40b a13d 8347 203e
000000c0: 3f97 413e e06f 1e3e ec0a 0dbe d1b5 e8bd
000000d0: 5bce ffbd 95d0 c03d 4c32 5e3d 1adf 693d
000000e0: 6a43 8e3d 0c3c 873b f4e9 533d 5472 d8bd
000000f0: 88f1 053e 20f1 10be 6bc5 16be 414f 9f3d
0.14132077 0.014743522 0.056471888 -0.022690158 -0.042133827 0.0055238805 0.021643085 0.07995925
0.16147415 0.09544885 -0.0972592 0.16587478 0.1396967 0.09030419 0.013104904 -0.09056481
-0.16939424 -0.010887079 -0.1384332 0.082661964 -0.16007276 -0.16386648 -0.0975922 0.111533925
0.13490488 -0.1450033 -0.095713235 0.04914006 -0.04831688 -0.15473776 0.03420641 -0.16472472
0.02697171 0.046918552 0.16834028 -0.18043968 0.14169717 0.011409299 0.14388971 0.17071559
-0.07252591 -0.014923381 -0.019504989 0.1308985 -0.09693978 0.08963915 0.07863608 0.1565228
0.18905352 0.15472364 -0.13773698 -0.11362804 -0.12490531 0.09414784 0.054247186 0.05709753
0.06946452 0.004127031 0.051736787 -0.10568681 0.13080418 -0.14154482 -0.14723746 0.07778788

fc.bias f4 [2]
00000000: 6545 1f3e 815d 5ebd
0.15553816 -0.05428839
