LSTMStockTrading/models/AAPL_improved_model_2.pth (torch, 29565 bytes, 6 tensors)

lstm.weight_ih_l0 f4 [128, 17]
00000000: c236 a83d 6df2 ac3d 27a8 b03d 1cc0 12be
00000010: 6380 dc3c 8a22 803d 8ba3 e0bc 9e87 98bd
00000020: 2ac2 403e 5dc5 d23d aba0 053e e389 9a3d
00000030: 95ae a93d a478 febd c5a4 803d 396b 81bd
00000040: 93da e33b 87a6 d93c bed6 633d e8ea a0bd
00000050: a713 0f3e 0a29 a13d 9a7a 033e 4613 25bd
00000060: 7d98 dcbc cb32 9dbd f974 2abe 4385 aa3d
00000070: 5b29 c53d 659d e8bc 6ee9 04be e65f 073e
00000080: 4c9c 09bc 487d 84bd a6f8 a73d 3a99 fabd
00000090: 4e5b f9bb 35d1 6abc 3f85 903d eee2 86bd
000000a0: a332 11be 4fa7 bf3d 3028 843d 5a65 09be
000000b0: 7f71 cdbc 8829 2abe f12d 1b3d 7c13 2abc
000000c0: 969f d9bd 57c4 ad3d fbf0 bebd b34f 053e
000000d0: 6ce7 123e 8e0e e6bd d282 babd 9c14 dc3d
000000e0: 7db3 c5bd 13ad c53c b352 9e3d dc60 9c3b
000000f0: 8101 0cbd bd12 2a3d 102f 843d 7c9a 033e
00000100: 411d 0e3e 98e8 633d 3eb5 313d 8b9a 1dbd
00000110: 41d3 85bd 44a3 9abd ed9f 013c 8bc4 c33b
00000120: d237 01be 50a8 343d 89ef 663d 8362 b03c
00000130: c166 edbd 4e01 ce3d e25d 0fbe 8a56 50bc
00000140: 19c8 09be e490 f03c 81af 053c f6e1 233e
00000150: 210d 243e 408b 923d ef3c 093e bf47 183e
00000160: f883 84bd 441e c4bd 9c87 a23d 9e34 8cbd
00000170: e76a a33c cd2b bd3c bf6a 0fbe 3529 c7bc
00000180: d884 6c3d c379 123e d05a 68bd a495 64bd
00000190: a4d0 143e f10f b2bd 7f6d bcbd 6d1d 413e
000001a0: ca18 383e 4721 84bd 6da1 4cbd f8b8 85bd
000001b0: 4eb2 163e 25e5 d2bd 85bf 9d3a b8d7 e13d
000001c0: a251 9b3d e19d c83d 3498 1dbe 7176 f2bd
000001d0: ec66 043e 16df 19be c066 88bd 8434 173e
000001e0: e558 9a3d fcf0 b03d c57c f6bd 70de d73d
000001f0: 88bc 9a3d 23ab 8a3d 2bb3 8abb 32ab 153e
00000200: e00a fabb af81 d83d bad0 71bd 8a39 1cbe
00000210: c1de ca3d 3e85 8b3c 8075 9ebd 90be bd3d
00000220: eb92 883d 039f 05be d461 26be ea5e ffbd
00000230: 1689 8a3c e7df 1d3b 5d64 053e bc79 16be
00000240: db67 683d bbe8 31be c027 17be f3d6 cabd
00000250: b31c 9b3b 8514 b13d f622 dfbd 560b 21bd
00000260: dc40 92bd 1f15 c8bd 7696 0b3e 40a4 813c
00000270: 1075 c0bd dcf0 2bbe 84aa 963d 2e1e 3b3c
00000280: e790 843d 92bb c43d 57f3 c53d 5c2f 00be
00000290: fa5d 70bd a008 8f3d b358 153e a40f 0c3d
000002a0: 4d05 5e3d 4a5c ef3d 1800 e13d 5f80 b9bd
000002b0: dc42 0d3e 948a 18bd d19e 96bc dcbe 473c
000002c0: 547e b13b 015c c53d eb33 153e 308c c5bd
000002d0: e228 d53d 7bd4 dfbd 0b84 a83d 0a7c 353c
000002e0: 5486 0b3e edc0 9d3d 1e11 553c 4704 aabd
000002f0: e859 373c 5b87 c33d 8715 03be 33f4 dcbc
00000300: bb9b 8f3d b468 03bd 6ca3 4cbd 7584 d5bd
00000310: cf07 f23c 9239 97bc 6866 913d 05ef c1bc
00000320: c09b 7cbd e6be bfbc 2231 8dbd 74e0 d7bd
00000330: c2eb cbba c7c9 533d 7728 723d 20db 7c3d
00000340: cd00 703d e467 0ebe c11a 1f3c 0281 513d
00000350: a1b5 383e 1402 373c c66a 96bd 3e8a c5bc
00000360: e9e1 943d bd39 d5bc 7082 09bd 6d32 70bc
00000370: 9371 d6bd 2687 8abd 910c 163e f21a d6bd
00000380: 8197 de3d f071 1cbd cd2b fdbc 9e10 db3d
00000390: 8ed8 153d 7df1 d2bd d8f3 873c f7d0 f0bd
000003a0: ae1a 0bbe a794 433d f78c 0c3d 7596 c3bd
000003b0: f763 b03d cd02 c53d cae4 96bd 7da1 46be
000003c0: cd3d dfbd e169 473e b80e 843d 20a8 a93d
000003d0: dce7 0abd 08e5 bc3a c6b0 eb3d b8e3 16bd
000003e0: a959 93bd 1944 1c3e cee6 033e 845b 7b3a
000003f0: 775d cf3d 93a7 a5b9 15aa 32be 27e5 5c3e
0.08213569 0.084446765 0.086258225 -0.14331096 0.026916688 0.06256588 -0.027421733 -0.07447742
0.18824068 0.1029155 0.13049571 0.07545831 0.08285252 -0.12425354 0.06281427 -0.06319279
0.0069535463 0.026568664 0.055624716 -0.07857305 0.1397234 0.07869156 0.12839738 -0.040301584
-0.02692818 -0.076757036 -0.16646184 0.08326199 0.096270286 -0.028395364 -0.12979671 0.13220176
-0.0083990805 -0.06469208 0.08201723 -0.12236257 -0.0076097613 -0.014332105 0.07056665 -0.06586252
-0.14179473 0.093580835 0.06452978 -0.13417569 -0.025078533 -0.16617405 0.03788561 -0.010380622
-0.10626142 0.084847145 -0.09323307 0.13018684 0.14346093 -0.11233245 -0.09106983 0.107461184
-0.09653375 0.02413038 0.077306174 0.0047722887 -0.03418112 0.041521776 0.06454289 0.128519
0.13878347 0.05564174 0.043385737 -0.03847746 -0.06534434 -0.07550672 0.007911664 0.0059743575
-0.1261895 0.044105828 0.056380782 0.021531349 -0.115918644 0.100588426 -0.14000657 -0.012715945
-0.13455237 0.029365964 0.008159519 0.16004166 0.16020633 0.07155466 0.1340215 0.14871119
-0.064704835 -0.09576085 0.07936022 -0.068459734 0.019948436 0.023092175 -0.14005564 -0.024311641
0.057743877 0.14304261 -0.05672723 -0.05580677 0.14532715 -0.08694447 -0.09200572 0.18858881
0.17978206 -0.0645166 -0.049958635 -0.065294206 0.14716455 -0.10297612 0.0012035227 0.11027473
0.075839296 0.09795738 -0.15390092 -0.11838997 0.12929887 -0.15026507 -0.06660223 0.14766127
0.075364865 0.08639714 -0.12035517 0.105404735 0.07555491 0.06770923 -0.0042327843 0.14616087
-0.007630691 0.1057161 -0.059036948 -0.15256324 0.09905768 0.017031308 -0.07737255 0.092648625
0.066686474 -0.1304894 -0.16248256 -0.12469275 0.01691107 0.0024089755 0.13026567 -0.14694875
0.05673967 -0.17373936 -0.14761257 -0.099042796 0.004733646 0.08646492 -0.1089534 -0.03931745
-0.07141277 -0.097696535 0.13631615 0.01582539 -0.09397328 -0.167911 0.07356742 0.01142077
0.064729504 0.09606089 0.09665554 -0.12518066 -0.058683373 0.06984067 0.14584617 0.034194604
0.054204274 0.116875246 0.10986346 -0.09057688 0.13795036 -0.037241533 -0.018386276 0.0121915005
0.005416671 0.09636689 0.14570586 -0.09645879 0.104081884 -0.10929199 0.0822831 0.0110769365
0.13625461 0.07702813 0.013004569 -0.08301597 0.011190869 0.095473014 -0.12801181 -0.026971912
0.07012125 -0.032082275 -0.04996054 -0.10425655 0.029544739 -0.018460069 0.070996106 -0.023673544
-0.061671972 -0.023406457 -0.06894137 -0.10540858 -0.0015557932 0.0517061 0.05912062 0.06173241
0.058594514 -0.13906819 0.0097109685 0.051148422 0.18038036 0.011169929 -0.07344584 -0.02411377
0.072696514 -0.026028508 -0.03357166 -0.01466046 -0.10470881 -0.06764059 0.14653231 -0.10454358
0.10868741 -0.038194597 -0.030904675 0.10696529 0.036583476 -0.102999665 0.016595766 -0.11758607
-0.13584396 0.047749188 0.034314122 -0.09550182 0.08612817 0.09619675 -0.07367857 -0.1939754
-0.109004594 0.19473983 0.0644812 0.082840204 -0.033912525 0.0014411518 0.11508326 -0.036838263
-0.07194836 0.15260352 0.12881014 0.0009588527 0.10125249 -0.00031596105 -0.17447694 0.2157179

lstm.weight_hh_l0 f4 [128, 32]
00000000: 9083 a23c c480 4ebd 2354 bd3d 223a 89bd
00000010: f843 c43b a135 ab3d 5b57 4dbd 6420 f8bc
00000020: 3bd4 183d 29b9 c1bd 8624 b0bd 4eba c4bd
00000030: dde3 2f3d cd82 a2bd 5be7 97bd cb6d fdbb
00000040: 18e6 bd3d 157e 703d 93d3 53bb e254 6ebd
00000050: bf9b 4d3d faa0 99bc c4ea 69bd 7f44 a23d
00000060: 1394 a4bd fe03 b53c aabe 973d 7264 613d
00000070: 7f4a 033e e731 e13d 0b14 a33d 6c4d e23d
00000080: db10 82bc 325c 7dbd 52a8 8b3d 940e 13be
00000090: 24bf 0bbe 4df2 0d3e 8554 3a3d 6832 e8bb
000000a0: 7f07 c3bd 33d0 c3bd 08d0 b8bd 2cc4 4fbd
000000b0: c529 673d 5de4 dcbd 61b2 04be b31d b63c
000000c0: 7256 c6bd cc60 20bd 0609 623d 9c2b d63d
000000d0: 59ca abbd 3ab6 77bd 827f 03bd c438 bebd
000000e0: 40b8 ae3d f0b7 033e 6ea2 11bd aad5 de3c
000000f0: 21f2 eabd 93b1 fb3c 6cb2 323d 0b2e b43d
00000100: c2f2 b2bd e9ee 3dbd 1a73 e2bb 4632 1e3d
00000110: 96fd 1e3d 5b53 a4bd 1886 7e3d 8991 15bd
00000120: ec1a 0ebc 06a3 09bc ce14 e1bd 3bee 9cbd
00000130: bce4 833d b367 a5bc b93f 32bd 346c 2c3d
00000140: fe29 3fbc d107 963d 272c 9abd 5e9e 90bc
00000150: 8f91 b93b 2a1d 98bd 75b7 2a3d 14f5 cb3d
00000160: 8a91 903a 8025 813d 60a8 493d bfaa 5f3c
00000170: a0ae c6bc 4f12 b53c 7d6b ddbd 554b 96bc
00000180: 689b 7f3d 8eae c3bd 5ce2 3bbd af8e 1fbe
00000190: b727 37bc 2c5f 813d 3299 0c3b 4823 9bbc
000001a0: 2bb9 68bd 4de1 4bbd 9e49 053d fdd5 923d
000001b0: b557 bdbc c769 a6bc 7721 413d 201d 943d
000001c0: 1c02 303b 174c 9b3d 2210 e2bc d7b7 f6bc
000001d0: 3249 263d 0e2b 033d 9f2e d03d cdd1 ec3d
000001e0: 4c36 f13b b431 043e 041f 063e 8153 68bd
000001f0: 11cf f53b a2d0 5b3c a49a 9f3d 8c4b 84bd
00000200: 9a40 68bc 14c4 51bc b772 4b3b b9fc 8e3c
00000210: cb80 0abd 9d43 4fbd 0bc0 a63c 3ed9 bc3c
00000220: 4a7d eb3c 69c9 bb3c ecad 173c ce64 073d
00000230: e94e 12bc 699c a83c d410 35bc 1419 e7bb
00000240: fec5 143c 0537 cabc 6d29 87bc ab55 65bc
00000250: 2050 4fbd cd94 903c 61cf 8ebb fa43 fb3c
00000260: b37c 39bd 0763 da3c 1b5a b9bd 7b64 1e3d
00000270: d763 22bd be3f 253d 57fc 4abd 18f8 afbc
00000280: 8452 87bc 32b4 c03c 18b4 6cbd dc3b fd3d
00000290: da73 d33d 33a8 993d f324 d2ba 1f89 b43d
000002a0: 6202 f93d e862 fc3c f5b2 08be 8148 00bd
000002b0: 6ede a93c 83ac a73d 1902 8dbd ec81 413d
000002c0: 2e14 54bd dae4 b33d 69b5 63bd 51dc 913d
000002d0: 5ec3 6cbd 5c4f d8bc ff4d bf3d b0ca 31bc
000002e0: b011 3fbd 56fb dfbd 441f f4bb 7d0e b13c
000002f0: fc90 52bd 6d6e 3bbd c9e7 7cbd 102b 17bb
00000300: 37c0 5bbd 724b b93d 7bd7 e6bd 9861 cebb
00000310: ede1 983d 62f4 f13d 88ce c1bd 3927 e3bd
00000320: 4c8d 5c3d 9e21 c83d 07cd 6f3c bcec 283d
00000330: 402b cd3d c1d0 833d 8746 143d 5faa 4abd
00000340: dc8f 873d 4cc4 d4bd d3b4 c2bd 5e95 a83d
00000350: 140a e7bd 01b0 733d 703b 0abe cbd2 8a3c
00000360: bde2 153d 6e9b 16bd 5433 f13b da69 b03d
00000370: 464d 84bd f911 c03d bd06 eebd e721 fe3d
00000380: e645 87bd 18f5 9a3d 44c4 08be a25e b7bd
00000390: 2de4 f4bd c2e0 7b3c 6ceb b93d 9a2b 693d
000003a0: 41e6 c03d d195 0d3e 9a81 ddbd b756 13be
000003b0: c0bf 8b3c 79fc 113d c984 cdbc 9f98 1d3e
000003c0: 473a 1fbe ee85 11bd 5d6f 80bd 9744 863d
000003d0: 2ddc b83c 2c5e e03d 6f6a 0f3d 5907 863c
000003e0: b4ea 8fbd 1b65 b93d 511b 653d bb73 dfbd
000003f0: 57a5 0cba 2d24 ff3d 0c9e a23d b6ec 1b3d
0.019838125 -0.05041577 0.092445634 -0.06700541 0.005989548 0.08359838 -0.050132137 -0.030288883
0.037311774 -0.094591446 -0.08600716 -0.09605847 0.042941917 -0.079351045 -0.074171744 -0.0077340356
0.092724025 0.05871399 -0.0032322153 -0.05818642 0.05019736 -0.018753517 -0.057108656 0.07923221
-0.080360554 0.02209663 0.07409413 0.055027433 0.12821387 0.10995846 0.07962807 0.11049923
-0.015877178 -0.061855502 0.06819214 -0.1436103 -0.13647133 0.13861962 0.04549076 -0.007086087
-0.09522914 -0.09561195 -0.09024054 -0.050724193 0.05643632 -0.10785744 -0.12958671 0.022230959
-0.09684457 -0.039154813 0.055184387 0.104575366 -0.08388204 -0.06047652 -0.032104023 -0.09288171
0.08531237 0.12863135 -0.035555296 0.027201492 -0.11471964 0.030724322 0.043627188 0.087978445
-0.08737709 -0.04637042 -0.006910694 0.038622163 0.038816057 -0.08023711 0.0621396 -0.036515746
-0.008673411 -0.008400684 -0.10990296 -0.07662626 0.06440112 -0.02019105 -0.043517802 0.042095378
-0.011667727 0.073257096 -0.07527953 -0.01765364 0.005663104 -0.074274376 0.041678865 0.09958854
0.0011029702 0.06305981 0.04923284 0.013651549 -0.02425319 0.022103457 -0.108115174 -0.018346468
0.062404066 -0.09554778 -0.04587017 -0.15581773 -0.011178902 0.06316981 0.0021453616 -0.018937722
-0.056817215 -0.04977541 0.03254091 0.07169721 -0.023113111 -0.02031411 0.047151055 0.07232118
0.0026856726 0.07582872 -0.027595583 -0.030116959 0.04059715 0.032023482 0.10165142 0.11563454
0.007361209 0.12909585 0.13097769 -0.05672026 0.007501491 0.013416441 0.07793167 -0.06459722
-0.014175558 -0.012803096 0.0031043717 0.017454492 -0.033814233 -0.05060159 0.020355245 0.023052808
0.028746266 0.022923188 0.009257775 0.03305512 -0.008929946 0.020582395 -0.011051375 -0.00705255
0.009080408 -0.024684438 -0.016499246 -0.013997476 -0.050613523 0.017649079 -0.0043582176 0.030672062
-0.045284938 0.026658548 -0.090503894 0.038670044 -0.039645996 0.040343992 -0.049557056 -0.021480605
-0.016518839 0.023523424 -0.05778894 0.12364933 0.10324831 0.075027846 -0.001603274 0.08815216
0.121586576 0.03080888 -0.13349517 -0.031319145 0.020735946 0.08187201 -0.06885166 0.047243044
-0.051777057 0.08783884 -0.055592928 0.071221 -0.057803504 -0.026405029 0.093410484 -0.010851547
-0.046647727 -0.109366104 -0.007450016 0.021613354 -0.0514078 -0.045759607 -0.061744485 -0.0023066439
-0.053650107 0.09047593 -0.112715684 -0.006298255 0.07464967 0.118141904 -0.09463221 -0.110914655
0.05384569 0.09772037 0.014636285 0.041241392 0.10018015 0.06436301 0.036200073 -0.049478885
0.06619236 -0.10389003 -0.09507146 0.082316145 -0.11281219 0.059494022 -0.13499236 0.016946217
0.036593188 -0.036769323 0.007360855 0.086139396 -0.06460051 0.09378428 -0.11622379 0.1240881
-0.06605129 0.07566279 -0.1335612 -0.08953597 -0.119575836 0.015373411 0.09078106 0.056926347
0.094189174 0.13826682 -0.10815735 -0.14388548 0.017059207 0.035641167 -0.025087731 0.15390252
-0.15549575 -0.035528116 -0.06271241 0.06556051 0.022565925 0.10955462 0.035013612 0.016360926
-0.07027188 0.090524875 0.055934254 -0.10910746 -0.0005365214 0.12458072 0.07940301 0.038067542

lstm.bias_ih_l0 f4 [128]
00000000: 8ba0 f5bd 16d6 323e 5a62 ea3d cb4d 8abd
00000010: b06a df3d 8ac7 ebbd 5667 f3bd 9feb 14be
00000020: 0300 48bd 0119 45be 2028 1b3b edf9 a83d
00000030: 773d 1dbc 0b0a 81bc 5573 7e3d c3e0 1bbd
00000040: 381d 0e3e c508 7bbc 6b01 13bc 5621 6c3c
00000050: 0006 d43d 2ab4 063e 3f22 363c 0187 b1bd
00000060: d244 11bd 80e6 5cbb 69b5 df3d 4065 d3bc
00000070: d9de 0cbe d60a 7bbd 6e4b e73c 8358 04be
00000080: 8aba 233e c2c9 20bd 04c3 22bc 954d ed3d
00000090: 7ef3 023e d9b2 973d f069 eb3c 8b59 cb3d
000000a0: fc1b 16be fa30 afbd 3a2e 9c3b e30a cd3b
000000b0: fdd2 ddbd 28e3 01be 7749 da3c c9ef 2d3d
000000c0: 9d02 1f3e 60e7 ebbd d3d1 20be 564f 93bd
000000d0: 7fa2 d63d 59fe 63bd 04a1 01be 1861 44bd
000000e0: e87a febd dd15 6fbd a162 bc3d 80e0 1c3e
000000f0: 72a7 dfbd e227 f73d 26bf 203e a458 393d
00000100: 87ff 59bd d238 8a3d 3e70 35be c34c fe3c
00000110: 61fc 6e3d 3f3d 043e b254 b8bd fe70 213e
00000120: 1bd0 213e dbf9 11be a6d1 c73d fce6 b83d
00000130: f5db c2bc 817e ee3d d31c 8dbc 5543 9abd
00000140: a477 0c3c e96b 84bd fc0e 16be f366 9d3d
00000150: 2d5b 5d3c 1179 a0bd 26db f43d 9642 073e
00000160: 1d23 89bd 8b49 123e f670 2a3e b70f e6bd
00000170: bfd2 353e bd48 d4bc daef 74bd 0dc4 0b3e
00000180: d4d0 023e ab86 563d 8028 d33d cbb9 d7bc
00000190: 7c55 92bc 32f6 d43d 099b 003e 6c9d 283e
000001a0: 301d f3bd 1716 bf3d e276 88bc c334 85bd
000001b0: 056d 0dbd 18fb 053e b046 1f3e e58a 183e
000001c0: 2586 043d ad9a 9a3d 53fb ae3c 3a1e 2abd
000001d0: 236c f8bd fbda 203e 39d4 14bd 88d4 10be
000001e0: 2706 8a3d ac7a 0ebd 6e2c 213e d29e f4bc
000001f0: 5ae4 84bd 8c60 12bd 3236 74bd c303 83bc
-0.11993512 0.1746448 0.1144454 -0.06753119 0.10909021 -0.115126684 -0.11884944 -0.14543007
-0.048828136 -0.1924782 0.002367504 0.082507946 -0.009597174 -0.01575186 0.062121708 -0.038056146
0.13878334 -0.015321915 -0.008972506 0.014412245 0.10352707 0.13154665 0.011116563 -0.08668328
-0.035466023 -0.0033706725 0.10923273 -0.025805116 -0.13756885 -0.06128963 0.02823421 -0.1292439
0.15989128 -0.03925491 -0.009934191 0.11587063 0.12788197 0.07407159 0.028737038 0.09929188
-0.14659113 -0.085542634 0.004766253 0.0062574013 -0.108312584 -0.1268431 0.026646359 0.042465005
0.1552834 -0.11518741 -0.15705042 -0.071928665 0.104802124 -0.055662487 -0.12659079 -0.04794416
-0.12425786 -0.05837046 0.091984995 0.15320015 -0.109206095 0.12068154 0.15697917 0.04525055
-0.053222205 0.06749119 -0.17718598 0.031042462 0.058346156 0.12913989 -0.09000529 0.1576576
0.15802042 -0.14255469 0.09756784 0.09028432 -0.023786524 0.116452225 -0.017225659 -0.07532374
0.008573446 -0.06465895 -0.14654154 0.07685652 0.0135105075 -0.078355916 0.11955862 0.13208994
-0.066961505 0.14285867 0.16644654 -0.11233466 0.17756175 -0.02591359 -0.059799053 0.13649006
0.12774974 0.052374523 0.10310459 -0.02633371 -0.017863028 0.103985205 0.12559141 0.16466302
-0.118708014 0.09330385 -0.01665825 -0.06504204 -0.034527797 0.13084066 0.15554309 0.14896734
0.032354493 0.07549033 0.021360075 -0.041532733 -0.121300004 0.15708534 -0.036335204 -0.14143574
0.06739455 -0.034784958 0.15739605 -0.029860888 -0.06488867 -0.035736606 -0.059621997 -0.015993005

lstm.bias_hh_l0 f4 [128]
00000000: 264c 2a3d 11ce 5bbd a56c 863d ddf5 923d
00000010: 03ed 64ba 41a7 cbbd 1d9e 813d 7fbd 073e
00000020: c7d6 bdbc 7f46 9cbb 96b6 df3d 7d68 bebb
00000030: 467f 8b3d c9d3 6abd d0e2 a53d 9acc 233e
00000040: 497c 123e 99fb 97bd 82eb b83d 89a6 483d
00000050: df2f 823d 6ff7 b9bc fbfc 2d3c 38d9 033e
00000060: e7da 2a3e b72a 3abd d5a6 4a3d 6bda 683d
00000070: 824c 43bd 6fe9 32bd cde7 b0bd ed0b 05be
00000080: b442 a2bd cfe9 54bd 130b 3b3e 59b4 6c3d
00000090: 4655 143e f1bd 433d a38f 1b3c 761e aabd
000000a0: 3df8 fd3d 560a fd3c a295 0f3e 1655 6ebd
000000b0: c7ca 1d3e 9d57 013e 90ff bbbc 3fbe 79bd
000000c0: 3a21 303d 49a9 093e 0c87 35be b497 03be
000000d0: dfb2 083e 68de 323d 83ce aa3d 8529 0a3d
000000e0: 8034 353e cf36 3e3e f946 40bd 82c0 afbd
000000f0: 26e2 7dbd ce4d 683c 8a4a 613d 3c80 5bbd
00000100: 6b33 6b3d 87fb 8dbd 0edb f83d 9870 06be
00000110: 2a1b 9a3d 6b04 b7bd 88f7 953d 1160 18bd
00000120: aadd 2c3e 8ffa 453e 4836 24bd 0f0d 99bd
00000130: aa43 39be 8652 acbc 4f50 2abe 099c 0f3e
00000140: 4951 0a3e 8675 393e 563b 8a3c 723a 02be
00000150: cf99 1ebe 483f 003e fff0 013e f430 3b3e
00000160: 7614 783c 29ee 443c 5909 3b3e f378 863d
00000170: 05f3 debd 8adb 2dbe ae1f 44bd cde7 e63d
00000180: 024f 1cbd 6cf2 15bd 2b4a 2a3d 25a5 243d
00000190: c651 62bd 0fae dfbd dc13 adbd 00e1 013e
000001a0: 1ee6 b93d a86f fabd d3bb bf3d 7937 aebc
000001b0: b23d c13d dee5 9bbd 3d77 223e 9685 45bd
000001c0: aac8 0ebe 24f6 933d b91a 5a3d 714d 0d3e
000001d0: 150b e23d a8ca 283e 7b89 08be a969 b33d
000001e0: 5330 703d b5de 9ebd c3cc 703d 9e87 a1bd
000001f0: c734 143d bccc 933d 704e cc3b a43e 0e3e
0.041576527 -0.053663317 0.06563691 0.07175801 -0.0008732827 -0.099440105 0.06328986 0.13255881
-0.023173703 -0.004769146 0.109234974 -0.005810796 0.06811385 -0.05733088 0.08099902 0.15996018
0.14305224 -0.07421035 0.090292946 0.048986945 0.06356787 -0.022700993 0.010619397 0.12875831
0.16685067 -0.045450892 0.04947551 0.056848925 -0.047680385 -0.04367965 -0.086379625 -0.1299283
-0.07922879 -0.05198079 0.18265943 0.05778918 0.14485654 0.047788564 0.009494695 -0.08306591
0.12400863 0.030888718 0.14021924 -0.058186613 0.15409385 0.12631078 -0.02294901 -0.06097245
0.043000437 0.13443483 -0.17727298 -0.12850839 0.13349484 0.043669134 0.0834017 0.033731002
0.17695808 0.18575595 -0.046942685 -0.0858164 -0.06198325 0.014178706 0.055002727 -0.05358909
0.057422083 -0.06932741 0.12151156 -0.13128889 0.075247124 -0.089363895 0.073226035 -0.03720099
0.16881433 0.19333862 -0.04009083 -0.07473194 -0.18092218 -0.021035444 -0.16632198 0.14024366
0.1350757 0.18111238 0.016873997 -0.12717608 -0.15488361 0.1252414 0.12689589 0.18280393
0.015141597 0.012019672 0.18265285 0.06566038 -0.10886196 -0.16978279 -0.047881775 0.11274681
-0.038161285 -0.036608145 0.04157464 0.040196557 -0.055253766 -0.10921871 -0.084510535 0.12683487
0.090770945 -0.12228328 0.093619965 -0.021266686 0.094355956 -0.07612203 0.15865798 -0.0482231
-0.13943735 0.07224682 0.05324814 0.13799073 0.1103727 0.16483557 -0.13333695 0.087603875
0.058639836 -0.07757322 0.058789026 -0.07887195 0.036183145 0.07216784 0.0062349364 0.13891083

fc.weight f4 [2, 32]
00000000: 671d 88bc 19b0 acba e7cd 5d3c f993 ab3c
00000010: 04fa 8ebd 13ec adbd c3b5 8c3d 8e39 96bd
00000020: 8fcd b7bc cf17 eb3d 95d7 c73d 2831 c33d
00000030: 8db4 8dbd e0d9 083e 5367 28be cf43 b5bd
00000040: e64f e6bd 985d 21bd dce1 803d 6666 163e
00000050: 39e3 c7bd 8590 0cbe 4946 973d 5ada 223e
00000060: ecaa 27be 5ae4 a33d 6098 203e 6b52 793d
00000070: 14c8 9c3d 1eee f9bc a135 383e 5ebe 16be
00000080: 47fa c23c f4f4 243e 94d6 603a 8688 cb3d
00000090: 0e9d 12bd 6416 7cbd a4b2 97bd 8884 053e
000000a0: 35ff a9bd 0f26 e0bd 0151 1f3e 5cf5 9e3d
000000b0: 0783 4a3d 64f3 12be 7f41 9b3d 81cf cb3d
000000c0: a17a ef3d 1e26 dfbd ab15 23be 1907 a7bd
000000d0: a3c8 df3c ab3a 5d3d c3c0 00be 144c bd3d
000000e0: 1ee4 40bd 0034 73bd 9def 0e3e 1b28 1dbe
000000f0: 5fdd e93d a739 893d 3be4 c7bd f052 593d
-0.016615583 -0.001317504 0.0135378605 0.020944582 -0.069812804 -0.08492293 0.06870606 -0.073351964
-0.022436885 0.114791505 0.09757916 0.0953086 -0.06919203 0.13364363 -0.16445665 -0.08850824
-0.11245708 -0.0393959 0.06293079 0.146875 -0.09760136 -0.13727005 0.07386453 0.15903607
-0.16373795 0.08002539 0.15683126 0.060869616 0.076553494 -0.030509051 0.17989208 -0.14721057
0.023800982 0.16109067 0.00085768965 0.09938149 -0.03579431 -0.06154479 -0.0740712 0.13038838
-0.0830063 -0.10944759 0.15558244 0.07761642 0.049441364 -0.14350659 0.07580852 0.099516876
0.116933115 -0.10895942 -0.15926234 -0.08155651 0.02731735 0.05401103 -0.12573533 0.092430264
-0.04709255 -0.059375763 0.13958593 -0.1534733 0.11419176 0.067004494 -0.097603284 0.05305761

fc.bias f4 [2]
00000000: da8a e4bd 9d2d 13be
-0.11159296 -0.14372869
