LSTMStockTrading/models/complete_lstm_model.pth (torch, 836759 bytes, 11 tensors)

weight_ih_l0 f4 [512, 1]
000000 64 76 de 3c 6f a8 54 3d df 80 a1 bd 91 53 47 bd
       0.027156062 0.051918443 -0.07885908 -0.04866368
000010 2e 57 a0 bb dc 62 aa 3d d5 3d a1 3d 3f 51 c2 3c
       -0.004893205 0.08319637 0.07873122 0.023720382
000020 44 fa 9d 3d 4e 6b c2 bc c3 29 1c b9 71 98 87 3d
       0.0771375 -0.023732807 -0.00014892877 0.06620873
000030 73 26 bb bd 23 cb 26 bd b1 c8 b2 bc cf f9 49 3d
       -0.09138193 -0.04072107 -0.021824213 0.0493105
000040 52 6d ab bd 3d c8 0b bc f3 55 8b 3d 42 96 b1 bd
       -0.083704606 -0.008531627 0.06803503 -0.086712375
000050 58 38 e7 bb 56 9a c1 bc a1 69 4d bc 6c f7 91 ba
       -0.0070562772 -0.023633163 -0.012537391 -0.001113636
000060 6d 3a 9c 3d 59 93 16 bd 3e 23 0d 3d 4e 96 b7 bb
       0.07628331 -0.036761615 0.034457438 -0.0056026345
000070 ee 7a 1b bc 36 45 73 bd 71 6c 15 bd b5 dd 14 bb
       -0.009489758 -0.059392177 -0.03648037 -0.0022715156
000080 21 27 8f bd 3d df d7 bd f2 c2 c0 bc 93 ab 54 bd
       -0.06989885 -0.10540626 -0.023530457 -0.05192144
000090 b7 66 f8 3c c6 b8 65 bd 17 5e ea 3b ec 42 72 3d
       0.030322416 -0.056084417 0.0071523297 0.059145853
0000a0 21 ca 94 bd f2 8c 71 3b e3 0c b6 3d 17 16 f4 bc
       -0.072651155 0.0036857692 0.08889177 -0.02979569
0000b0 d3 03 86 bd b1 ee 47 bd 92 64 80 3c 30 f3 38 3c
       -0.06543698 -0.04881162 0.015672956 0.011288449
0000c0 36 0b 68 bc 42 15 7f bd b2 d4 24 bd 77 5f 77 3b
       -0.014162829 -0.062276132 -0.040241905 0.003774611
0000d0 67 84 e4 3a 4e 57 43 3c 3a 0d 49 bb 91 8a 8e 3d
       0.0017434479 0.0119226705 -0.003067805 0.06960023
0000e0 8d c4 65 bd 6a 33 83 bc 30 0f 6d 3d 36 07 98 3b
       -0.05609565 -0.016015727 0.057875812 0.0046395315
0000f0 f0 37 31 3c 41 52 0b 3d 24 0b bf 3d 67 8d f8 bc
       0.010816559 0.03401399 0.09328297 -0.030340863
000100 7a 57 63 bd 41 b7 ca bd fa 6f 9b 3d 8b 06 1c 3d
       -0.055503346 -0.09898234 0.07589717 0.038092177
000110 44 37 7d 3c 42 23 72 3d 11 4e 9b bd 97 dc 2c 3d
       0.015455071 0.059115656 -0.07583249 0.04220256
000120 14 75 22 3d 0f da 3a bd 11 98 2c bd 87 61 59 3d
       0.039662436 -0.045618113 -0.04213721 0.053071525
000130 3f 7b 73 3c 52 d4 74 3d 9c 00 21 3d 88 76 d3 3b
       0.014860927 0.059772797 0.03930722 0.006453339
000140 5d 0f c2 3d 6e 20 e4 3d e1 65 12 bc a2 ae 75 3c
       0.094755866 0.11138998 -0.008935423 0.014995249
000150 5f 34 6c bd dc a6 91 bb 6e 07 1f bd c0 58 82 bc
       -0.057667132 -0.00444494 -0.038825445 -0.01591146
000160 ca 85 e3 3d 00 62 84 bd 20 45 20 3d 60 2c 18 bc
       0.111095026 -0.064640045 0.039128423 -0.009287924
000170 a8 99 4f bc 07 91 3a bd 0e e8 c6 3d 89 ea 86 bd
       -0.012670912 -0.045548465 0.0971223 -0.06587703
000180 0c aa 38 3c 11 53 89 bc fa 01 21 bd 5c 23 c4 3b
       0.011271011 -0.016763242 -0.039308526 0.0059856605
000190 56 e3 a3 3d 06 f9 3a bd 4b bf 84 3d 9a cb c6 3d
       0.08002345 -0.045647644 0.06481799 0.09706803
0001a0 84 5d c8 3d 07 e3 b0 bd 9f 00 a1 bd db e6 74 bd
       0.09783462 -0.08637052 -0.078614466 -0.059790473
0001b0 e2 a9 bf 3d 0e 2d 54 3d 63 51 54 3c 32 1f 43 3c
       0.093585745 0.05180078 0.012958857 0.011909293
0001c0 b5 ad 38 bb cc f0 40 3d 95 dd 41 3d f9 39 c6 3d
       -0.002817971 0.04710464 0.047330458 0.09679026
0001d0 81 99 3b bc fa 11 33 3d 5b ea 1c bd c6 83 13 bd
       -0.011450172 0.043718316 -0.038309436 -0.03601434
0001e0 31 e5 20 3d d5 e8 35 bd f1 33 6d 3d f2 51 ab 3d
       0.039281074 -0.0444115 0.057910863 0.08365239
0001f0 10 96 89 3d 1a 73 9e bd d5 33 fa 3c af d6 c3 3d
       0.06718075 -0.07736798 0.030542294 0.09562432
000200 81 b9 63 bc 74 c4 be 3d eb f7 2f bd 57 09 81 bc
       -0.013899208 0.09314814 -0.042961042 -0.015751524
000210 53 2a 90 3d 44 b1 6f 3d eb a5 98 3d 76 f7 f6 3c
       0.07039323 0.058518663 0.07453521 0.030147295
000220 46 01 b5 3d b1 40 4f 3d e2 2c 6a 3d fb bf b9 bc
       0.088381335 0.050598804 0.05717171 -0.022674551
000230 e2 57 92 bd e7 e4 a4 3d af ab c9 3b 03 b4 39 bc
       -0.071456686 0.08051472 0.0061544995 -0.011334422
000240 59 f4 4a 3d f9 a1 e0 bb 0f 2d cf bd 20 1a 19 3d
       0.049549434 -0.006855246 -0.10116016 0.03737843
000250 ed 96 39 3d 63 5b d3 3d 2f 78 90 bd 92 4c ca bd
       0.04530995 0.10320165 -0.07054173 -0.09877886
000260 d4 05 da bb 91 0b b8 bd 89 d2 06 3d 07 86 2b 3d
       -0.006653527 -0.08986581 0.032915626 0.041875865
000270 cf 70 c6 bd 5f e6 7c 3c 05 b2 3a 3d d8 64 65 bd
       -0.09689485 0.015435784 0.04557993 -0.056004375
000280 93 c8 7a bd 7d 8e 2b bd 56 94 32 3c 7b 45 bc 3a
       -0.06122644 -0.041883934 0.010899624 0.0014363969
000290 51 b3 a9 3d 95 5a 3a bd 8a a4 c2 bc da 17 8d 3c
       0.08286155 -0.045496542 -0.023760099 0.017223287
0002a0 a3 88 87 bd 1f 61 95 bd 07 43 9c 3d dc 75 a9 bd
       -0.06617858 -0.07293915 0.07629972 -0.08274433
0002b0 69 5b 97 bd 3a 15 04 3d 07 97 b2 bc b9 06 a2 bd
       -0.07390482 0.032246806 -0.021800531 -0.079114385
0002c0 25 36 9e bd b9 70 31 bd ed 56 93 bd 9f 94 e2 bc
       -0.07725171 -0.04332039 -0.07194314 -0.027658759
0002d0 f6 23 5c 3c 68 5c e2 bc ab 14 8a 3c e3 d7 65 3d
       0.013436308 -0.027631953 0.016855558 0.05611409
0002e0 62 98 b8 bc 5d 59 c9 3d d1 ef fd bc ad b1 d7 bb
       -0.0225336 0.09831498 -0.030998142 -0.00658246
0002f0 6c 86 d7 bd ae 0e d0 bd a4 bb 92 bd 9a 94 60 bd
       -0.10523686 -0.1015905 -0.07164696 -0.054829217
000300 53 54 ad bd 58 e0 ec bd 5c d3 bd bc 24 75 01 3c
       -0.08463349 -0.11566228 -0.023172073 0.007901464
000310 cd dc de 3d b7 d3 62 3a 93 d1 27 bd 38 b4 c7 3c
       0.10881958 0.0008652764 -0.04097135 0.024377927
000320 84 8c 9f 3d e3 e3 6c bd f7 bf 3d 3d 3b d8 63 bd
       0.07790473 -0.057834517 0.04632565 -0.055626135
000330 f9 e4 81 3d a9 e1 1a bd 92 a4 f7 bc 59 95 c5 3b
       0.06342501 -0.037812863 -0.03022984 0.0060297665
000340 88 b1 b1 3d c7 ed 9d 3c 3c 4b a9 3d be bd bb bd
       0.086764395 0.01927842 0.08266303 -0.0916705
000350 6b 4d f5 bc 6c af 64 3d 13 ea 6c 3d 4c c1 a3 bc
       -0.029944142 0.055831358 0.057840418 -0.019989632
000360 93 2b 63 bd f0 75 09 3c 1b 08 04 3c 84 b1 58 3d
       -0.055461477 0.008389935 0.008058573 0.052903667
000370 f0 7e 76 bd dd c6 bd bd 8a 36 aa 3d e3 8e 62 3d
       -0.06017965 -0.09266446 0.08311184 0.05531205
000380 90 9f d1 3d f2 7e ad bc 48 00 2b 3d 94 bd b6 3d
       0.10235512 -0.021178696 0.041748315 0.08922878
000390 ec 47 8c bd 31 e5 62 3d 2d d8 bd 3c 04 80 89 bd
       -0.068496555 0.055394355 0.02317437 -0.0671387
0003a0 89 c4 df 3d a1 54 8b bd 5c 5a 04 3d 71 bd 03 bc
       0.10926158 -0.06803251 0.032312736 -0.008040772
0003b0 c2 f6 c3 3d 72 f2 4b 3d e6 06 39 3d 33 4d 83 bd
       0.0956855 0.04979176 0.045172594 -0.06411209
0003c0 2b de 52 3d 32 6f 47 bd 13 b2 2e bc 56 1c 8d bd
       0.051481407 -0.04869003 -0.010662573 -0.0689017
0003d0 49 e1 84 3d 7b 6e 74 3d 8b 0d ce bb 7e b8 c3 bd
       0.06488282 0.059675675 -0.0062882355 -0.095566735
0003e0 5c 72 04 3d 61 c3 49 3d a4 b1 8f 3d 92 ca 93 3d
       0.032335624 0.049258593 0.07016304 0.072163716
0003f0 30 39 bc 3c 67 35 45 bd 78 42 d6 bc 93 0e 60 bd
       0.022976488 -0.04814663 -0.026154742 -0.0547014

weight_hh_l0 f4 [512, 128]
000000 1d 33 88 3d 5f 86 0c ba ab d8 a2 bc 3a fe 25 3d
       0.06650374 -0.0005360599 -0.019878706 0.040525652
000010 f6 9b 67 3d 9a 99 71 bd 94 ab 85 3d bc ed 85 bd
       0.05654522 -0.058984376 0.065268666 -0.06539485
000020 73 8b 9f bd df 56 88 3d 8a fc 98 bd 00 5c e4 bc
       -0.0779027 0.06657194 -0.07470043 -0.0278759
000030 83 d6 04 3d 80 c4 4a bd cd 55 84 bd 11 47 86 3d
       0.032431137 -0.049503803 -0.06461678 0.065565236
000040 5b 1f 2e 3c 2f c4 58 3c 1d e2 7d bd 1b b9 fd 3c
       0.010627593 0.013230368 -0.061983217 0.030972054
000050 6d b0 b5 bd 04 fa 58 bd 91 05 ea 3c 31 20 1b bc
       -0.08871541 -0.05297281 0.028567107 -0.009468124
000060 53 d0 87 bd df 6e 8b bd d5 73 8c 3d 5c 02 b5 bc
       -0.066315316 -0.06808256 0.06858031 -0.022095852
000070 ff 77 a0 bc 22 ff 96 bd f2 e9 2b 3d de 3c a2 3d
       -0.019588469 -0.073728815 0.041971155 0.07921766
000080 85 cf 4e 3d b1 17 ad 3d 6f 31 21 3d a6 9b e4 bc
       0.050490875 0.084517844 0.039353784 -0.02790625
000090 61 bd 7d bd 1b dd 05 bd 78 54 bb 3c 4c e8 31 3b
       -0.061948184 -0.032681566 0.022867426 0.0027146516
0000a0 90 7a d0 bc d3 e1 c3 bc 24 0b 12 bc a2 bb 9a 3d
       -0.025449067 -0.023911392 -0.008913789 0.07555319
0000b0 c9 6e 70 bc 2b 86 35 bd 31 fa 50 3d 35 58 99 3d
       -0.014674851 -0.044317406 0.05101985 0.07487527
0000c0 98 f1 ca bc 9c 2f bf 3d 62 45 05 3d 8f a1 9c 3d
       -0.024773404 0.09335253 0.03253687 0.07648002
0000d0 3e b8 a5 3d 98 f8 95 3c a7 9a 5b ba 61 86 33 bc
       0.08091782 0.018307015 -0.0008377232 -0.010957331
0000e0 b6 50 3c 3c dc 00 8a 3c fa 43 dc 3c 52 22 58 bd
       0.011493852 0.016846113 0.026887883 -0.052767105
0000f0 76 8f 89 bd f7 0b cd 3c 54 a5 57 3c 54 57 78 bc
       -0.06716816 0.02503012 0.013161976 -0.015157539
000100 06 59 a9 bd 28 9b 81 bb 80 99 fd 3c 07 71 7f 3c
       -0.08268933 -0.0039552636 0.030956984 0.015590913
000110 43 2e 11 3d 50 0d 4f bd b6 2e 98 3d 45 3c 27 bd
       0.03544451 -0.050549805 0.074307844 -0.040828962
000120 a5 c0 25 3c 28 91 05 bd 92 3c b0 3d 9a 01 91 bc
       0.010116731 -0.032609135 0.08605303 -0.017700959
000130 f8 e5 a2 39 cf db 36 3d 7e 38 b4 ba 5d fd a3 3c
       0.00031070388 0.04464322 -0.0013749746 0.020018274
000140 84 8b 88 3d 55 94 bc 3d 66 19 0a 3d 44 b0 ec 3c
       0.066672355 0.092079796 0.033715628 0.028892644
000150 61 cb a2 3d 31 8c 38 bc fc 4e 3e bc 60 b4 10 bb
       0.07948948 -0.011263893 -0.011615511 -0.0022080168
000160 3c de 80 bd fb 4a f2 bb 7e e8 f5 bb d5 25 14 bc
       -0.06292388 -0.0073941923 -0.007504522 -0.009042223
000170 9b f1 54 bd 42 2e f3 3b d1 8d 6b bb b9 44 84 bd
       -0.051988225 0.007421286 -0.0035942683 -0.0645842
000180 e0 99 97 3d 37 fc f4 bc 56 c1 52 bd b0 cc 5e 3d
       0.07402396 -0.029905422 -0.05145391 0.054394424
000190 69 60 17 3c c2 73 92 38 72 25 bf b9 c2 c8 eb ba
       0.009239295 6.983384e-05 -0.00036458258 -0.0017988908
0001a0 a9 3d 2f 3d fd 29 06 3d 49 8a f0 3c 4a ff be bc
       0.042783413 0.032754887 0.029362815 -0.02331509
0001b0 4d c1 2f bd 36 96 b6 3d 2e e1 17 bd 0a 38 b7 3d
       -0.042908955 0.08915369 -0.037079982 0.089462355
0001c0 d7 9c 4b bd c0 3b 16 3d d8 65 8e bc 21 c3 78 bd
       -0.04971012 0.036678076 -0.017382547 -0.060732964
0001d0 b4 17 64 3c d7 48 90 3d 8c 71 b1 3c 3d ff e5 3c
       0.013921667 0.07045143 0.021660589 0.028075809
0001e0 61 31 a7 3d 6a 14 a6 bd ca a7 91 bd b1 75 c3 3c
       0.08163715 -0.081093624 -0.07112081 0.02385983
0001f0 2c 1a 98 bd 3f 60 63 bd 96 51 e4 bc b7 06 96 bd
       -0.07426867 -0.05551171 -0.027870934 -0.073254995
000200 56 82 7e 3d a6 28 75 3d a6 27 96 bd 83 86 a9 bd
       0.062136017 0.05985322 -0.07331781 -0.08277609
000210 40 25 8f bd 4e 54 88 3b 9a 3e fd bc df 3b 95 bc
       -0.06989527 0.0041604405 -0.03091364 -0.018217025
000220 c5 64 bf bc 72 8b 50 bd 77 8f a0 bd 85 ca aa 3d
       -0.02336348 -0.050914235 -0.07839864 0.08339409
000230 77 9d cf b9 37 71 66 3d 50 c4 2b 3d ac 6a a5 bc
       -0.00039599437 0.056260314 0.041935265 -0.020192467
000240 5e a0 a0 bd 8e 06 79 3c 65 47 98 3d 8c 8c 6f 3c
       -0.078430876 0.015199317 0.074354924 0.014620911
000250 ff 21 a3 bd 41 24 9b bd 00 37 7d bd 60 32 a7 bc
       -0.079654686 -0.07575274 -0.06182003 -0.020409763
000260 4c 74 45 3d 8a c3 5a bd c4 42 98 3d 02 97 62 bd
       0.048206612 -0.053409137 0.074346095 -0.055319794
000270 b2 d1 bf bd 5c 68 28 3c 79 28 51 bd 91 9c 64 bd
       -0.09366168 0.010278787 -0.05106399 -0.055813376
000280 30 b5 5f bd f6 ea b8 bc 95 ca a6 3b 52 c9 8d bc
       -0.054616153 -0.022572976 0.0050900676 -0.017307911
000290 30 c8 a4 bd 4e 62 79 3d 52 c8 f6 3c 26 49 ed 3c
       -0.08045995 0.060884766 0.030124817 0.028965544
0002a0 24 8b a6 bd 5d 97 2c bc 98 97 6c 3d c6 f6 85 3d
       -0.08132008 -0.010534135 0.05776176 0.06541209
0002b0 71 b8 2d 3d 58 d7 90 bd 82 f3 91 3d 6b 3a 62 3c
       0.042412225 -0.070723236 0.071265236 0.013807873
0002c0 63 0e ee bc db f9 39 bc 72 05 14 bd 9d a5 32 3d
       -0.029059594 -0.011351074 -0.036138006 0.043614972
0002d0 d7 4b ba bc 69 e3 f9 bb d9 f4 86 3d f0 2a b8 bd
       -0.022741241 -0.0076259864 0.0658967 -0.08992565
0002e0 d8 f8 f8 3c 88 71 2c 3d 80 17 a4 bd de 42 2c bc
       0.030392095 0.04210046 -0.08012295 -0.010513989
0002f0 95 ee a5 3d de 2b a0 bd 31 df 63 bb 22 9b 8f bd
       0.081021465 -0.07820867 -0.0034770484 -0.07012011
000300 78 bb 2f 3d 47 f8 63 bd f9 38 a6 3c 82 b9 f9 3a
       0.042903394 -0.055656698 0.020290839 0.0019052478
000310 22 12 98 bd 28 36 54 3d 0a a1 ab 3d e7 58 5f bd
       -0.074253336 0.05180946 0.08380325 -0.054528143
000320 82 a1 2d bd 20 f9 ce 3c 86 f6 26 3c 2d da ee bc
       -0.042390354 0.025265276 0.010190612 -0.029156769
000330 4b f2 09 bd 6b 4f 50 3c a1 d1 8b 3d 23 2d a8 3d
       -0.033678334 0.012714247 0.06827093 0.08211734
000340 e9 69 87 bd 90 00 5c bd 71 c1 8e 3d b0 a9 80 bd
       -0.06611998 -0.053711474 0.0697049 -0.06282365
000350 b1 66 ab bd 3e 01 ad bd ce 65 e2 bc b1 e3 89 3b
       -0.08369196 -0.084475026 -0.027636435 0.004208051
000360 be 14 de 3c 9b a7 35 3d c0 6c 51 bd 37 1b a1 bc
       0.0271095 0.044349294 -0.051129103 -0.019666297
000370 48 f3 28 3d 04 76 c4 bd 6f e5 4b 3d 20 f5 75 bd
       0.041247636 -0.09592822 0.04977935 -0.060048223
000380 79 8c 41 3b cf ab ab 3c 3a 22 39 bd c4 12 ea 3b
       0.002953319 0.020955948 -0.045198657 0.0071433503
000390 fb 74 f7 3c a6 ba 59 3d a1 b4 bf bd b4 ad 86 bd
       0.030207148 0.053156517 -0.09360624 -0.065761
0003a0 e1 3f 90 bd a2 de 9a ba 21 55 53 bd 18 dd 1e bc
       -0.07043434 -0.0011815617 -0.051594857 -0.009696268
0003b0 65 ba 92 3d ea 79 8b 3c 43 1c 83 3d 24 f3 b3 3d
       0.07164458 0.017025907 0.06401875 0.0878661
0003c0 f7 34 e1 bb db 14 f4 3c 7d 6e 27 3c a0 c2 24 bc
       -0.006872769 0.0297951 0.010219214 -0.010056168
0003d0 50 d5 01 bd b3 e1 95 3d d7 9f 41 3d 97 98 93 3c
       -0.03169757 0.07318439 0.047271576 0.018017096
0003e0 67 16 9a bc ca 8e b9 3b f3 57 cf bc 53 94 9d 3d
       -0.01880951 0.0056627737 -0.025310492 0.07694306
0003f0 6d 26 67 3d a9 7a 76 3d 28 ba be 3b 27 7a 84 bd
       0.05643313 0.06017557 0.0058205314 -0.06468611

bias_ih_l0 f4 [512]
000000 e0 42 28 3d 2d 91 1e bd 9f 06 bb 3d 46 dd f4 3c
       0.041079402 -0.03871267 0.09132122 0.029890668
000010 1c 50 5d bd af 88 51 bd 7f 7b 20 bd 15 45 88 3d
       -0.054031476 -0.051155742 -0.039180275 0.06653801
000020 dd 3e 21 bd 85 a5 8a 3d 1f f8 86 3d f0 65 5b bb
       -0.03936659 0.067698516 0.06590294 -0.0033477508
000030 4c ec ce 3d 42 f2 a5 bd 6c 75 06 bc f5 49 df 3c
       0.10103664 -0.08102848 -0.0082067065 0.027256945
000040 0e cf 70 3d 92 28 da bb 4d 1a 8d bd a7 83 b2 3d
       0.058791213 -0.0066576684 -0.06889782 0.08716517
000050 10 30 fd 3c c7 10 1b bd 4d 50 fb 3a aa 76 84 3c
       0.030906707 -0.037857797 0.0019173712 0.016169865
000060 bc 25 ca 3d c2 5d e8 bc 81 eb 2d bd 40 e0 35 3d
       0.098704785 -0.02836502 -0.042460922 0.044403315
000070 58 61 bb 3d 3a 26 75 3d 74 b5 6b 3d 28 b2 be bb
       0.09149426 0.05985091 0.057546094 -0.0058195777
000080 8b d7 4a 3c 5b fa 45 bc 32 7d c5 3c d1 44 f0 3c
       0.012380491 -0.012083615 0.02410755 0.02932969
000090 a5 3a 9f 3c 6f dc ed bc 12 46 54 3c 0e 56 0a bd
       0.019437144 -0.029035775 0.012956159 -0.033773474
0000a0 ab 2f 87 3d 21 5a b5 3d e9 12 0a bd 75 26 99 3c
       0.06600889 0.08855081 -0.03370944 0.018695096
0000b0 5b cd 0e bd 92 57 a1 3d 19 65 91 3b 41 96 13 3d
       -0.03486381 0.07878031 0.0044371006 0.036031965
0000c0 ef 8d a5 3c 61 4d 94 3d 0c f9 32 3d f9 71 0c 3d
       0.02020928 0.07241321 0.04369454 0.03428838
0000d0 a1 5a cf bc d1 cb 86 bd a6 82 24 bb 95 01 81 bd
       -0.02531177 -0.06581844 -0.0025102287 -0.0629913
0000e0 fc 88 2d bd e9 ed 92 bd b3 c3 94 bc ac 6c 96 3d
       -0.042366967 -0.07174284 -0.018159723 0.07344946
0000f0 ae 30 93 3c 77 aa 80 3d 78 64 a9 3d 3a 04 ee 3c
       0.017967548 0.062825136 0.08271116 0.02905475
000100 bb 76 9d bd 5a 44 8d ba ed 5e 00 bd f5 b3 1a bd
       -0.07688662 -0.0010777817 -0.03134053 -0.037769277
000110 db a4 25 3d f8 71 b6 bc 92 8b 98 3d c7 a3 ac 3d
       0.04044042 -0.022271141 0.07448496 0.084296755
000120 ea 8f 38 3c da 38 86 bc 93 1b 42 bd 4b d6 77 bd
       0.011264781 -0.01638453 -0.047389578 -0.0605071
000130 86 3b 8c bd d0 ec ad 3c 16 a2 f2 3c 87 1b 42 3d
       -0.06847291 0.021231085 0.029618304 0.047389533
000140 ad 5f 07 bc c2 64 04 3d 45 b5 95 3d 5e 60 c9 3d
       -0.008262557 0.032322653 0.07309965 0.09832834
000150 af f9 df 3c f3 65 38 bd 65 93 91 bd 39 93 07 3d
       0.027340738 -0.0450191 -0.071081914 0.033099387
000160 00 f3 a8 3c 19 d1 56 bd c7 05 39 bd 0d 5c 8b 3c
       0.020623684 -0.052445505 -0.045171525 0.017011667
000170 06 cf 94 3d 19 b7 b6 3d 5d d7 58 3d 5f ce 8a bd
       0.07266049 0.08921642 0.05293976 -0.067776434
000180 f0 49 31 3b 28 5e a2 3d 35 63 90 3d 16 ad b6 3d
       0.0027052127 0.07928115 0.07050172 0.08919732
000190 13 76 41 3b fa a8 5d 3d 21 36 49 bd ce b1 6a bc
       0.002951984 0.054116227 -0.049123887 -0.0143246185
0001a0 2a 99 56 3d dd d4 4d bd 4d 89 53 3d ba 0c 3b 3c
       0.052392162 -0.05025183 0.051644612 0.0114166085
0001b0 35 71 9c 3d 43 87 79 3d cc a6 93 bc 1d 19 bf bc
       0.0763878 0.06092001 -0.01802387 -0.023327405
0001c0 27 68 a6 3d 6b d8 b5 3c 88 e6 32 bd d2 9a 26 bd
       0.08125334 0.022197923 -0.043676883 -0.040674992
0001d0 5a 34 14 3d 96 7d 84 3d 77 4b 4c 3d 3a 28 64 3d
       0.03618274 0.06469266 0.049876656 0.055702426
0001e0 78 0b c2 3d 84 8f 48 3d e8 ea df 3c e3 7b 99 bd
       0.09474844 0.048964992 0.027333692 -0.07494333
0001f0 6d 30 ab 3c c7 45 a2 3d 87 55 a4 3c 1e a0 74 3b
       0.020897115 0.07923465 0.020060314 0.0037326883
000200 d4 91 6a 3d 7c d5 f4 bc 9d 75 0b 3d 36 4c 7b bc
       0.05726798 -0.029886954 0.03404771 -0.015337994
000210 3c 2c df 3b 52 65 1d 3d b2 96 d6 3c d9 82 02 bd
       0.006810693 0.038426705 0.026194904 -0.031863067
000220 c7 69 a7 3c 78 72 15 bd 38 c7 e6 bc 50 cb 94 bd
       0.02043618 -0.03648612 -0.028171167 -0.07265341
000230 4d ec b3 3d ac 23 84 bd f0 fd 80 bb 1f a3 9d 3d
       0.08785305 -0.06452116 -0.0039365217 0.076971285
000240 4c 0f 87 3d 43 07 77 bd fd 89 68 3d 50 86 1b 3d
       0.065947145 -0.06030966 0.05677222 0.037969887
000250 c2 f6 86 bd 2f ea fd bc 65 c7 91 3d df b1 1c 3d
       -0.06590034 -0.030995457 0.071181096 0.03825557
000260 dc f1 62 3d bc 9c 88 3d bc c7 91 bc bc 37 1e bd
       0.055406436 0.0667052 -0.017795436 -0.03862737
000270 35 97 bb 3d 44 39 78 bd 9c 12 16 bc 8b e5 59 3d
       0.091597 -0.060601488 -0.00915971 0.053197425
000280 40 8a d2 bb d6 67 a6 3d 85 11 a0 3c 7c 0f d4 bc
       -0.006425172 0.08125274 0.019539604 -0.02588629
000290 fb 68 21 bd 3b de 44 bd ec ea bd 3d db fe 86 3d
       -0.039406758 -0.048063498 0.092733234 0.065915786
0002a0 e6 a0 20 3d 57 dc a2 bd 1a 5b b3 3a 5c 85 2e 3d
       0.039215945 -0.07952183 0.0013683767 0.04260765
0002b0 14 47 b3 bb 9e a7 2b 3d 7c 8f a7 3d e9 b3 80 bd
       -0.0054711197 0.0419079 0.08181664 -0.06284315
0002c0 31 bc 38 3d fb 90 3d 3d 8f 92 a3 bd 4c 95 23 bd
       0.04510135 0.046280842 -0.07986938 -0.039937302
0002d0 89 b9 24 bd a8 ec b4 3d d7 ae 41 3c 8e 09 aa 3d
       -0.040216003 0.08834201 0.01182147 0.08302604
0002e0 c9 09 f2 bb 5c 31 7f 3d c3 7b 44 bc 2c ab 26 3d
       -0.0073864204 0.062302932 -0.011992398 0.040690586
0002f0 50 8e 48 3d f5 f0 96 bb 90 f3 49 bc 6a 26 0d bc
       0.048963845 -0.004606361 -0.012326136 -0.008615116
000300 5f 89 84 bd 18 44 76 3c df fe eb bc ed fd 7d 3c
       -0.06471514 0.015030883 -0.028808055 0.015502435
000310 3b a9 4e bd 00 04 69 3d 36 5e 3a 3d 26 89 79 3d
       -0.05045436 0.05688858 0.045500003 0.06092181
000320 28 b2 3d bc ab 27 25 3d ac 40 b3 bd 60 94 aa 3d
       -0.01157812 0.040321033 -0.087525696 0.083290815
000330 5e 13 11 bd f6 88 a4 3d 97 d6 72 bd 68 89 35 3b
       -0.03541886 0.08033936 -0.05928668 0.0027700309
000340 01 ad b5 bc c6 20 90 3d 40 0c c8 3c 6e 72 03 bd
       -0.022177221 0.07037501 0.024419904 -0.03209155
000350 07 29 c7 bc ab c5 fe 3c e2 75 11 3d 31 63 75 bd
       -0.024311556 0.031100115 0.035512812 -0.05990905
000360 73 a0 31 3a 72 3e cd 3c 66 b6 96 3c 47 35 90 3d
       0.0006775923 0.02505419 0.018397521 0.07041412
000370 3b a3 b6 bd 92 78 5a bc 37 b6 2f 3d 59 80 77 bd
       -0.089178525 -0.01333441 0.042898383 -0.060425136
000380 c5 22 8e bd b1 1a 41 bc 8f c3 93 bd 3c 30 66 bc
       -0.069402255 -0.011786149 -0.07215034 -0.014049586
000390 ec 61 68 3d 57 bb 52 bd fb 9f 80 bd 38 22 6b bd
       0.05673401 -0.051448192 -0.06280514 -0.05740568
0003a0 58 9e a7 3b fa f0 a5 3c 5e 20 2a bd 69 8b b8 bd
       0.0051153116 0.020256508 -0.041534774 -0.090109654
0003b0 9f a1 5d 3d 2c e3 40 3b 31 60 f0 bb b9 34 8f bc
       0.054109212 0.002943228 -0.0073356857 -0.017481195
0003c0 80 c5 96 3d bc 61 31 3d 6b 3b a3 3d 73 4e 85 3d
       0.07361889 0.043306097 0.079703175 0.065091036
0003d0 68 75 e2 bc 1a e4 98 bd fc 66 82 bd 1f f2 10 bd
       -0.027643874 -0.07465382 -0.06367299 -0.035387155
0003e0 e7 26 b0 3d 15 df 83 bd 26 d7 b5 bc 57 ce b3 bd
       0.0860117 -0.06439034 -0.022197317 -0.087795906
0003f0 89 d0 76 3d bc 48 5e bc cf 10 5e bd 95 cc 27 bd
       0.06025747 -0.013567146 -0.05421525 -0.04096659

bias_hh_l0 f4 [512]
000000 3d bc 42 bd 9a df 50 3d 6d d7 af bc d7 d5 8d 3d
       -0.0475428 0.050994493 -0.021465028 0.06925552
000010 5f c6 5b 3c 99 7e 82 3d b1 99 98 3d 7e 72 06 3d
       0.013413995 0.06371803 0.07451189 0.032824032
000020 ba 7d f0 3d 13 6b 07 bd 40 6f 55 bd 6a 5b ae 3d
       0.117427304 -0.0330611 -0.05210805 0.085135296
000030 4b f4 59 bd 4e f5 9e 3c cd b6 45 bd a0 3d f1 bc
       -0.05321149 0.01940408 -0.048270036 -0.02944833
000040 bf 92 8f 3d e3 6d 8b bd 8b ae 86 3d 90 61 80 3d
       0.070104115 -0.068080686 0.0657626 0.062686086
000050 56 37 76 bd 47 63 f6 bc 98 75 1e 3c 80 0b 36 bd
       -0.060111366 -0.030076636 0.009671591 -0.04444456
000060 d1 cb 14 bd 55 64 9c 3d fa 9f 08 3d a6 2b 30 bd
       -0.036327187 0.07636324 0.03335569 -0.043010376
000070 83 12 c7 bc df 58 1f bd 8b 3d a3 bd cc 77 90 bd
       -0.02430082 -0.038903113 -0.07970723 -0.070540994
000080 ab 82 cc 3d c8 47 91 3c 36 b1 e3 3d 15 5e d6 3b
       0.099858604 0.017734423 0.11117785 0.006541977
000090 6b 03 98 3d 62 41 e8 bc 84 c4 9c bd 2d d9 87 3d
       0.07422527 -0.02835149 -0.0765467 0.0663322
0000a0 97 ac a9 3c db f1 6e bd c4 64 1d bd 10 c5 9b 3d
       0.02071218 -0.05833612 -0.038426176 0.07605946
0000b0 44 3a 15 3d e1 62 95 3d 6d df bd 3d 73 22 97 3d
       0.03643252 0.0729425 0.09271131 0.073796175
0000c0 d4 18 53 3d c9 75 a5 3d 87 92 d7 3c 94 fe 8b bd
       0.05153735 0.08079106 0.026314987 -0.06835666
0000d0 d6 aa 68 3d 2b ec 20 bd 09 af b8 3d ac 21 43 bd
       0.056803547 -0.039287727 0.0901776 -0.047639534
0000e0 14 e8 53 bd 5a 40 a3 3d 51 41 9a 3d 22 b6 e3 3c
       -0.051735 0.079712585 0.07531989 0.027796809
0000f0 69 04 a2 3d d1 1b 8a 3d f3 7d 0f bd 84 e2 8d 3d
       0.079109974 0.06743587 -0.035032224 0.0692797
000100 f9 76 11 bd fb 6a c3 3d 28 db 8d 3d 33 2a 8e bd
       -0.03551385 0.09541889 0.06926566 -0.069416426
000110 17 95 4b 3c 7b a7 95 bc 32 67 cb 3d 57 7b a2 3c
       0.0124256825 -0.018268337 0.09931792 0.019834204
000120 85 41 ae 3d a0 d0 c4 3c 53 5e ea 3b c8 4e 5d bd
       0.085085906 0.024025261 0.0071523576 -0.05403021
000130 08 c9 20 3d 58 45 37 bd 2a 73 ab 3c e3 81 95 3d
       0.03925422 -0.044743866 0.020928938 0.073001646
000140 cd 4e 3f bd 5c 96 4a 3d f6 b8 0b bd 23 0b 88 bd
       -0.04670601 0.0494598 -0.03411194 -0.06642749
000150 0b 33 98 3d b9 a4 fe bc da c5 aa bb ae 71 73 3d
       0.07431611 -0.031084405 -0.005211574 0.059434585
000160 4f 5d 58 3d 11 2f 07 bd 0d 93 60 bd 4c a0 9d 3d
       0.05282336 -0.03300387 -0.05482774 0.0769659
000170 38 e1 97 3d 4a e3 0c 3d cb 91 59 bd a9 d4 7c bd
       0.07416004 0.034396447 -0.053117555 -0.061726246
000180 1e 1c 83 3d a7 92 87 3d 90 ca 39 3c bb 77 07 bd
       0.06401847 0.066197686 0.011339799 -0.03307317
000190 09 87 bc bc 57 03 d1 3d b4 a4 78 bd be 49 8d bc
       -0.023013609 0.10205715 -0.06070395 -0.017247077
0001a0 48 aa 92 3d 0a 05 9f bd f7 3d 03 bc 33 b0 1d 3d
       0.07161385 -0.07764633 -0.008010379 0.038498115
0001b0 09 ab 06 bc 10 74 c2 3c 82 a8 35 bd f4 a6 02 3c
       -0.008219489 0.023736984 -0.044350155 0.007974375
0001c0 1f f7 cc 3c af 1e a9 3d f1 01 86 bc 33 8c e3 3a
       0.02502018 0.082578056 -0.016358348 0.0017360508
0001d0 92 a7 64 bd 63 da 78 3d e3 36 bc 3d d7 21 c7 3d
       -0.05582387 0.060755145 0.09190156 0.09723251
0001e0 b6 97 81 3c d1 8d b0 bd bc 3b 2b 3d 0f 96 b0 bd
       0.015819412 -0.08620799 0.041805014 -0.086223714
0001f0 b5 81 a1 bc 18 15 38 3d e4 da 1a bd cf b3 51 3d
       -0.01971517 0.04494199 -0.037806407 0.05119687
000200 c7 b4 73 bd 48 6d a1 3c bd 9c 65 3c 15 15 db bc
       -0.059498575 0.01970543 0.01401442 -0.026743451
000210 f8 8f 9d bd e4 d7 1c 3d dd 48 08 3d 0a e7 90 3d
       -0.076934755 0.038291827 0.033272613 0.07075317
000220 9e 03 39 bc 30 a4 e5 bc ec 33 91 3d 28 e4 f6 bc
       -0.011292366 -0.028032392 0.070899814 -0.03013809
000230 76 51 2c 3d 81 ec 34 3d fc 9f a4 3c 5c 9a 1b bd
       0.042069875 0.04417086 0.020095818 -0.037989005
000240 fa 10 01 bb dd ef d0 bb 87 6f 10 ba 1c 8c 6e 3b
       -0.0019693957 -0.00637625 -0.0005509783 0.003639943
000250 04 8e 0b bd cf af 05 3d cf 6d 44 bc 22 9c fd 3a
       -0.034070984 0.032638367 -0.011989071 0.0019348899
000260 1e 0b 38 bd f0 7a 93 bd e9 19 8c bd 51 17 af bd
       -0.044932477 -0.07201183 -0.068408795 -0.08549369
000270 8e 95 72 3d 19 78 9b 3d 6e 20 a3 3d e5 98 05 3d
       0.059224658 0.07591266 0.0796517 0.032616515
000280 c8 a2 a0 bc 68 59 76 3c 0e 93 63 3d 75 51 45 bd
       -0.01960887 0.015035965 0.055560164 -0.048173387
000290 59 87 af bc ff ad 67 bd 36 55 9a 3d 1c f1 c5 ba
       -0.021426843 -0.05656242 0.07535784 -0.0015101763
0002a0 36 16 b3 bd 24 49 95 3d 54 cf 74 3d 53 35 89 3d
       -0.08744471 0.07289341 0.059768036 0.06699624
0002b0 af 17 96 3d 12 39 42 bd 7d bc 02 bd 2c 68 83 bc
       0.07328736 -0.047417708 -0.031918038 -0.016040884
0002c0 f5 18 34 3d ee 16 98 bc 73 b4 a1 bc cf 1f 67 3d
       0.043969113 -0.018565621 -0.019739365 0.05642682
0002d0 b7 22 b2 bd fc b0 b5 3d 11 05 75 bd 3b 27 90 bd
       -0.086980276 0.08871648 -0.059819285 -0.070387326
0002e0 bc 67 22 3d 41 e1 82 bd 67 ab d8 3c 55 98 5d bc
       0.03964971 -0.0639062 0.026448919 -0.013525088
0002f0 7e 7c 46 bd 66 c1 bd bb da 99 87 bb 11 20 61 3c
       -0.04845857 -0.005790877 -0.0041382136 0.013740555
000300 c8 6f 30 3d 04 cd 2c 3c d6 1b 4c 3d e5 7f 88 bd
       0.043075353 0.010546926 0.049831234 -0.06665019
000310 49 c1 86 3d 03 e1 f3 bc d7 6a 10 bd c8 74 ff bc
       0.06579835 -0.02977038 -0.03525814 -0.031183615
000320 05 14 15 3d 5d 12 49 bd eb 48 67 bc 4e b2 6f 3d
       0.036396045 -0.04908978 -0.014116506 0.058519654
000330 9b 1e 5a bc 75 78 7b bd 33 38 b4 3d 14 6f 00 3d
       -0.013312961 -0.061394174 0.08799782 0.031355932
000340 dd de 0e 3d a8 97 9e bd 77 39 4b bd 31 84 27 bb
       0.034880508 -0.0774377 -0.04961535 -0.002556097
000350 32 4c 17 bb 72 33 02 bd 63 d4 fc 3a 39 c3 59 3d
       -0.0023086187 -0.031787343 0.001928937 0.053164694
000360 f5 ea 02 3b fc d8 a4 bc b6 06 26 bd dc b9 78 3d
       0.001997647 -0.020122997 -0.040533744 0.060724124
000370 8c 3f 4d bd 4e 97 93 bc 4a ab 26 bc d8 a9 81 bd
       -0.05010943 -0.018016484 -0.010172674 -0.06331223
000380 3e c7 1e 3d 79 9e 9e 3d 87 52 bd 3c fd 32 7b bd
       0.03876423 0.0774507 0.023110641 -0.061327923
000390 45 51 a6 bd 04 06 ea 3c 5e d4 6d bd 7f 0b d6 bb
       -0.0812097 0.028567322 -0.058063857 -0.006532132
0003a0 98 ab 11 3d 9e b9 90 3c 60 4b 16 3d c9 52 9f bd
       0.035564035 0.017666634 0.036692977 -0.07779462
0003b0 b2 65 6d 3d f0 2d 0e 3d 1a e3 50 3d 73 7d fa bb
       0.057958312 0.03471178 0.05099783 -0.0076443492
0003c0 d1 0c 85 bd ae df 9b bc da c4 b0 bd 9d 62 15 bd
       -0.06496585 -0.019027557 -0.086312965 -0.036470998
0003d0 42 65 bd bd ef 8a 1f bd 94 b4 a9 bd 41 ba 06 3d
       -0.09247829 -0.038950857 -0.08286396 0.03289247
0003e0 ab ed af 3d c6 f1 d1 bc 5e f3 10 bd 52 1c e3 bc
       0.085902534 -0.025627982 -0.035388343 -0.027723465
0003f0 d2 84 ac 3d 90 ff bf 3c a3 cb 2e 3d 58 97 ad 3c
       0.08423771 0.023437291 0.04267467 0.02119033

weight_ih_l1 f4 [512, 128]
000000 52 55 dd ba 19 bd 66 bd 51 95 04 3d 05 99 f5 3c
       -0.0016886389 -0.05633268 0.03236896 0.029980192
000010 2e 57 49 bd 66 ab 3e bd 3d 49 03 3d ad 79 a0 bd
       -0.049155407 -0.046550177 0.032052267 -0.07835708
000020 0b ab 9e bc 94 b1 88 3d 2d 60 fc 3c d1 4a 12 3c
       -0.019368669 0.06674495 0.030807579 0.00892897
000030 5b dd bb 3d d4 1f a2 bd 88 94 a0 3d ea a1 bc 3d
       0.091730796 -0.07916227 0.0784083 0.0921057
000040 6f 6e 95 3d e9 9e b7 3c 99 37 b2 3d 12 ca ac bc
       0.07296454 0.022414641 0.08702011 -0.021092448
000050 db 37 82 3d a1 9d 81 bd fb cc 89 bd 24 c5 65 3d
       0.0635831 -0.063288935 -0.0672855 0.05609621
000060 d1 7a a3 3d 9c d1 be bd 39 a9 db bc 10 39 b1 3d
       0.0798241 -0.093173236 -0.02681409 0.08653462
000070 91 a5 79 3d 9f db 9b bd f3 5c 37 bd 39 71 ae bd
       0.060948912 -0.07610249 -0.044766378 -0.08517689
000080 67 1e 6d 3d de b4 3e bd 34 28 94 3c c7 0f 4e bd
       0.057890322 -0.046559207 0.018085577 -0.050308015
000090 cc 0e fa 3b fd 8f a8 3d 0d 42 1a bd 5a d7 a3 3d
       0.0076311585 0.082305886 -0.037660647 0.080000594
0000a0 fd 4c 61 bd c2 18 07 bc 28 c7 5d 3b 20 00 44 3d
       -0.055005062 -0.008245649 0.003384063 0.04785168
0000b0 fd 8c 2c bd 5e d7 7e 3d 30 ed c0 bd 96 1b ee bd
       -0.042126644 0.06221711 -0.0942024 -0.11626355
0000c0 7e c1 89 3b f5 f9 bf 3d 40 2a 76 3c 04 4b a2 3d
       0.0042039743 0.093738474 0.015024722 0.07924464
0000d0 a0 f2 a6 3d 10 ab a7 bd bb 66 84 3c 8c d4 c3 bd
       0.08151746 -0.081869245 0.016162267 -0.095620245
0000e0 ef fe 1b bd 5e f8 84 3c 3a 52 69 ba f0 ab 8c bd
       -0.03808492 0.016231712 -0.00089004973 -0.06868732
0000f0 f3 cc 1b bd ef 60 3f 3d e9 1f 90 bd 93 50 cf 3d
       -0.03803725 0.046723302 -0.070373364 0.1012279
000100 30 b7 8b 3c dd fe 8b 3c 8d 84 aa 3b 56 b5 a5 3d
       0.017055124 0.017089302 0.0052037896 0.08091228
000110 8a aa a9 3b 5e 8d 52 bd 11 a6 bd 3d 6e d6 e0 3c
       0.0051778005 -0.05140435 0.0926019 0.027445998
000120 25 e9 64 bd db f7 3d bd 85 42 83 bc 77 09 16 bd
       -0.055886406 -0.04637895 -0.01602293 -0.03663012
000130 b9 a3 9b 3d 14 04 7e 3d f8 74 77 bc c0 7a 8a 3d
       0.07599587 0.062015608 -0.015103571 0.06761694
000140 70 22 36 3c 0f 06 97 3c 14 76 f2 39 1b a0 f4 bd
       0.011116609 0.018435506 0.00046245812 -0.119446
000150 9c 4b c8 3d a8 2f 1a 3d cb 1b 5c bd 76 c2 71 bd
       0.09780046 0.037643105 -0.053737443 -0.059023343
000160 ea 8f 6a 3d e5 53 5d bd dd 93 94 bd 94 9b a0 3c
       0.057266153 -0.054035086 -0.07254765 0.019605435
000170 2e 80 82 3d 06 19 16 bb 82 8e 5c bc 1b 09 25 bd
       0.063721046 -0.0022903099 -0.013461711 -0.040291887
000180 c8 55 7f 3c 99 e6 e7 bd 61 f9 84 bd 4d ed 8e bd
       0.015584417 -0.1132328 -0.06492878 -0.06978855
000190 a2 f9 b7 bd 23 8c 30 3d 0e 84 10 be a3 37 d6 bc
       -0.089831606 0.043102395 -0.14112875 -0.026149577
0001a0 91 6f 0d 3d 5e cd 96 3c bd 7c 74 3d 98 04 70 3d
       0.034530226 0.018408474 0.059689272 0.05859813
0001b0 fe 9a 7c bc 4b aa 6c bd b6 4c fe bc 50 db 18 bd
       -0.015417812 -0.05777959 -0.031042438 -0.037318528
0001c0 35 84 73 3d 5c 0e 70 3d 58 ab 68 bd 96 d2 05 3c
       0.059452254 0.058607444 -0.05680403 0.008167883
0001d0 4f b4 36 bd ed f3 c6 3c 04 80 c7 3d a9 7e 52 3d
       -0.04460555 0.024286235 0.09741214 0.051390324
0001e0 76 a8 de bc d7 a0 ba bd df f7 ba bd 6c 2c a6 bd
       -0.027179938 -0.09112709 -0.09129309 -0.081139416
0001f0 32 4f 85 3d cb 54 65 3b 7d 77 6e 3d 9b f2 27 3d
       0.06509246 0.0034993168 0.05821942 0.04100285
000200 70 60 c2 bd 6f 65 06 3d f2 db 08 bd 2e b5 fc bc
       -0.0949105 0.03281158 -0.03341288 -0.030848112
000210 86 c2 3c 3d 53 d0 85 bd 8a fc 3a bd ef 07 3c 3c
       0.04608395 -0.06533875 -0.045650996 0.011476501
000220 2e 8e 97 3d ab 16 27 bc d5 69 41 bc 07 4f 7a bc
       0.074001655 -0.010198276 -0.0118050175 -0.015277631
000230 c0 70 d9 bd 7d a9 d8 3c 4b 58 96 bd 6b 6e 37 bc
       -0.106172085 0.026448006 -0.07341059 -0.011195759
000240 82 42 51 bd b7 89 1a 3d b0 e8 54 bd d6 76 57 ba
       -0.051088817 0.03772899 -0.05197972 -0.0008219307
000250 e0 6c 2e bc 91 52 71 bd 5f d5 8c 3d ef 01 65 bd
       -0.010646075 -0.058916632 0.06876635 -0.055910047
000260 98 25 77 bd cc 65 4a bb 8f ac ba bd 56 a7 5b bc
       -0.060338587 -0.003088343 -0.09114944 -0.013406595
000270 78 2e 2d bc 83 40 c8 bd f6 12 56 3d bb 75 c2 bc
       -0.010570161 -0.0977793 0.052264176 -0.023737779
000280 72 29 8c bd 4c 27 9e 3d fb 16 6a 3d 5a 9f 04 bb
       -0.068438426 0.07722339 0.057150822 -0.0020236582
000290 c9 f6 23 bb b7 28 5d 3d f3 45 a3 3c b2 e6 72 3d
       -0.0025018922 0.053993907 0.019930815 0.05930204
0002a0 15 0b dc 3d 27 f3 a7 bd 30 ac 3f bb c2 b7 7d 3c
       0.10744301 -0.082006745 -0.002924692 0.015485706
0002b0 93 03 10 bd db 1d 3d 3c 0d 5c 02 bd 4a fe 47 3d
       -0.03515966 0.011542763 -0.031826068 0.048826493
0002c0 bf 48 6b bd 1c 89 6e 3c e7 24 32 3b f2 49 ba bc
       -0.057442423 0.014559057 0.002718264 -0.022740338
0002d0 62 5a 27 3d 10 5c 6a bc f7 31 cb 3b 64 c6 0b 3d
       0.04085768 -0.014304176 0.0062010246 0.034124747
0002e0 90 12 2a bd cc ff 8e bd 3b f6 a6 3d 64 e0 6f 3d
       -0.04152161 -0.06982383 0.081524335 0.058563605
0002f0 35 04 2f 3d 73 1a 36 3d dd 94 2f bd fd a4 55 3d
       0.04272862 0.044458818 -0.042866576 0.0521593
000300 20 4a a4 bd 4d 11 0a be a0 b1 82 3c 12 83 a0 3c
       -0.08021951 -0.13483162 0.015953839 0.01959375
000310 a8 04 c8 bc 67 36 dd bc 97 c0 23 bd d4 9e 97 bd
       -0.024416283 -0.02700348 -0.03997859 -0.07403341
000320 c8 f4 b2 bb b4 2b c0 3c 80 ee b7 bd da c1 a5 3d
       -0.005461309 0.02345834 -0.08981037 0.08093615
000330 88 8d 2c 3c 40 f7 a0 bd 15 35 10 3c aa d6 4b 3d
       0.010531791 -0.07859659 0.008801718 0.049765266
000340 ea ab a1 3d cb 75 50 bd 80 b2 0d bb e2 40 dd 3d
       0.07894118 -0.050893586 -0.0021621287 0.10803391
000350 7c 75 0d 3d 17 da 09 bd 03 88 9e bc ad e4 7c 3c
       0.03453587 -0.033655252 -0.019351965 0.01543538
000360 41 cd a5 3b b4 d1 86 bb 05 09 70 bd cd 70 ac bd
       0.0050598686 -0.004114354 -0.05860235 -0.084199525
000370 fd 81 ee 3c 2a 39 5e 3c 2c 2e cc 3c b7 09 2c 3c
       0.029114718 0.013563434 0.02492436 0.010500363
000380 ca 75 8c bd 2e de 1d bc 36 12 88 3d d2 62 e0 3d
       -0.06858404 -0.009635491 0.066440985 0.109563485
000390 77 b4 59 3d 23 a3 9c bd ea 37 d5 3d 88 e8 9d bd
       0.05315062 -0.07648303 0.104110554 -0.077103674
0003a0 cb c9 97 3d 79 0f 80 3c 27 5f 49 bd ad 18 f5 bd
       0.07411536 0.015632378 -0.04916301 -0.11967597
0003b0 29 a6 23 bd 4f fe 63 bd f2 e7 55 3d 6f e2 42 3c
       -0.039953385 -0.05566245 0.052223153 0.011894806
0003c0 3a 0a 20 3d 8b 08 ea 3c cb 53 c0 bc 46 56 8b 3c
       0.039072253 0.028568527 -0.023477456 0.017008912
0003d0 7d e5 4a 3d a6 51 21 3c dd f7 34 3d 56 b2 b9 bd
       0.049535263 0.009846127 0.044181693 -0.09067218
0003e0 48 51 5c 3d 24 7c 8a bd d3 d4 c8 3d a5 66 9f 3d
       0.053788453 -0.06761959 0.09806218 0.0778325
0003f0 e8 f9 8d 3c 20 7f 9d bd 37 58 e9 3d d6 cb d8 3c
       0.017331079 -0.07690263 0.11393779 0.026464384

weight_hh_l1 f4 [512, 128]
000000 2c da 75 3d 01 f5 8b 3b c3 41 fc bc 7c 64 ff bc
       0.060022518 0.00427115 -0.030793076 -0.031175844
000010 83 e3 9c 3d 07 fd 62 3d 72 8b 56 3d e5 ed b1 bd
       0.07660582 0.055417087 0.05237908 -0.08687953
000020 6c 98 dd 3c 9d 5a 5c 3c 92 60 04 3d da 59 18 bd
       0.02705022 0.013449338 0.03231866 -0.037195064
000030 27 0a 90 3d 79 c3 09 bd 35 da f8 bc ab da 8c bd
       0.070331864 -0.033633683 -0.030377487 -0.06877645
000040 0e 7b 90 3d 66 32 22 3d cd 4a 8c bd e3 44 3d bd
       0.07054721 0.039598845 -0.068502046 -0.046208274
000050 b9 e8 8f bd a3 88 c8 bb 72 8c 22 bd 3c 69 75 3d
       -0.0702681 -0.006119804 -0.03968472 0.059914812
000060 cb a8 41 3d 2e c0 0e bd 48 d6 88 3d c1 55 7c 3d
       0.047280114 -0.034851246 0.06681496 0.06160522
000070 fe 9e 9e 3d 2f 69 9e 3d f8 7e 2d 3c 5a 99 2b 3d
       0.07745169 0.07734906 0.010589354 0.041894294
000080 ec 2a 98 bc e2 dd 85 bd 15 59 26 bd a8 f5 30 bd
       -0.018575154 -0.065364614 -0.0406123 -0.043203026
000090 1e 79 98 3d 44 da 62 bd 69 d4 ac 3d 31 31 30 bd
       0.07444976 -0.055383936 0.084389515 -0.043015663
0000a0 bc f3 5a 3c ba f8 35 3d 58 f0 ca bc 83 b2 8d bd
       0.013363775 0.044426657 -0.024772808 -0.06918814
0000b0 d1 30 44 3d 12 5f 04 3c 07 4b 0f bd 3c 21 b3 bc
       0.047898117 0.008079307 -0.03498366 -0.021866433
0000c0 fc fe 2c ba 13 54 75 bd 48 3d be bd a6 9c b6 bb
       -0.0006599275 -0.059894633 -0.09289032 -0.005572873
0000d0 c3 01 b0 3d e2 f7 a2 3d b3 5b d4 bc 78 4f c7 3d
       0.08594086 0.07957436 -0.025922632 0.09731954
0000e0 48 f5 2d bd d5 da 2f 3d ae 44 36 bd fe 89 59 3d
       -0.042470247 0.042933304 -0.04449909 0.053110115
0000f0 58 48 50 bd 3b 02 44 3d b7 b6 95 3d f6 dc 8f bc
       -0.050850242 0.04785369 0.07310241 -0.017561417
000100 d8 0d a2 3c 02 af a1 bc 16 26 54 3d 1d 35 da 3c
       0.019781992 -0.01973677 0.051794134 0.026636655
000110 ed 53 62 bb f6 fe cb 3b e2 75 01 bd a9 6e 1a bc
       -0.0034534887 0.006225462 -0.031606562 -0.0094257975
000120 ab cd 77 bd e6 24 9f bd 9f e9 c6 ba f7 fa b2 bd
       -0.060498875 -0.0777071 -0.0015175826 -0.08739274
000130 4c a8 75 3d e0 cd b5 bd c9 ac d7 3c 46 c6 21 bb
       0.059974954 -0.08877158 0.026327508 -0.002468483
000140 ee dd 07 3d 17 f9 99 3a 19 f9 94 bd fe 2b 95 bd
       0.033170633 0.0011747208 -0.07274074 -0.072837815
000150 6d 2f a1 bc c8 17 84 bd 4b 78 28 3d c4 91 87 bc
       -0.019675935 -0.064498484 0.041130345 -0.016548999
000160 77 6f b2 3d 4e 08 98 bd 23 aa 0a 3d bd 0e b9 3d
       0.087126665 -0.07423459 0.03385366 0.09036014
000170 04 6d 19 3c 92 ea 60 bd ad d0 89 3d 86 41 a1 3d
       0.00936437 -0.054911204 0.06729255 0.07873826
000180 10 33 99 bd 30 cb b1 bc cd b4 9c 3c b4 75 fd b9
       -0.074804425 -0.021703333 0.019129181 -0.00048343616
000190 93 1b 21 3d e6 ea c1 3c 2d 13 5b bd 19 51 cd 3c
       0.039332937 0.023671579 -0.053485084 0.025063084
0001a0 fe 4d 81 bd ff 31 af bd 02 fd fe 3b 98 c9 b6 bd
       -0.06313704 -0.08554458 0.0077816257 -0.0892517
0001b0 2b 86 ab bd 67 09 84 bd fc 88 2a 3d 34 ef 07 bd
       -0.083752 -0.06447106 0.041634545 -0.033187106
0001c0 0a f1 4b bd f5 ff 76 bc 4a 63 8e 3d c4 39 3e bd
       -0.04979042 -0.015075673 0.06952532 -0.04644181
0001d0 b0 63 96 3c 06 b7 40 3d b3 de 8a 3d be f1 b0 bd
       0.018358082 0.047049545 0.06780758 -0.08639859
0001e0 56 06 50 bd bc f0 90 3d e3 35 a6 3d 09 0c 25 bd
       -0.050787292 0.070771664 0.08115747 -0.04029468
0001f0 c8 2f 40 3d 38 98 9b 3d cf 75 fc bc 6b ea 62 3d
       0.046920568 0.07597393 -0.030817894 0.05539934
000200 1c 7e 8e 3d 7f 09 aa bd 93 a7 df 3c eb 0f 50 3c
       0.06957647 -0.083025925 0.027301585 0.012699108
000210 9e bf 58 bd 7c e4 c8 3d fd d3 be bd a7 61 a2 bc
       -0.052917115 0.09809205 -0.09317777 -0.019821955
000220 7b e3 5c 3d f6 23 af bd c7 62 13 bd 3e 9f 54 bd
       0.05392788 -0.08551781 -0.035982873 -0.051909678
000230 62 d0 db bb 4f 7b bd bc e1 63 37 3d 38 b1 9b 3d
       -0.006708191 -0.023130087 0.044772986 0.07602161
000240 da 61 72 3c c0 27 93 bd 6b 92 62 3c 1d a3 85 bd
       0.014793837 -0.07185316 0.013828854 -0.06525252
000250 fa 09 4a bd ac c9 e9 b9 b1 f6 86 3c 2b 77 ca bc
       -0.04932592 -0.0004459148 0.016475054 -0.024715027
000260 12 46 8f bd 63 e4 ec bc 49 c7 02 3b 59 9f 09 bd
       -0.06995787 -0.028917497 0.001995521 -0.03359923
000270 ac 00 9f bb 86 d6 a2 bd d8 85 80 bd 6a e2 16 bd
       -0.004852375 -0.07951073 -0.06275529 -0.03683702
000280 8f c4 51 3d 1d 06 b0 3d c8 0a 65 bd 55 73 da bc
       0.051212844 0.08594916 -0.055918485 -0.026666323
000290 9e 2a c2 3c 21 54 56 bb 45 a2 05 bd 9e 61 7b 3c
       0.023701962 -0.0032703953 -0.032625455 0.015343098
0002a0 77 cf af 3c ef f9 93 3d 51 f8 63 3d 19 d4 25 bd
       0.021461232 0.072254054 0.055656735 -0.040485475
0002b0 9d 9d 7a bd 50 f4 96 bd 85 08 8d bc d6 07 93 3d
       -0.061185468 -0.07370818 -0.017215976 0.07179229
0002c0 e3 71 9a bc 16 b7 67 bd 3a a1 0c 3d 8c 33 d4 3c
       -0.018853134 -0.05657109 0.034333445 0.025903486
0002d0 21 d4 9d bd 6f 0f 1f bd 3f 7d 25 3c dd 94 7f 3d
       -0.07706476 -0.038833078 0.010100662 0.062397826
0002e0 f2 70 7c bb c7 03 9d 3d 18 f7 17 bc 8d 7a 8d bd
       -0.003851947 0.07666736 -0.00927522 -0.0690814
0002f0 d9 f7 46 3d 5e e7 37 3c c8 9d 6d bd 34 89 90 bd
       0.04857621 0.011224596 -0.0580118 -0.070574194
000300 68 ab bd bb bd dd dd 3c d3 52 62 bd f4 2c d4 3c
       -0.0057882555 0.027083272 -0.05525477 0.025900342
000310 ed 4d a7 bc 88 65 65 3d b8 45 b1 bd 51 74 a5 bb
       -0.0204229 0.05600503 -0.08655876 -0.0050492664
000320 bf cf a2 bd 19 99 a1 3c c5 6c b9 bd f4 99 ca bc
       -0.07949781 0.019726323 -0.09053949 -0.024731614
000330 3b 05 7a bd 6f 57 ca 3d 4f aa 4b 3d 3f 14 85 3d
       -0.061040144 0.09879958 0.049722966 0.06498002
000340 c5 9f 98 bc cb 48 82 3d 12 31 8e 3c 6c 57 f6 bc
       -0.018630872 0.063615404 0.017357383 -0.030070983
000350 32 97 a8 3c 36 68 05 3e b0 fc 7f bd eb a4 7c bb
       0.020579908 0.13028035 -0.06249684 -0.0038550447
000360 44 b0 a9 3c d6 25 97 3c 2c 03 54 bd f9 ef bb 3d
       0.020713933 0.018450659 -0.051760837 0.091766305
000370 34 48 71 3c e0 aa 77 bd f2 f9 a7 bd ae 3c bc bd
       0.014726687 -0.060465693 -0.0820197 -0.09191261
000380 fe 24 13 bd ba 60 75 3d 6b af 85 bc be a5 f8 3c
       -0.03592395 0.0599067 -0.016318997 0.03035247
000390 25 6a 6c bd 8c 11 40 bc 7e bc 81 bd a0 af 3f 3d
       -0.057718415 -0.0117229335 -0.0633478 0.04679835
0003a0 8a bf 45 bc 56 be d4 3b e0 da 35 3c b9 68 98 bd
       -0.012069592 0.0064924164 0.011099547 -0.07441849
0003b0 52 d9 84 bd 92 38 9c bd 50 fd a9 ba 26 a0 87 3c
       -0.06486763 -0.076279774 -0.001296917 0.016555857
0003c0 f2 a9 a9 3d bd cf 18 bd 72 e3 f2 3c 77 8b a4 3d
       0.082843676 -0.03730749 0.02964947 0.08034413
0003d0 03 1e 9c bc 3c 3f dd 39 d5 cb fc bb 7b 24 9c bc
       -0.01905728 0.00042199518 -0.0077147284 -0.019060364
0003e0 00 5d b9 bc 9c a6 f9 bc c0 b3 ee bc 4c a6 84 bd
       -0.022627354 -0.030474953 -0.029138446 -0.06477031
0003f0 7c a9 86 bd 3b c0 12 3c 32 23 ea bd 65 c3 32 3d
       -0.06575295 0.008956964 -0.11432494 0.043643374

bias_ih_l1 f4 [512]
000000 58 cb 92 3c 45 70 90 3d b3 17 08 3d ee 0e b7 3d
       0.017919227 0.07052664 0.033225726 0.089383945
000010 4d 56 41 bd 32 23 8d 3c 26 40 23 3c f2 ed 83 3d
       -0.047201443 0.017228696 0.009964025 0.06441869
000020 81 e5 8e 3d 16 4e a0 3d cf c9 ae 3d 33 fb 58 bd
       0.06977368 0.07827394 0.08534586 -0.052973937
000030 cd 44 aa 3d e4 89 c9 3d c7 fa 11 bd ae ce 8a 3d
       0.08313904 0.09840754 -0.03563955 0.06777702
000040 b9 09 4d 3d 9b cd 81 bd 7f a3 c0 3d 34 b4 b6 bc
       0.0500581 -0.06338044 0.094061844 -0.022302724
000050 13 8b 9b 3d 28 f5 22 bd 59 4a 7d bb ac 6f 3b 3d
       0.07594886 -0.03978458 -0.003864905 0.045760795
000060 f6 2f 8b bd d1 00 ea 3b 89 c9 50 bd 24 8d b5 3c
       -0.06796257 0.0071412106 -0.05097345 0.022162028
000070 c0 57 d8 bc 24 df 98 bb 21 cc 55 bc f7 74 b8 3c
       -0.02640903 -0.0046652723 -0.013049156 0.02251671
000080 d4 82 22 3d 33 bd 8c bd d7 af 91 bc aa 9e a9 3d
       0.03967555 -0.068720244 -0.017784042 0.08282216
000090 aa f6 d8 3d 82 8c eb 3d 03 b5 a7 3d 88 b6 33 bd
       0.105939224 0.11501409 0.08188822 -0.043875247
0000a0 4d 9c a9 3b d4 79 4e bd 3c 21 75 3d ba ef 80 3c
       0.005176103 -0.050409153 0.059846148 0.01573931
0000b0 1f e9 45 bc 3a 4f 49 bd c2 16 93 3d 97 96 88 bd
       -0.012079506 -0.049147822 0.07182075 -0.06669348
0000c0 26 4a 0c bc 7b 6b 46 3d 21 6a 76 bd dd 28 c6 bc
       -0.0085626 0.048442345 -0.060159806 -0.024189407
0000d0 86 d4 0a 3c 7e 17 25 bd ed 58 b4 3d 17 a1 f8 bc
       0.008473521 -0.040305607 0.08806024 -0.030350251
0000e0 aa 0d 26 3d 86 e8 0d 3b 42 af 84 3d aa 1a c3 bc
       0.040540375 0.0021653487 0.0647874 -0.023816425
0000f0 25 e9 35 3d cc 6d 72 ba 05 86 82 3d 67 35 81 3b
       0.044411797 -0.00092479284 0.063732184 0.0039431336
000100 0e 5f 98 3d f6 30 85 bb 35 e2 94 bd b2 80 24 bc
       0.07440005 -0.0040646745 -0.07269708 -0.010040449
000110 e7 51 b6 3d 20 74 86 bd 66 31 c3 3c 82 10 d3 3b
       0.089023404 -0.06565118 0.023827266 0.006441177
000120 bc 7d 95 bb d6 88 ab ba b3 e9 33 bd 0f 15 a0 bd
       -0.004562108 -0.0013087045 -0.043924045 -0.078165166
000130 e6 3a 10 3d 97 c3 e8 bc 23 33 48 3d 82 84 41 bc
       0.03521242 -0.028413577 0.048876893 -0.0118113775
000140 91 c7 7e bd ce 89 41 bd b2 33 af 3d 93 50 8a bb
       -0.06220204 -0.04725056 0.08554782 -0.004221031
000150 82 91 92 bd 2b 57 7f 3d 28 7e 8f bd 79 a9 df bc
       -0.0715666 0.06233899 -0.07006484 -0.02730249
000160 27 1d 84 3d b3 f1 a0 bc ba de 87 bc 74 b9 57 bb
       0.06450873 -0.019646501 -0.016585696 -0.0032916935
000170 85 4b ce 3d ce 3b 3e 3d 23 a6 a8 3d d3 1f 3a bc
       0.10072998 0.046443753 0.08234813 -0.011360127
000180 32 4b 46 bd d7 ac 4f bb 42 33 26 3d 65 57 12 bd
       -0.048411556 -0.0031688714 0.040576227 -0.035727877
000190 03 e8 f9 3b f9 43 8a 3c eb a8 8f bd 83 9a 39 3d
       0.007626535 0.016878115 -0.070146404 0.04531337
0001a0 bb 63 1b bd b1 c8 bb 3d f7 fd 75 3d 71 4d 90 3d
       -0.037936907 0.09169138 0.060056653 0.07046021
0001b0 09 c1 62 bd e4 82 24 bb 05 66 5a 3d b5 d5 8f bc
       -0.055359874 -0.002510243 0.05331995 -0.017557958
0001c0 2a 3a 65 3d ed f6 7e 3d fd db 68 3d 44 0e a5 3b
       0.055963673 0.062247206 0.056850422 0.005037101
0001d0 73 7a e1 3c 1d 08 4e 3d 48 ca 1d bc 9a 98 6a 3d
       0.027524209 0.050300706 -0.009630747 0.05727444
0001e0 77 d7 e3 3d bf 37 5e 3d 95 4c a5 3c 44 4e bb 3a
       0.11125081 0.054252382 0.020178119 0.0014290293
0001f0 c9 a2 f0 3c 6d 85 ce 3c b5 fa 5a 3b c3 9f 89 3d
       0.029374497 0.025210107 0.0033413593 0.06719925
000200 23 63 8d bd f6 6d 57 3d fb 98 ab bc f8 68 68 3d
       -0.069036745 0.0525951 -0.02094697 0.05674073
000210 6f a4 37 bd 63 01 86 bc 82 85 a0 3d 7c 00 97 bb
       -0.04483455 -0.016358083 0.078379646 -0.004608212
000220 a2 07 11 bd 62 55 1d 3c da 69 3c 3d a2 ec 0c 3d
       -0.03540767 0.009602876 0.045999385 0.034405358
000230 45 a7 7b 3d d1 03 43 bd c2 1f 98 bd ae 8a 42 bd
       0.061438818 -0.04761106 -0.07427932 -0.047495537
000240 13 8a a0 3d 95 dd 6b 3d df 73 fa bc 02 4a a5 bd
       0.078388356 0.057584364 -0.03057283 -0.080707565
000250 07 e8 18 bd fc 66 28 bb e9 3b 04 3d 1a 58 f9 bc
       -0.037330654 -0.002569615 0.032283697 -0.030437518
000260 48 ba a4 3d 7a 62 4d 3d 8c 0b 95 3d bc 01 a9 bd
       0.08043343 0.050142743 0.07277593 -0.08252284
000270 41 46 c7 bd 36 ce 9d bd d2 df 65 bd f0 0b a0 bd
       -0.09730197 -0.07705347 -0.056121655 -0.07814777
000280 ac 3b ee bc ed 95 45 bd 0b d9 45 bd c9 f9 3a bd
       -0.029081188 -0.048238683 -0.04830269 -0.04564837
000290 84 f9 9f 3d 48 e6 33 3c 12 78 36 3d 0c aa 27 bc
       0.07811263 0.010980196 0.0445481 -0.010233413
0002a0 e9 b4 82 ba 61 87 23 bd fb c2 f3 3c 8b fc 0e 3d
       -0.0009972128 -0.03992403 0.02975606 0.034908812
0002b0 4c 38 a1 bd a4 87 90 3c 97 83 45 3d 3e 26 53 bd
       -0.07872066 0.017642803 0.048221197 -0.051550142
0002c0 d6 ef 3d 3d d8 45 97 bd d2 ba d7 bc 91 42 9f bb
       0.046371303 -0.073863685 -0.0263342 -0.0048602303
0002d0 de 80 85 bb a2 ee 7b 3d 12 93 26 3c 7a 44 93 3b
       -0.0040742 0.061506875 0.0101669 0.004494247
0002e0 2b a2 20 bd c6 80 50 3c af 55 71 bd 0d 1a 87 bd
       -0.039217155 0.0127260145 -0.058919605 -0.06596766
0002f0 1d 2a ad 3c 47 09 9a 3c 1d b3 a2 3d 99 1b ac bd
       0.021138245 0.018803252 0.079443194 -0.08403701
000300 6e 1c 66 bd d5 f4 bd bd 5e 61 44 3d 53 84 4b bb
       -0.056179456 -0.09275214 0.04794442 -0.0031054213
000310 2c fc 88 3c 1b 63 33 bd f2 88 7b bb 15 ec 8a 3d
       0.016721807 -0.043795686 -0.0038381186 0.0678331
000320 f5 cb 58 3d 39 35 09 3d c3 8d 55 3c 97 53 96 3d
       0.052928884 0.033498023 0.013034287 0.07340162
000330 9d bd af bd 1e e6 9b bd 3e d3 53 3c 56 d6 83 bd
       -0.08581088 -0.07612251 0.012928782 -0.06437366
000340 0b e1 80 3d 69 61 88 3d 7a f8 6f bd 33 ab 8d 3d
       0.062929235 0.066592045 -0.058586575 0.06917419
000350 a0 af 6b bc 3a e6 d1 3d c9 e8 8e 3c 2e 1f 27 3d
       -0.014385134 0.1024899 0.017444985 0.04080122
000360 ea 92 5a bd b1 28 58 bd 74 17 06 bd 0b 3f 8c 3d
       -0.053362764 -0.05277318 -0.03273721 0.06847962
000370 f3 2b f6 bb bd f5 40 bd b1 67 e7 bc ee 30 5d b8
       -0.0075125634 -0.047109354 -0.028247686 -5.2736075e-05
000380 08 19 93 3d 01 96 91 3b bc 6b 55 bd 6d 12 d9 b9
       0.07182509 0.0044429307 -0.052104697 -0.00041403194
000390 6b 02 c3 bb 84 ac 77 3d 59 ff 41 3d f4 ef 0e bd
       -0.005951216 0.060467258 0.04736266 -0.034896806
0003a0 74 13 3a bd 47 2d 1e bd a9 99 62 3d 05 d7 a0 3c
       -0.04542871 -0.0386174 0.055322323 0.01963378
0003b0 de 62 c2 bc 3c 3c 6d 3d 16 d5 81 3d 1d 99 af bc
       -0.023728784 0.057918772 0.06339471 -0.021435315
0003c0 c6 1c 46 3d 18 b6 ce bd 83 e6 8d bd c6 ff 2e 3d
       0.048367284 -0.100933254 -0.06928732 0.042724393
0003d0 50 0f 45 3b 61 1e c1 3a 64 f5 8d bd 30 96 ac bd
       0.0030068941 0.0014733785 -0.0693157 -0.084270835
0003e0 71 49 4f 3d b3 a0 42 bd 7c cc 8f 3d f0 77 a3 3d
       0.05060715 -0.047516536 0.07021424 0.07981861
0003f0 20 01 71 bd d2 15 8f 3d c7 82 a3 bc 3b e4 a5 bd
       -0.058838964 0.06986584 -0.01995982 -0.08100172
