LSTMStockTrading/models/lstm_model_weights.pth (torch, 56053 bytes, 9 tensors)

lstm.weight_ih_l0 f4 [128, 1]
000000 a9 fe 10 3b c1 c9 84 be 62 56 84 bc 8f 7d b7 3d
       0.0022124446 -0.25935176 -0.016154472 0.08959495
000010 2a 4b 15 3e ee 27 8a 3d 7a 0b 46 3e a7 36 2e 3e
       0.14579454 0.06745897 0.19340315 0.17013036
000020 24 47 0a be 11 1d 7a 3d 47 f7 21 be b2 b0 16 be
       -0.135037 0.061062876 -0.15816985 -0.14715841
000030 c2 32 2c 3d 1c 1d 90 be 97 35 99 bd 43 24 a2 3d
       0.042040594 -0.2814721 -0.074809246 0.079170726
000040 7b cc 7b 3d 4d 63 3a 3e b0 16 a8 3e a9 11 82 3b
       0.061474305 0.18201943 0.3282981 0.0039693904
000050 95 74 72 bd c0 1b 54 3e 26 96 11 3d 6a 2c e9 3d
       -0.059193213 0.20713711 0.035543583 0.113854244
000060 df 1d 40 be 3f cf fb bd dc 4f 53 be b6 79 52 3e
       -0.18761395 -0.122953884 -0.20635933 0.20554242
000070 1f f8 a1 bb 26 5d 2c 3e 4e 2a c6 3c 16 4f 16 3d
       -0.0049429084 0.16832408 0.024190094 0.036696516
000080 62 90 ab be 85 3b 14 3d 10 9f 3f 3e 8e e9 64 3e
       -0.33508593 0.036189575 0.18713021 0.22354719
000090 b5 5e bc 3e 14 07 a4 3e f5 89 ac 3e 38 f6 86 3e
       0.36791006 0.3203665 0.33699003 0.26359725
0000a0 48 99 01 bd 1f ec dd 3d 1b 3e 15 be 36 b0 2f bc
       -0.03164032 0.10836052 -0.14574473 -0.010723164
0000b0 fd cf 47 3b 0c 68 3d be 64 67 42 bc a3 0a 83 3e
       0.003048896 -0.18496722 -0.011865471 0.25594053
0000c0 09 7f fa bc 6c d9 5e 3e 9d c0 a5 3e 01 ff fc 3d
       -0.030578153 0.21762627 0.32373515 0.12353326
0000d0 8a 8f a8 bd 61 66 1f 3e 71 9e fc bd d6 89 8f 3e
       -0.08230503 0.15566398 -0.12334908 0.28034848
0000e0 82 13 4b be 6f dc c6 bd 9b 96 73 be ef 0e af 3e
       -0.1983166 -0.09710013 -0.2378792 0.3419108
0000f0 f0 5e 22 be 77 80 70 bd ff d8 f8 3d 47 2c 74 bd
       -0.15856528 -0.058716264 0.12150764 -0.05961254
000100 59 78 ac 3e 2e be 1c 3e 11 0a 20 bd 08 50 bd 3e
       0.33685568 0.15306923 -0.0390721 0.36975121
000110 ed 56 42 3e 48 7e 8d be aa c4 80 3e 89 48 91 be
       0.18978472 -0.27635407 0.25150043 -0.28375652
000120 2c cb bd be 74 a8 69 3e 3b 27 96 be c5 39 0a be
       -0.3706907 0.22818166 -0.29326805 -0.134986
000130 5d a0 ab 3e cf 7c 55 3e 7b f4 89 3e 48 78 1b 3b
       0.33520785 0.20848392 0.26944336 0.0023722816
000140 4f 21 a0 3e 06 49 6d 3e 7d 5a 8f be ee 01 81 be
       0.31275412 0.23172387 -0.27998725 -0.25196785
000150 b7 9e d4 bb c9 4f 94 bd cf ef 91 3e 1a a4 9c be
       -0.006488647 -0.0724178 0.28503272 -0.3059395
000160 b3 7d ab 3e a6 31 4a be 9b 28 6d 3e b1 56 71 3e
       0.33494338 -0.19745502 0.23160021 0.23568226
000170 1b 00 9d 3e f2 42 80 3e 89 71 57 be 73 6b 17 bd
       0.30664143 0.25051075 -0.21039404 -0.036967706
000180 09 cc 4a bd 32 3a 97 be e8 59 c7 3d c6 ea 86 3d
       -0.04951099 -0.29536587 0.09733945 0.06587748
000190 ff 92 0a 3e b3 1d 7c 3e 66 6a fb 3e 26 cf 59 3e
       0.13532637 0.24620704 0.49104613 0.21270427
0001a0 9e a8 95 bd 38 51 32 3d 2e f5 fd bc b8 39 aa bd
       -0.07307552 0.043534487 -0.0310007 -0.0831179
0001b0 67 df ba bc 78 89 de bc 18 4b f9 bd bc ba 87 ba
       -0.022811605 -0.02716516 -0.12172526 -0.0010355334
0001c0 19 3b 5e be 41 0d a8 3e a9 0d 88 3e bf 92 23 bd
       -0.21702231 0.32822612 0.26572922 -0.03993487
0001d0 b6 5b 88 bd 09 b1 8a 3e 59 d6 55 be 45 cd 04 3e
       -0.066581175 0.27088192 -0.20882548 0.12968929
0001e0 a6 7b a0 be b3 eb 88 3b 11 04 f7 bc 77 fb 60 3e
       -0.31344336 0.004178488 -0.030153306 0.21970926
0001f0 34 fa 6a be 09 a1 2f 3e 44 5e 82 bd 39 f4 58 3d
       -0.22947007 0.17151274 -0.06365636 0.052967284

lstm.weight_hh_l0 f4 [128, 32]
000000 96 9e 6a 3d 9c eb 60 be a2 d4 df bd 79 d1 0b be
       0.057280146 -0.21964878 -0.10929228 -0.13654126
000010 1b 1b 24 3e 56 58 fe 3d 79 31 42 3d fa 56 dd bc
       0.16025965 0.124191925 0.047410462 -0.027019013
000020 85 8e 11 3d 4f 1a 6c bc 85 d5 17 bd ab c1 51 be
       0.035536308 -0.014410569 -0.037068862 -0.20484035
000030 28 fb 5d be 74 ab f4 b9 b6 34 df bd 49 e7 63 bd
       -0.2167784 -0.0004666705 -0.10898726 -0.055640493
000040 09 79 45 be 88 68 17 3e 1c a9 2c 3e 7e f3 2b bd
       -0.19284452 0.1478597 0.16861385 -0.04198026
000050 59 ce 85 bd 42 81 85 bd fe a0 88 be 36 20 1c 3e
       -0.06533498 -0.065187946 -0.26685327 0.15246662
000060 96 38 8a be 32 77 49 3d 11 5b 92 bd 22 82 dd bd
       -0.26996297 0.04918594 -0.07146276 -0.108158365
000070 5f 8e 6e 3d 7a f4 91 3d 4a 20 35 3e ea 90 f0 3d
       0.058241244 0.07126708 0.17688099 0.1174639
000080 c7 84 3b be 01 c3 10 be 22 10 29 3d a0 18 4a be
       -0.1831237 -0.14136888 0.04127515 -0.19735956
000090 ba ea 49 be 33 ca 91 3d 01 eb 06 bd 5a 4b 53 3e
       -0.19718447 0.071186446 -0.03293896 0.20634213
0000a0 17 37 e4 3b 66 75 5b bd a1 49 61 bd 29 8f 4b 3b
       0.006964575 -0.053578757 -0.05500186 0.0031060672
0000b0 a3 06 55 bd a3 54 59 3d 92 45 95 bd 7b ba 11 3d
       -0.052008282 0.05305923 -0.0728866 0.035578232
0000c0 63 60 4d be 8c c0 b9 bb b8 70 fc 3d 26 bf 23 bc
       -0.200563 -0.0056687053 0.12326187 -0.009994304
0000d0 b4 5a 33 3e 09 60 d3 3d 90 ca 46 be 8c 71 a0 bc
       0.17515069 0.103210516 -0.19413209 -0.019585393
0000e0 10 8a 0c be 53 d2 84 bd d1 81 9d 3c 71 e4 26 be
       -0.13724542 -0.06485429 0.01922694 -0.16298081
0000f0 dc 80 8a 3d 5c 4e e0 3d 82 5f 1a 3e db 9a 48 bd
       0.06762859 0.10952446 0.15075496 -0.048975807
000100 1f 62 62 3e 75 47 59 3e 78 34 16 3e f9 db 4c be
       0.22107743 0.21218665 0.14668453 -0.20005788
000110 5c e4 63 3d f1 f8 70 3d 57 4c 14 be d6 e6 22 bc
       0.055637702 0.05883116 -0.14482246 -0.009942731
000120 ed 0e 01 be 33 7a 4f be 57 52 4c 3d 31 df 86 3e
       -0.1260335 -0.20261459 0.049883213 0.26342157
000130 bf 1d 06 be 0d c4 6d 3d ab ce d5 bd 77 97 5c 3d
       -0.13097285 0.058048297 -0.104398094 0.053855386
000140 59 a1 3e 3e 14 b9 8a be 94 d6 22 3e c1 3b a7 3d
       0.18616237 -0.27094328 0.15902168 0.08165694
000150 e9 a7 80 3d c6 11 3a 3d 75 44 60 3d e3 69 94 3d
       0.06282026 0.045427106 0.054752786 0.07246759
000160 7a 8d 4b 3e 03 b7 5e be 42 72 5b 3e 1d 97 42 bb
       0.19878188 -0.21749501 0.21430305 -0.0029692121
000170 ff 11 87 bd 30 72 4b be a6 69 26 bc 96 24 8e be
       -0.06595229 -0.19867778 -0.0101570245 -0.27762288
000180 e5 b7 d4 bd 50 96 33 be 37 91 10 be e9 86 99 3c
       -0.103866376 -0.17537808 -0.14117895 0.018741088
000190 a2 ad 3c 3d 91 be 99 be b9 43 de bd 98 8f 8d be
       0.046064027 -0.30028203 -0.10852761 -0.27648616
0001a0 75 1c de 3d f3 9b 0d 3e 62 bb 0f 3d 2d 1e cf bd
       0.108452715 0.13829021 0.03509081 -0.101131774
0001b0 10 78 ae bd 77 5f 0d bc 80 96 82 bb 95 8b 19 3e
       -0.08518994 -0.008628718 -0.003985226 0.14994653
0001c0 1e 0e bb bd 92 0b 75 bd 1c 33 12 bc ba 0b 30 be
       -0.09133552 -0.059825487 -0.008923318 -0.17191973
0001d0 43 da 8f bd c8 6d 14 3e 7c 82 bc 3b d0 fb 34 3d
       -0.07024052 0.14495003 0.0057528596 0.04418546
0001e0 7b 98 57 3d 9e a3 74 bc 43 3e 9c 3d 18 d6 5c 3e
       0.05263565 -0.0149315875 0.07629063 0.21566045
0001f0 54 76 02 3e 5c 5a 80 3d 13 23 88 bc f5 66 c0 bc
       0.12740451 0.06267235 -0.016618287 -0.023486594
000200 2c 2a bd bd f8 23 65 3d 50 23 96 bd 80 6b f4 3d
       -0.09236559 0.055942506 -0.07330954 0.119345665
000210 21 85 30 3e b7 09 ca 3d cc 0b d2 bd 7b 4f 1e bd
       0.17238285 0.09865134 -0.10256156 -0.038650017
000220 91 0f 0c 3c 10 66 34 bd 57 5c 0c be 3b 6e 19 3e
       0.008548633 -0.044042647 -0.137071 0.14983456
000230 a5 df 28 3e d5 09 d1 bd b3 3a 14 3e f2 68 1b 3e
       0.16491564 -0.102069534 0.14475517 0.15176752
000240 8f 59 8b 3e ef 03 d1 3c ef 6a 9a bd 0a a8 e9 bd
       0.27216765 0.025514571 -0.07539927 -0.11409004
000250 ad b6 28 be 74 78 17 be dc 14 09 3d b3 f1 31 be
       -0.16475935 -0.14792043 0.03346716 -0.17377357
000260 58 75 09 3e 9f 97 f1 bd e5 56 35 bd 2f 3b 79 3d
       0.1342367 -0.117964976 -0.044272322 0.060847457
000270 0e 3b 83 3e cb c5 f5 3d 40 86 86 be b4 f4 61 bd
       0.25630993 0.12000617 -0.262743 -0.055165008
000280 fd 2a ba 3c a1 36 e6 bd 24 66 09 3e e1 8e ab 3d
       0.022725577 -0.112408884 0.1341787 0.08376861
000290 81 4e f4 3d 66 dd 44 be 38 1c 12 be 39 6f 85 3d
       0.11929036 -0.19225082 -0.14268577 0.06515355
0002a0 90 02 f0 bc 7b 8b cb 3d 87 da 5e bd 6f 44 3a bd
       -0.029298097 0.09938713 -0.054407623 -0.04547542
0002b0 ad db 2d be d3 98 27 3e 26 17 63 be d8 1f 53 3d
       -0.16978331 0.16366892 -0.22176799 0.05154404
0002c0 33 40 4f be e6 22 c0 3d 28 97 56 bd f7 1c 95 bd
       -0.20239334 0.09381656 -0.052390248 -0.07280915
0002d0 8f 85 8c 3c 3e d6 9b bc 8e 79 38 bd 66 12 0b 3d
       0.01715353 -0.019023057 -0.0450378 0.033953093
0002e0 d5 b4 be 3d 0b 86 9b 3d 1f 6d f2 3d 04 7f 17 3e
       0.09311835 0.07593926 0.118372194 0.14794546
0002f0 43 ef 47 be aa 81 bb 3d bc a2 f3 bc 27 b9 e5 bd
       -0.19524865 0.09155591 -0.029740684 -0.11216956
000300 dc 0d b3 3d 1f e2 ad 3d 1b 47 2c 3e 6f 57 39 3d
       0.08742878 0.08490395 0.16824 0.0452494
000310 46 1c 02 3e c4 14 84 3c bb be b5 3d b7 c3 27 be
       0.12706098 0.016123183 0.088742696 -0.16383253
000320 1c ed 92 be 2b 19 3c 3e aa 71 0f be 3f 80 28 3e
       -0.28696525 0.18368976 -0.14008203 0.16455172
000330 af 10 68 3d ea c4 93 3e a4 82 5d 3e f5 72 05 3e
       0.056656536 0.2886117 0.21631867 0.13032134
000340 39 b9 3a 3d 0b f4 77 3e ef a8 e3 3c 6b d0 88 bd
       0.0455868 0.24214189 0.027790515 -0.066803776
000350 7b 51 65 3e b6 4e 12 be 73 37 57 3e 99 ab 67 be
       0.22394364 -0.14287838 0.21017246 -0.22624053
000360 3d 68 53 3d 91 13 ac be 85 c9 b4 3d d3 96 ab bd
       0.05161308 -0.33608678 0.08827499 -0.08378377
000370 71 22 09 3e 24 29 1d 3e 80 b5 92 3d 4f be bb be
       0.13392045 0.15347725 0.07163525 -0.3666863
000380 13 9c 51 3d e4 21 1e 3d d1 f1 0a 3d 89 2a 0c 3d
       0.051174235 0.03860654 0.03392202 0.034220252
000390 0d 5e db 3d 4b b9 2b be 18 88 63 bd db 19 79 be
       0.10711298 -0.16769902 -0.05554971 -0.2432627
0003a0 09 c6 0c 3e 2d 73 e1 bc 7d b4 8d 3d 74 03 65 be
       0.1374742 -0.02752074 0.06919191 -0.22364599
0003b0 fb ff d7 3d 7d 14 be bd a7 e3 6a bc e3 19 be bd
       0.10546871 -0.092812516 -0.014336503 -0.09282281
0003c0 ca 6b 31 bd 5e 15 a3 3d 2a 01 37 be a1 a5 5c bd
       -0.043315686 0.0796306 -0.17871538 -0.053868894
0003d0 0b aa 16 3c b3 c0 05 be b4 3f ce bd 73 71 08 3d
       0.009195815 -0.1306179 -0.10070744 0.03331132
0003e0 a7 55 4e 3d 0b a0 47 3e de 19 a3 3d 7f 62 85 3e
       0.050374653 0.19494645 0.07963918 0.2605171
0003f0 3d de c5 bd 11 cf 05 be 10 df 1d be 44 3d ac 3c
       -0.09661529 -0.13067271 -0.15417123 0.021025307

lstm.bias_ih_l0 f4 [128]
000000 fb ef 3f 3e f6 30 de 3d a6 02 a3 3d 3f f5 eb bc
       0.18743889 0.10849182 0.079594895 -0.028803466
000010 f0 16 a8 bd 43 0d 48 3e 49 6e 03 be 92 a1 ae 3d
       -0.082075 0.19536309 -0.12835039 0.08526911
000020 13 7e 55 3e 7d 63 14 3e ea e4 df bd c8 f4 67 be
       0.20848875 0.14491077 -0.10932334 -0.2265197
000030 4c 3a 82 3e fb 8f 41 bd ff 67 20 3e d4 30 cc bd
       0.25435102 -0.04725645 0.15664671 -0.09970251
000040 40 b4 8e bd ae 2a c9 bc 22 d2 82 3d c5 3d ef 3d
       -0.06967974 -0.024556484 0.06387736 0.116817035
000050 4f 32 c2 bd ed 57 f4 bd c2 6a 3e 3c ad ed 3d bd
       -0.09482252 -0.11930833 0.011622133 -0.046369243
000060 01 ee 83 3e 41 ce 1f 3d 80 bf ab bb 60 13 ff 3d
       0.2576752 0.03901506 -0.0052413344 0.12454867
000070 02 28 87 bd 03 9f b4 bd ea 19 03 3d da 9f 1c be
       -0.06599428 -0.088193916 0.032007135 -0.15295354
000080 65 0b 22 bd 60 bd ec 3d b4 5b 30 be b5 21 fe bd
       -0.039561648 0.11559558 -0.17222482 -0.12408773
000090 1b eb ad 3d 6e 0b 99 bb 55 51 ee bd 8c 64 05 be
       0.084921084 -0.004670552 -0.116366066 -0.13026637
0000a0 34 4c e2 3d 0c 28 dc bd 30 23 1a 3e ad 6f 0a bd
       0.11049691 -0.10749826 0.15052485 -0.03379791
0000b0 74 2b e0 3c 27 14 7b be 52 db d3 bd f0 6f a0 be
       0.02736447 -0.24519406 -0.103445664 -0.31335402
0000c0 31 cc 27 bd f6 b5 67 bc 02 4b bf 3d b5 41 e7 bd
       -0.040966216 -0.014142504 0.093404785 -0.112918295
0000d0 4f 14 57 3c c8 31 a9 bd 6d 67 1f 3e a6 37 7b bd
       0.013127401 -0.08261448 0.15566798 -0.061332367
0000e0 3b 69 2f 3e 6d e5 d5 3c c1 bb 2a be 31 67 1b bd
       0.17129986 0.026110375 -0.16673185 -0.037940208
0000f0 32 2e bc 3c 90 a9 2f be 7e ff 76 be 98 2f 6e be
       0.022971246 -0.17154527 -0.241209 -0.23260343
000100 42 86 07 be aa 18 9d bb cd ac ee bd 33 4b c3 3d
       -0.13234809 -0.0047942 -0.11654053 0.095358275
000110 0a 1b e4 3d 1a c6 84 bd 27 1c 95 bc f2 68 dc bd
       0.1113797 -0.064830974 -0.0182019 -0.10762204
000120 f4 bf 50 3d 24 07 22 bd 48 18 39 3d 35 a1 4e 3c
       0.05096431 -0.03955759 0.045189172 0.012611677
000130 f1 ae f1 bd 68 10 9d 3d c0 f5 16 be ec d1 ae 3d
       -0.118009456 0.07669145 -0.14742184 0.08536133
000140 5e fd 62 3c 9b 55 70 bd 87 63 38 be 7c 10 d6 bd
       0.013854353 -0.05867539 -0.18006717 -0.10452363
000150 3d c8 87 bd 57 ad cc bc 35 d8 c4 bd 8e e1 de 3c
       -0.06629989 -0.024984999 -0.09611551 0.027207162
000160 43 d2 07 3d 29 0a c7 bd 13 06 ca 3c 43 0f 2d bd
       0.033159506 -0.09718735 0.0246611 -0.042250883
000170 91 c9 04 be da 30 11 3e 37 94 70 3b 7a a0 a1 bc
       -0.12967516 0.14178792 0.0036709437 -0.019729842
000180 df 6a 06 bd 21 cc ca bd 50 71 02 be d4 88 0c bd
       -0.032816764 -0.09902216 -0.12738538 -0.034310177
000190 fd cd e3 bc 6b 41 6c bd 27 e4 06 3e 4a 0f 99 bc
       -0.027808184 -0.057679575 0.1317297 -0.018684048
0001a0 35 9d ce 3d 2b a8 f2 bd a7 b1 1b 3e 21 ff 8b 3d
       0.100885786 -0.11848482 0.15204488 0.06835771
0001b0 a6 db 93 bd cc 57 67 3d 56 ab 41 3e 89 db 59 3d
       -0.07219629 0.056480214 0.18913016 0.05318788
0001c0 65 d5 d7 bc 47 83 01 3e e6 1e 16 3d ee 08 1a 3e
       -0.026346872 0.12647735 0.03665056 0.15042469
0001d0 33 39 26 3c 92 f9 0f be 1e d0 eb 3d 6b ab f2 3c
       0.010145473 -0.14060047 0.115143046 0.029622754
0001e0 ef 42 87 3d 77 3a df bd 16 70 24 be df 65 08 3d
       0.066045634 -0.10899823 -0.16058382 0.033300277
0001f0 da 0a c9 bc bf 20 4c bd 0f 26 e6 3d 26 f1 47 be
       -0.024541307 -0.049835917 0.11237728 -0.19525585

lstm.bias_hh_l0 f4 [128]
000000 61 b4 17 bd bf e8 13 3e 16 f8 c9 bd a7 95 95 3d
       -0.037037257 0.14444254 -0.09861772 0.073039345
000010 32 b2 02 be fe 39 8f bc 20 ae 36 bd 28 96 e8 bb
       -0.12763289 -0.017483708 -0.044599652 -0.007097978
000020 4e 80 51 3e b4 82 ed bd cc 36 d4 bc af de a1 3d
       0.204591 -0.11597195 -0.025905035 0.07903802
000030 b5 28 5b 3e 26 b3 13 be 09 1f 05 3d 2d 9c 66 bd
       0.21402247 -0.14423808 0.0325003 -0.056301285
000040 ff cc 54 3d c3 a8 41 3e 1c d6 0f bd de 4b cc bc
       0.051953312 0.18912034 -0.0351163 -0.02493852
000050 7e 71 4b 3d 97 d5 3a ba c9 02 f7 3b 04 c1 0c 3e
       0.04966878 -0.0007127164 0.007538174 0.13745505
000060 72 00 f1 3d 5d d5 e7 3c a6 90 2d be f4 ed c1 3d
       0.11767663 0.028299982 -0.1694971 0.09469214
000070 4d 4a 74 3e 32 c4 e5 bc db 7a 24 3e a8 1d 4a 3c
       0.23856468 -0.028047655 0.1606249 0.012336172
000080 4c b5 a1 3d 4d cd 0b 3e 6b 3a 7f bd 87 82 75 3a
       0.07895908 0.13652535 -0.06231157 0.00093654584
000090 af 9d c3 bd f1 54 66 bd a5 5a 01 bd 23 11 26 be
       -0.0955156 -0.05623335 -0.031580586 -0.16217475
0000a0 de f3 ed bd fc e2 98 3d 72 1e 59 3c fd 21 15 be
       -0.116187796 0.07465169 0.013251888 -0.14563747
0000b0 70 d2 ba 3d 33 34 7f be dd 58 c6 bd 6c 04 9a be
       0.09122169 -0.24922256 -0.09684918 -0.300815
0000c0 e8 00 c2 3d 89 0a df bd db 21 48 be b7 28 81 bd
       0.09472829 -0.10890681 -0.19544165 -0.06306594
0000d0 0d 25 d5 bb b9 ea 7e be 5b 72 fa 3c 66 1a 07 be
       -0.006504661 -0.24894227 0.030572107 -0.13193664
0000e0 29 56 11 3e ce e3 de bd 41 26 ac bd 0f 9f 68 3d
       0.14193024 -0.10883294 -0.08405734 0.056792315
0000f0 82 bb fc ba 24 47 82 3c 8d dc 39 be 8a 0d 3c be
       -0.0019281956 0.015903063 -0.1815054 -0.1836454
000100 a9 c6 04 bd c4 bf 10 be 72 99 84 3d d3 84 cb 3c
       -0.03241602 -0.14135653 0.0647458 0.024843609
000110 de f0 60 3d 36 48 64 be 24 01 04 3e 1c 8a fa 3d
       0.05491721 -0.22293171 0.1289106 0.122333735
000120 a8 18 3d 3d 89 57 97 3d a3 63 ef 3a 22 1f 0a be
       0.046166092 0.07389743 0.0018263947 -0.13488439
000130 f8 fd 05 3e 9c 2b b8 bd 01 d8 9b 3d 48 64 8e bd
       0.13085163 -0.08992693 0.07609559 -0.06952721
000140 18 dc aa bd ec 95 e6 3d 1f ff cf 3d 40 ca ef 3d
       -0.08342761 0.11259064 0.10156082 0.11708498
000150 c3 cf 71 bd e5 a3 64 bd e9 26 49 3c 41 14 1f bd
       -0.059036028 -0.055820365 0.012277343 -0.038837675
000160 92 bb 34 be 76 22 0f 3e ec 53 93 bd bf a1 0b 3e
       -0.17649677 0.1397799 -0.07193741 0.1363592
000170 ae 5a ee bc fe ff dd bc 4e 7b 50 3d 3e d3 37 3d
       -0.029095974 -0.027099606 0.050898843 0.04487919
000180 62 b9 4f 3e c7 02 b1 bd c0 49 72 be 35 1a 34 3d
       0.20285562 -0.08643108 -0.23660946 0.043970305
000190 9a 65 f4 3d bd 6d a0 bc e2 14 59 3c f5 1c 6f 3e
       0.119334415 -0.019583577 0.013249608 0.2335089
0001a0 00 3d ef 3d af 88 fe bd 9c 00 cc bd 96 ae 5f 39
       0.11681557 -0.12428414 -0.09961054 0.00021331976
0001b0 40 e1 89 3e 62 41 db 3d e7 9c 01 3e 0c 11 5d be
       0.26929665 0.1070583 0.1265751 -0.21588534
0001c0 b6 25 23 bd 57 b4 51 bd 5f 56 20 3e df c6 37 3e
       -0.039830886 -0.051197376 0.15657948 0.17946957
0001d0 ab c2 02 bd 79 21 90 bd b4 a8 9d 3e 4f fe 41 3d
       -0.03192393 -0.070376344 0.30792773 0.04736167
0001e0 02 e1 b9 bc a1 22 9c 3d 5b 22 d6 b9 82 fe 23 3e
       -0.0226903 0.076237924 -0.00040842858 0.16015056
0001f0 7a c6 a6 bd b4 eb 44 3c 41 50 8c 3d b5 24 c0 bd
       -0.08143325 0.012019087 0.06851245 -0.09382001

lstm.weight_ih_l1 f4 [128, 32]
000000 f7 56 49 3c 1a 9d 03 3e 45 f9 e4 3d b5 9a eb 3c
       0.0122888 0.12852898 0.11180357 0.028760293
000010 20 79 e6 bd 03 74 85 bd ab 85 33 3e a2 b5 ad bd
       -0.112535715 -0.06516268 0.17531459 -0.08481909
000020 70 e9 3d be 6a 03 3b bd c9 28 33 be 6d a2 4f 3e
       -0.1854608 -0.045657553 -0.17496027 0.20276804
000030 63 e3 30 bd 6b c7 48 3d 85 3b 52 3e db d9 ed bd
       -0.043185603 0.049018305 0.20530517 -0.11613818
000040 fc 80 7d 3e 4c c8 81 3e 25 b6 59 be c0 9c 58 be
       0.24756235 0.25348127 -0.21260889 -0.21153545
000050 05 a0 1b 3d 4e 96 46 3d 09 81 12 3e 91 7a 41 be
       0.037994403 0.048483185 0.14307036 -0.18894412
000060 75 98 79 3e ac da 50 bd bf b9 f0 3d a3 9c 7d 3d
       0.24374564 -0.05098979 0.11754178 0.06191696
000070 54 7a 6e 3e dd d3 4b 3e 94 8e 13 be b6 0f 21 3d
       0.23288852 0.19905038 -0.14409858 0.039321624
000080 ac 04 30 3e 6b 27 18 bc 18 e8 09 3e 56 d7 eb 3d
       0.17189282 -0.009286742 0.13467443 0.115156814
000090 87 f8 a1 3d be 2e aa bd cc 23 51 3e f6 13 2e be
       0.07908731 -0.083096966 0.20423812 -0.16999802
0000a0 e6 6e 98 3d f0 ad 57 3e 10 cc fa 3d 6d 8f a8 3d
       0.07443027 0.21062446 0.12245953 0.08230481
0000b0 ac 8e c2 3d e2 22 66 3d 7f 6f 25 3e 2b 5c 74 bd
       0.09499869 0.05618561 0.16155814 -0.05965821
0000c0 6d 6f 9a bd f1 42 35 3e 67 33 46 be 8f 5a bf bd
       -0.07540784 0.17701317 -0.19355546 -0.093434446
0000d0 c9 69 fb bd 5c 2b 8a bd a3 a3 7b bc 4c c3 69 be
       -0.12276036 -0.067465514 -0.015358838 -0.22828406
0000e0 09 00 b8 bc 5d e4 8c 3d 8b c5 ef 3d 71 e3 fd 3d
       -0.022460954 0.06879494 0.117076 0.12396897
0000f0 fc c3 ab 3d 71 57 9e bd c5 91 6f bd 75 56 17 bd
       0.083869904 -0.07731522 -0.058488626 -0.036947686
000100 84 c8 77 ba 9b 74 3a be 59 92 34 3e f0 b0 63 be
       -0.00094521814 -0.18208544 0.17633952 -0.22235465
000110 99 e2 b1 3c 11 19 84 3d 32 33 e0 3c ab c2 6e 3e
       0.021714495 0.064500935 0.027368162 0.23316447
000120 00 51 e4 3d 8a 01 6a bd f9 fa 91 3d e7 65 02 be
       0.11148262 -0.057130374 0.07127947 -0.12734185
000130 65 a7 99 bd 05 5a 35 bd ea 4c 4b be 44 08 16 be
       -0.07502631 -0.044275302 -0.19853559 -0.1465159
000140 f5 e6 8f 3c ce b0 51 be 0c 14 f0 3c 95 c3 57 3d
       0.017566184 -0.20477602 0.029306434 0.052676756
000150 a6 b2 5f bc e0 1e fd 39 35 da 12 be f5 cd 42 3e
       -0.013653433 0.00048278924 -0.14341052 0.19023879
000160 32 f0 82 be 78 8f 61 3e 66 3e a2 3d 59 2e 1d 3d
       -0.2557388 0.22027385 0.07922058 0.03837428
000170 b2 b7 89 be 01 c2 1c bd bd da 3f 3e 25 3d 88 bd
       -0.2689796 -0.038270954 0.18735786 -0.066522874
000180 34 31 af 3d 8b d1 32 3e 69 f7 1d 3e cf a1 f5 bd
       0.085543066 0.17462747 0.1542641 -0.11993753
000190 f8 87 f7 3c 7e 3d e4 bd 22 ec 3f 3b 9e 29 d3 bc
       0.030216202 -0.11144541 0.0029285033 -0.02577668
0001a0 4c b5 80 bd 1c a3 e0 3d 6c d3 1b be 20 a8 6a 3e
       -0.0628458 0.10968611 -0.1521737 0.22915697
0001b0 22 e6 8a bd 7b d0 bc bd 41 5e 2c 3e 6d ec b3 bc
       -0.067821756 -0.09219452 0.1683283 -0.021963323
0001c0 a5 04 04 3e cf cd f9 3d 9a 0c a6 3c 6c a8 7e bd
       0.12892397 0.12197458 0.02026968 -0.06217234
0001d0 b6 87 e0 bd 30 fe 22 be d5 85 a0 bd 91 de a9 3d
       -0.10963385 -0.15917277 -0.078380264 0.08294404
0001e0 71 36 7e 3d d1 97 8d 3d 5f 99 35 bd de 59 a8 bd
       0.062063638 0.06913722 -0.04433572 -0.08220266
0001f0 52 ae 06 bd cd f9 fe bd 1e 49 50 3e 53 ac 18 bd
       -0.03288109 -0.124499895 0.20340392 -0.037273716
000200 65 8f 9e bd 57 e9 0e 3e c2 75 ef 3c 69 a1 9b 3e
       -0.07742194 0.139562 0.029230956 0.30396584
000210 94 a8 15 3e 8a e9 7b be e4 e1 5b 3e 63 6b b5 be
       0.14615089 -0.24600807 0.21472889 -0.35433492
000220 6a 26 5f be a3 28 99 3d ba 4f 25 be c7 62 a0 3d
       -0.21791998 0.07478454 -0.16143695 0.0783134
000230 cd de 68 3e fc 14 23 3d 59 be 53 bd e0 87 b5 bd
       0.22741242 0.039814934 -0.0516952 -0.08863807
000240 08 43 0f bd 9d 18 18 3e a0 b7 92 be 6b 10 5c be
       -0.034976035 0.14853139 -0.2865572 -0.21490638
000250 ac c9 2b 3d 1f c3 c8 3b af 2a 91 bd ec b5 36 be
       0.041940376 0.006126776 -0.070882194 -0.17842835
000260 55 20 15 3e bf ef a2 bd a0 ef 1a 3c 04 eb 17 3d
       0.14563115 -0.07955884 0.009456545 0.037089363
000270 75 cd fc bc fd 56 42 bd 2f 7e 3c be d0 b2 3c be
       -0.030859688 -0.04744624 -0.1840751 -0.18427587
000280 33 ec a7 bd c5 20 97 bc d1 b9 5a 3d 69 05 20 3d
       -0.08199348 -0.018448243 0.053399865 0.03906766
000290 2d 90 49 be 0c 3a 45 3e 06 f5 86 bc 3f 7b a6 3d
       -0.19683905 0.19260424 -0.016474258 0.08128976
0002a0 14 f6 7d 3e 52 ad ff bc b6 66 4a 3e b8 2a ab 3d
       0.24800903 -0.031210575 0.19765744 0.08357757
0002b0 36 53 1b 3c 98 be 70 bd db c5 8b be df 66 2e be
       0.009480288 -0.058775514 -0.2729939 -0.1703143
0002c0 05 82 4d be 11 4d 6f be dc 1d 86 3e 52 20 e2 bc
       -0.2006913 -0.23369242 0.26194656 -0.027603302
0002d0 e0 41 57 3d 44 97 db bd 4e 99 fb bd 0d ec 55 3e
       0.052553058 -0.10722211 -0.122851 0.20890827
0002e0 0e 43 18 be f0 f7 bd bd 42 08 a2 bd 76 e9 2a bc
       -0.1486933 -0.09275806 -0.07911731 -0.010431638
0002f0 f5 42 63 be 11 14 41 3d 62 44 19 3d 1c d9 89 3d
       -0.22193511 0.047138277 0.03741873 0.067308635
000300 58 fd 43 bd 5d d7 dd 3d e9 98 18 3e 0e d8 7a be
       -0.04784903 0.10832093 0.1490208 -0.24496481
000310 90 48 10 be 26 7f e2 3d 41 41 01 3e 51 b8 87 3d
       -0.1409018 0.11059408 0.12622549 0.066269524
000320 fc c0 b5 bd e2 3e e2 3d 70 dc 84 3c f1 43 ce 3d
       -0.088746995 0.1104715 0.016218394 0.100715525
000330 27 0c 57 3d 89 c7 dd 3b 0f 7f ac 3d 2e c3 87 3d
       0.052501824 0.006768171 0.08422672 0.066290244
000340 5b ce b5 3d 45 f4 ab bd ef 84 53 3e c8 01 5e bd
       0.0887725 -0.083962 0.20656179 -0.054200917
000350 7b 1d e4 3d 57 f8 a8 bd 84 7c 43 bd 53 d9 88 3e
       0.111384355 -0.08250492 -0.04772617 0.26728305
000360 a0 26 5e 3e 54 69 6a 3c 57 34 70 3e ba d0 be bd
       0.21694422 0.014307339 0.23457466 -0.09317155
000370 93 e0 b5 3d b3 f7 38 be aa 5c 58 3e ff 55 8e be
       0.08880725 -0.1806324 0.21129099 -0.27799985
000380 da 79 08 3e b2 35 ec 3d 59 1c 46 bd 41 98 e0 3d
       0.13327733 0.11533679 -0.04836688 0.1096654
000390 64 03 4d bd e3 36 64 be 98 80 86 3e 77 d5 90 bd
       -0.05005206 -0.22286563 0.26269984 -0.07071965
0003a0 95 ed c1 be 2c e0 74 3e c2 47 17 be 70 5b b3 3c
       -0.37876573 0.2391364 -0.14773467 0.021894187
0003b0 10 12 f0 3d 33 db 9f 3d 4b d4 8f 3e 91 4a 49 be
       0.11722195 0.07805481 0.28091654 -0.19657351
0003c0 4a 4e d7 3d 6c 0b 18 3e ac a0 17 be 46 96 a9 ba
       0.10512979 0.14848107 -0.14807385 -0.0012938462
0003d0 8e 98 09 3e e8 15 08 be da c0 d0 3e 74 a2 44 bd
       0.13437101 -0.13289607 0.40772134 -0.04800649
0003e0 53 0e 87 ba e8 ea 19 be 9e a1 00 3e 29 2b b5 3d
       -0.0010303952 -0.15031016 0.12561652 0.08846123
0003f0 4f 72 9d 3e 65 28 11 3d 76 15 8c be 4d 39 f0 bd
       0.30751273 0.035438914 -0.27360123 -0.11729679

lstm.weight_hh_l1 f4 [128, 32]
000000 2b e8 34 be 85 60 01 bc dd bd 19 3e a7 91 15 bd
       -0.1766669 -0.007896547 0.15013833 -0.036515858
000010 c1 ca cb 3d 5b 0e a2 bc bb 33 37 bd 51 41 5a be
       0.099507816 -0.019782236 -0.04472707 -0.21313979
000020 e3 b8 b3 bd 85 9d 13 be 50 64 1c bd 11 42 80 bd
       -0.08775499 -0.14415558 -0.038181603 -0.06262601
000030 09 b7 21 be 0b d9 4d be 7b ce 74 3c 74 3a ce bc
       -0.15792479 -0.20102327 0.014941807 -0.025174357
000040 eb 20 95 bd 26 96 3d be b2 6f 14 be 5a 13 e1 bd
       -0.07281669 -0.18514308 -0.14495733 -0.10990019
000050 77 1a b9 bc e5 9b 6c 3d eb f7 4c 3e b1 bb d5 3d
       -0.022595627 0.05776586 0.20016448 0.1043619
000060 60 9e 29 be 19 61 ce bd f0 f9 03 3e 90 39 3d bd
       -0.16564322 -0.10077114 0.12888312 -0.046197474
000070 73 c4 67 be da ac 4f 3d 72 b3 23 bd 9c cc ca 3d
       -0.22633533 0.050701953 -0.039966054 0.099023074
000080 51 a1 04 3e 51 00 d9 bd 1d 24 25 3d a3 5d 21 be
       0.12952162 -0.105957635 0.040317643 -0.15758376
000090 35 7f 63 3d 12 8b 33 3e 43 91 16 3e 25 79 38 be
       0.055541236 0.1753352 0.1470385 -0.18014963
0000a0 bd 53 4a bc 78 4c b2 3c f8 e9 1d be db 77 fe 3d
       -0.012349066 0.021764979 -0.15421283 0.12425204
0000b0 b5 15 a5 bd 44 55 90 bd 0b dc d5 3d 2e c9 e2 bc
       -0.08060781 -0.07047513 0.104423605 -0.02768382
0000c0 10 ce 30 be 90 1b 14 be 8e 63 8e bd 19 27 a0 3c
       -0.17266107 -0.1446364 -0.06952582 0.019549893
0000d0 36 98 56 bd 20 cf 12 3e d7 97 c1 bd a8 1c 16 3e
       -0.052391253 0.14336824 -0.09452789 0.14659369
0000e0 21 2a 07 bd 82 43 0c 3d 35 ca 8a 3d e9 40 a6 bd
       -0.03299916 0.034244068 0.06776849 -0.081178494
0000f0 0f 32 0c 3e 30 1c 15 be a6 07 54 bd 22 15 d4 bd
       0.13690971 -0.14561534 -0.051765107 -0.10355593
000100 39 cb 52 bd 9a a3 1f be 16 bd 0b 3e a5 ef 34 bd
       -0.05146334 -0.15589753 0.1364635 -0.044173855
000110 65 28 c9 bc 8c a5 e6 bc 24 69 03 be fc 1c 60 3d
       -0.024555394 -0.02815511 -0.12833077 0.05471514
000120 80 4c 35 3e b2 14 bc bd d1 50 18 be 24 ca cc bc
       0.17704964 -0.09183635 -0.14874579 -0.024998732
000130 ba c3 97 bc d5 a5 84 3d 0d d1 1b 3e 8a 51 92 bc
       -0.018525947 0.064769424 0.15216465 -0.017861146
000140 34 d9 3f 3d 6a 70 0a 3d e1 92 65 3e dd 88 c8 3d
       0.046838 0.033798613 0.22419311 0.097917296
000150 a0 c6 07 3e 31 70 67 bc a6 8c 0f 3e ed b6 00 be
       0.13259363 -0.01412587 0.14018497 -0.1256978
000160 f4 6c a4 bd 52 90 11 be 80 5c 2b be 87 b8 a2 3d
       -0.08028594 -0.1421521 -0.16734505 0.07945352
000170 21 2f 07 be d3 14 f9 3d 8b fd 04 bd 5b 92 ad bc
       -0.13201572 0.12162175 -0.03246836 -0.021187952
000180 e0 e7 5e bc 28 20 02 3d 8c 92 cf 3c af 44 17 be
       -0.013605088 0.031768948 0.025338434 -0.14772294
000190 3d c1 f6 bc 03 33 ad 3b e6 0a c0 3d 13 ff 9b be
       -0.03012144 0.005285622 0.09377079 -0.30468044
0001a0 c5 0d 3d 3e 90 71 22 3e a7 fd 05 3e 51 07 86 3c
       0.18462284 0.15863633 0.13085042 0.01636091
0001b0 c5 5a 12 3d c9 cf 3a 3d 68 57 94 3c a9 19 4e 3e
       0.035731096 0.045608316 0.018108085 0.20126976
0001c0 9e ca 17 be 22 a5 93 3d d4 2a ea bd 01 14 d0 bd
       -0.14823386 0.07209231 -0.1143395 -0.101600654
0001d0 65 ec 86 bd 0a 89 82 3e 06 5d 99 bd fd 82 35 be
       -0.065880574 0.25495178 -0.07488446 -0.1772575
0001e0 7c 8b d0 3d d4 6c d6 bd 65 84 1c 3e dc 33 73 3d
       0.101828545 -0.10469976 0.1528488 0.05937563
0001f0 f7 72 f0 bd 35 5b e5 3d 61 6a 46 3d fd 6b 44 be
       -0.11740678 0.11199037 0.048441295 -0.1918182
000200 aa 12 11 3e e7 ea 02 3e 8e c1 2c be 37 38 24 3e
       0.14167276 0.1278492 -0.1687071 0.1603707
000210 a0 b5 9a 3d 8c 9c 24 bd c2 5c 5f 3e 72 dc 74 be
       0.075541735 -0.040188357 0.21812728 -0.23912218
000220 be 7f 64 3d 57 95 52 3e aa 39 7c bc 21 48 99 bd
       0.055785887 0.20564781 -0.015394608 -0.074844606
000230 5f 0f 1f be 1a a0 48 3e a4 6a 29 be 3b 82 26 3e
       -0.15533207 0.19592324 -0.16544586 0.16260616
000240 51 e0 19 3e 92 4b 57 bd b7 8a 07 3d ca 06 ff bd
       0.15026976 -0.052562304 0.033091273 -0.12452467
000250 5a 01 21 bd 87 c0 f8 3c 93 79 87 bd 68 33 32 3e
       -0.03930793 0.030365242 -0.06614985 0.17402422
000260 23 7c e9 3d 20 ae 8a 3b 6d a8 ba 3c 16 e4 b2 bc
       0.1140063 0.004232183 0.02278539 -0.021837275
000270 5e 64 d3 bd df 24 21 3e 99 8b a5 bd 28 8f 12 be
       -0.10321878 0.15736721 -0.08083267 -0.14312422
000280 81 b8 19 bd 34 ff 30 bd 41 22 d2 3c a7 7d fd bd
       -0.037529472 -0.04321213 0.0256511 -0.12377482
000290 ed 48 58 bc ec 1a e0 bd 60 02 34 be c6 ef 03 3b
       -0.013200981 -0.10942635 -0.17579031 0.002013193
0002a0 9b 7c ae 3d 50 31 87 3d 22 2a f0 3d 86 42 72 bd
       0.0851986 0.066012025 0.11726786 -0.059145473
0002b0 31 91 9a 3d 58 7f 14 3d 11 49 a0 bd c5 14 cc bb
       0.07547224 0.036254257 -0.07826436 -0.006228062
0002c0 ae 8f c3 3c 64 0a 24 3e d9 8e 83 3e b0 9f 14 3e
       0.023872223 0.16019589 0.25694922 0.14514041
0002d0 19 84 2c 3d 6d 41 15 3d fd a6 ee 3d 16 89 00 be
       0.042118166 0.036439348 0.11652944 -0.12552294
0002e0 dc 73 be bc f7 bc 39 3e a4 39 21 bd 64 43 19 be
       -0.023248605 0.1813849 -0.03936161 -0.14967114
0002f0 69 af f8 bc 2a a2 c5 bd 05 ad 10 be ae ed 46 3e
       -0.03035708 -0.09650071 -0.14128502 0.19426605
000300 44 b4 12 be eb 09 77 be 7c 62 29 bd 22 27 02 3e
       -0.14326578 -0.24124877 -0.041353688 0.1271024
000310 5b a4 84 3e 81 04 1f 3d 61 49 0f bd 44 20 8a 3d
       0.25906643 0.038822655 -0.03498209 0.067444354
000320 b7 db 39 bd ea 45 57 bd 95 c7 cc bd ab b7 8c 3d
       -0.045375552 -0.05255691 -0.09999005 0.068709694
000330 e0 d9 b3 bb fc 5e ae 3d 6a 14 3c be 9c 40 58 bd
       -0.005488619 0.085142106 -0.18367162 -0.05279599
000340 4a 86 5d bc 6f ab bf 3c b8 80 e9 bd 8f 97 22 3e
       -0.013520787 0.023397176 -0.11401504 0.15878128
000350 3a dc 9a be 32 41 ac 3d 7e 23 9c 3e 54 ec b9 3d
       -0.30246145 0.084108725 0.30495828 0.09078279
000360 89 54 07 be 8d 84 82 be e1 ed 4a 3e e3 81 43 3c
       -0.13215841 -0.25491753 0.19817306 0.011932823
000370 4b 85 42 3d 9a 81 82 3e 7e 4d a4 bd 83 e0 ff bd
       0.0474904 0.25489503 -0.08022593 -0.12493994
000380 28 5a 60 bd cb c9 28 bd 0f 55 af bd da 20 82 bd
       -0.05477348 -0.04120807 -0.085611455 -0.06353922
000390 4d e8 61 be d5 cc 1a 3e 07 ff 97 3d 55 34 08 be
       -0.22061272 0.151172 0.074216895 -0.13301213
0003a0 8b 97 84 3d 01 af 17 be b2 c5 a4 3d 4c 9a 6a 3d
       0.06474217 -0.14812852 0.0804552 0.057276055
0003b0 06 f9 f9 bd 68 08 d8 3d 6a ce e4 3d cf de f3 3d
       -0.122057006 0.10548478 0.11172183 0.11907732
0003c0 e2 ff 9d bd 59 d1 08 3d 92 2d 17 3e 34 6f b8 3d
       -0.077148214 0.033402774 0.14763477 0.09005585
0003d0 98 d7 f3 3d 2d bf 9b bd e9 90 70 bc 1f 4e dc bd
       0.119063556 -0.07604823 -0.014682987 -0.10757088
0003e0 d4 1b 69 3c d3 36 74 3d ae 34 1b 3e f4 5a ae 3d
       0.014227826 0.059622597 0.15156814 0.08513442
0003f0 3c 76 80 3e 31 c7 45 3e a8 02 06 3d e2 ba 9f bd
       0.25090206 0.19314267 0.032717377 -0.07799317

lstm.bias_ih_l1 f4 [128]
000000 c1 6c 6e be 63 d3 4f 3d 15 ae 17 3d 5a 55 df bd
       -0.23283674 0.050738703 0.037031252 -0.109049514
000010 fd 51 0f 3e 14 c6 6c bd 91 52 63 be ad 60 ed 3d
       0.1399612 -0.05780609 -0.22199465 0.11590705
000020 06 5f 21 3e 96 e7 41 bd a5 ee 80 39 90 57 38 bd
       0.15758905 -0.04734 0.00024591867 -0.04500538
000030 33 b1 34 bd ff 9e a9 bd 26 70 85 3d a8 0e 96 be
       -0.044114303 -0.08282279 0.06515531 -0.29308057
000040 7c 8c 03 3e 8b e4 2e bd 0b f0 56 3e f2 e6 c8 3c
       0.1284656 -0.042698424 0.20990007 0.024524186
000050 84 2b 34 bb cb af 44 be cc 0e 93 3d 0b 3d f0 bd
       -0.0027491758 -0.19207685 0.07180557 -0.11730393
000060 8d 73 08 bd ce f5 06 3e d9 d3 57 3e 33 7e 85 bb
       -0.033313323 0.13179705 0.21076907 -0.004073882
000070 45 c6 8f 3e 80 03 82 3d ad 14 89 bc 8c 0a e0 bd
       0.28080955 0.06348324 -0.016733492 -0.10939512
000080 75 67 ff bc 34 64 98 3d 81 4c 32 be 07 f4 56 be
       -0.031177262 0.07440987 -0.17411996 -0.20991527
000090 26 49 eb bc 9a 49 81 3d 93 e7 2f be a7 0f fc bd
       -0.028721403 0.063128665 -0.17178182 -0.12307673
0000a0 26 b0 dd bb c7 1f df 3a ca b5 16 3d 10 e9 ad bc
       -0.0067653833 0.001702302 0.03679446 -0.021229297
0000b0 46 6d c0 3c ab 7e a4 bc 1a c3 34 be b6 c4 a0 be
       0.023489606 -0.020079931 -0.1765255 -0.3140008
0000c0 33 35 17 3e 62 d6 24 be 6d 64 96 bd 13 ca 91 3c
       0.14766388 -0.16097406 -0.073433734 0.017796552
0000d0 26 3a 28 be 5c 2a 02 bd c9 4b 87 3d ba 66 8d bd
       -0.16428432 -0.03177868 0.06606252 -0.06904359
0000e0 35 f7 08 be 21 8a 97 bc 28 b1 33 be 82 29 20 be
       -0.13375552 -0.018498482 -0.17548048 -0.15640834
0000f0 64 f4 19 3e 76 79 0d 3e 91 e3 ef bd ec 34 ec bc
       0.15034634 0.13815865 -0.11713327 -0.028833829
000100 45 91 38 3d 40 08 d7 bd 82 ae 0d 3d 81 3b d1 bc
       0.045060415 -0.104996204 0.03459025 -0.025541069
000110 ae 20 e8 bd 74 26 ef bd 33 3b 24 3e f7 62 82 3d
       -0.11334358 -0.11677256 0.16038208 0.06366532
000120 58 38 0e bd 10 d8 2c 3e 74 31 49 bd a3 34 1d 3d
       -0.034721702 0.16879296 -0.049119428 0.038380276
000130 d0 2c a4 bd da 65 ce bd cc bd d6 3d c7 f0 8e bd
       -0.0801636 -0.100780204 0.1048542 -0.069795184
000140 e7 00 10 3e 38 f9 0d 3e 17 52 a6 3d 31 16 a2 3d
       0.14062844 0.138646 0.08121126 0.07914389
000150 b1 31 90 3d 93 79 4c bc 35 b4 24 3d 0e df 76 bd
       0.07040728 -0.012480157 0.04021092 -0.060271315
000160 0a 3d eb 3d 6e 52 fe 3d 15 79 72 3b fc c2 61 bd
       0.11486252 0.12418066 0.003699844 -0.055117592
000170 70 ba c1 3d d0 3d 26 be 19 ad 0d be 14 d4 9e 3d
       0.09459388 -0.16234517 -0.13835563 0.077552944
000180 2e 49 71 bd cf bb 79 3d 7b dc 01 be fc ac 59 3d
       -0.05890768 0.060970124 -0.12681763 0.053143486
000190 fd 9c d0 3d 6f a2 03 3e 5d 13 77 be e2 73 05 b8
       0.10186193 0.12854932 -0.2412848 -3.1817595e-05
0001a0 05 86 89 bd 5f b0 44 3e cf 9e 0e 3e b3 7c 62 3e
       -0.06715015 0.19207905 0.13927768 0.22117881
0001b0 ff fe 2d 3e 52 2e c6 bd f2 7f 54 bd 4d 75 29 be
       0.16991805 -0.09676804 -0.05187983 -0.16548653
0001c0 f3 fa 13 3d 69 bf 01 3e 2d 37 5b 3e 3e b0 4a 3e
       0.036127996 0.12670673 0.21407767 0.19793794
0001d0 7b 8f 21 3d a5 70 72 3c c2 56 ef 3d d9 1a 32 3e
       0.039443474 0.014797364 0.116864696 0.17393054
0001e0 46 f4 35 3d 1e bc 22 3e 8d 89 c1 3d 75 3d 82 3e
       0.04442241 0.15892074 0.09450064 0.25437513
0001f0 c0 13 7f 3e 35 8e 90 bd 7d 4e 07 3e 95 5e ad 3d
       0.24909878 -0.07058374 0.13213535 0.08465306

lstm.bias_hh_l1 f4 [128]
000000 34 a4 de 3b 7a 60 dd bd 06 7c f3 3d a8 de 27 3e
       0.006794477 -0.10809417 0.1188889 0.1639353
000010 c2 56 db 3d 44 5f 74 3d fc 33 3f bc 8e 8f c6 bd
       0.10709907 0.059661165 -0.011670109 -0.0969535
000020 02 1a b6 bd c3 3d 87 3e 98 d8 c4 bd b7 a5 86 bd
       -0.08891679 0.26414308 -0.096116245 -0.06574576
000030 c2 52 e8 bd 1e 40 51 3d 3a 76 36 3c 29 5e b6 bd
       -0.1134391 0.051086538 0.011136586 -0.089046784
000040 ef 3a c9 bb 7d 6a 61 3e 2f 26 37 3d 4a 49 97 bd
       -0.0061410586 0.22013278 0.04471415 -0.07387026
000050 3d 7a 69 be d8 0a ce 3c 62 90 b1 bd 27 b1 0e 3e
       -0.22800536 0.025151655 -0.08670117 0.13934766
000060 ac 04 b6 bd 0c 5c ed bc cd c2 f7 3d f7 59 1a 3e
       -0.0888761 -0.028974555 0.12097702 0.15073381
000070 05 bb 80 3e 0c 5e 1e 3d ae b2 16 bd 4f 02 81 bd
       0.25142685 0.03866391 -0.036791496 -0.062992685
000080 d8 e3 32 bd cc f9 a4 bd 15 6d 46 be 1f 79 5f be
       -0.04367432 -0.080554575 -0.19377549 -0.21823548
000090 25 e9 55 be 01 fb 27 3e 3d cb 97 bd 10 5c 2d 3e
       -0.20889719 0.16404344 -0.074118115 0.1692965
0000a0 76 80 15 be 21 bf d6 bd 72 56 1b bd b0 ba 2f 3e
       -0.14599785 -0.10485674 -0.037924238 0.1716106
0000b0 b2 88 2a be 73 19 d3 3a ad 59 eb 3d b1 5a 8a be
       -0.16653708 0.0016105607 0.11491714 -0.27022317
0000c0 b9 39 a4 bd ef a6 6c 3b 94 66 43 be 4d 5e f2 3d
       -0.08018822 0.0036110242 -0.19082099 0.11834393
0000d0 7d c6 31 be 64 c0 35 be e9 e3 07 bd 23 28 12 be
       -0.17360874 -0.17749172 -0.033176336 -0.14273123
0000e0 4c 4d 0d 3e 22 c4 1a be 90 4c 38 be 06 c6 8f bd
       0.13799018 -0.15113881 -0.17997956 -0.07020192
0000f0 a0 9b 38 be f9 bc 9a 3d 18 83 16 be d9 28 98 bc
       -0.18028116 0.07555575 -0.14698446 -0.018574165
000100 db 17 d2 3d a6 c0 85 3d 3d 5a 87 bc b4 bf c4 bc
       0.10258456 0.065308854 -0.016522521 -0.024017192
000110 93 b8 c2 bd 3c 3b 05 bd 3f be 0a be b0 58 50 be
       -0.09507861 -0.032527193 -0.13549136 -0.20346332
000120 aa 84 79 3c 57 77 08 be b7 9f b1 3d 77 83 24 3e
       0.0152293835 -0.13326775 0.08673041 0.16065775
000130 fc 1e 16 3e c4 13 4c 3e de 1e fc 3d 0b e1 69 bd
       0.14660257 0.19929415 0.12310575 -0.057099383
000140 99 6a 09 3e 4a 53 0c be 10 b2 49 3b 98 71 48 bd
       0.1341957 -0.13703647 0.00307763 -0.048936456
000150 3e 05 0d bc c3 82 d8 bd 1b c5 18 be 7e 51 d9 3d
       -0.008607207 -0.10571816 -0.1491894 0.106112465
000160 e4 94 c4 bd 2f 71 f3 3d b7 6c 88 bd e5 ce f3 3d
       -0.09598711 0.118868224 -0.06661361 0.119046964
000170 30 a6 ec ba 36 40 a7 3b c2 ef 36 3e 2f be 1c 3e
       -0.0018054899 0.00510409 0.17864898 0.15306924
000180 1f 24 fd 3c 46 4f ac bd e8 86 47 3e 4c 82 a9 bd
       0.030901013 -0.08413558 0.19485056 -0.08276805
000190 76 11 36 3e 6b 4a 5b bd ae 83 90 be bc e1 45 3d
       0.17780098 -0.053537767 -0.28225464 0.04831098
0001a0 04 71 7f 3d e5 77 ad 3d 66 0c 14 be a0 4a c0 3d
       0.06236364 0.08470134 -0.14457855 0.093892336
0001b0 98 f0 ef bc 3f 1d 67 3e 88 3f 7e bc 13 cb 67 b9
       -0.029289529 0.2256975 -0.015518077 -0.00022105528
0001c0 24 9e 1f 3d 2e 9d 83 bd 24 61 c6 3c 31 9f 74 3e
       0.038969174 -0.06426464 0.024216242 0.23888852
0001d0 59 3e 7c be 09 fa 33 be 93 55 36 3d f1 b5 da bd
       -0.24633159 -0.1757585 0.044515204 -0.10679234
0001e0 42 ae 24 3e 8a 05 3b 3e fb a2 83 bd 27 fa 0d 3e
       0.16082099 0.18263832 -0.064275704 0.13864957
0001f0 1e 81 aa 3e 8b 9a eb 3c 0c 70 90 3d ca d5 d1 3c
       0.33301634 0.028760215 0.07052621 0.025614638

fc.weight f4 [1, 32]
000000 d2 4c 53 3d ef fb 02 3e 3f a6 0e 3e fe 54 cb 3d
       0.051586933 0.12791418 0.13930605 0.0992832
000010 d7 37 25 be 5e 1b 22 3e 2d 42 35 bd 32 a6 33 be
       -0.16134582 0.15830752 -0.044252563 -0.17543867
000020 0e b2 cd bd a4 bb 2b be 16 73 9c bd 33 30 4e be
       -0.10043727 -0.16770798 -0.076391384 -0.20135574
000030 08 a8 d4 bd 7f 51 50 be 64 11 5f bd 72 55 ae 3c
       -0.10383612 -0.20343588 -0.054459944 0.021280978
000040 eb f5 80 be 8a af 20 be ec a4 45 3e c1 8e 1b 3e
       -0.2518762 -0.15691963 0.19301194 0.15191175
000050 98 4c 40 bd 4d db 86 3d ce b9 4e be f7 38 0b be
       -0.046948045 0.06584797 -0.20188066 -0.13595949
000060 47 20 2d 3e d3 98 3f be fe 8e 04 3e a9 e7 48 3e
       0.16906844 -0.18710642 0.12945172 0.19619621
000070 a1 85 95 3e a3 97 6c 3e a0 83 e9 bd 3f 84 1f be
       0.29203513 0.2310472 -0.114020586 -0.15577792
