LSTMStockTrading/models/NVDA_improved_model_0.pth (torch, 29565 bytes, 6 tensors)

lstm.weight_ih_l0 f4 [128, 17]
000000 63 13 23 3e 26 a4 2b 3e 62 4e a9 3d 89 b6 50 3e
       0.15925364 0.16761836 0.082669035 0.20382132
000010 2e 80 23 bd 60 92 0c 3d f2 a8 6c bc b5 87 12 3e
       -0.039917164 0.03431928 -0.014444577 0.1430958
000020 38 95 3f 3e f7 a9 85 bb 09 99 41 3e 8c f0 50 3d
       0.18709266 -0.0040790993 0.18906035 0.051010653
000030 ee ca 0c 3e 62 c0 92 3d ff d5 a5 3d eb f1 16 be
       0.13749287 0.071656 0.08097457 -0.14740722
000040 d3 4f 06 3e 3a 53 e9 bb cf 4d da bd 51 1c ca 3d
       0.13116388 -0.007120517 -0.10659372 0.09868682
000050 90 74 48 3c aa 3c 81 3b 31 a3 8b bd 7d 22 66 3e
       0.012234822 0.0039439993 -0.06818236 0.22474094
000060 67 66 90 3b 0f 5c dd bc 68 82 a4 bb e3 8d 4a bd
       0.0044067386 -0.027021436 -0.0050204284 -0.04945172
000070 70 f4 1b 3d 3f 15 25 be fc 3e 71 3e 93 75 12 be
       0.03807491 -0.16121386 0.23559183 -0.14302664
000080 25 9c 28 3e e4 1c 67 3d 5a ac e0 bd 3f 7c 1e 3d
       0.16465814 0.056424037 -0.109703735 0.03869271
000090 7c 27 94 bd 8a 29 9f 3d 8e d0 73 bc 78 4f 92 ba
       -0.072340935 0.07771595 -0.014881266 -0.00111626
0000a0 f1 41 b5 3d 4c 95 39 3b 4d bb 6c 3d 68 be 4f 3d
       0.08850468 0.0028317748 0.05779581 0.050718695
0000b0 31 43 3c 3d e5 cd ba bd da 9b 81 3d 06 b9 49 3d
       0.045962516 -0.091213025 0.063285545 0.049248718
0000c0 17 5a 6a bb 2e e0 87 bd 2e d6 0e be cd 90 f0 3c
       -0.0035759264 -0.06634556 -0.1394889 0.029365921
0000d0 d9 1f 02 bd 8b 45 25 3e f0 da 6b 3d d5 61 98 3d
       -0.031768654 0.1613981 0.057581842 0.07440535
0000e0 d4 96 ba 3d da 16 f6 3c 33 6f 24 3e 3a f2 a8 bd
       0.091107994 0.030040193 0.16058044 -0.08249326
0000f0 9a 22 67 3d f9 2a d5 bd 08 cf 9a 3d cb 4a 82 bc
       0.056429483 -0.10408587 0.07559019 -0.015904805
000100 f2 24 07 3e af 7b a0 3b 50 37 c7 3d 96 76 a9 bd
       0.13197687 0.0048975567 0.09727347 -0.082745716
000110 0c 6b be bd ba ef c1 bd 1f 10 ed 3d 4c 29 d1 3c
       -0.09297761 -0.09469552 0.115753405 0.025532387
000120 35 7a 03 3e a9 d2 4f be 31 21 28 be 0f 14 ff bd
       0.12839587 -0.20295204 -0.16418912 -0.12454998
000130 07 a7 cd bd 55 f1 1b 3d 3a 2c e4 3c e3 33 bf 3d
       -0.100416236 0.03807195 0.02785312 0.093360685
000140 22 f1 08 be 0d 1f a7 bd 76 39 f1 3c c9 bf 68 bd
       -0.13373235 -0.08160219 0.029446345 -0.056823526
000150 ec df e5 3d ae f7 6c bd 00 1c 70 3d 2b b4 b7 bc
       0.1122435 -0.057853393 0.058620453 -0.022424778
000160 6f b4 0b bc 3f 8c 68 bc b4 7b 58 3d e8 6d 63 bc
       -0.008526905 -0.0141935935 0.052852347 -0.013881184
000170 7e 7d 11 3e dd 52 18 3e 07 b3 58 bd 34 98 87 bd
       0.14208028 0.1487536 -0.05290511 -0.06620827
000180 3c 37 10 3e 82 f8 c0 bd 36 21 b9 bb da 02 5d be
       0.1408357 -0.09422399 -0.005649711 -0.21583119
000190 ee 64 2d bd fa 0c d0 3d ab 72 97 3d ff 7a c4 bc
       -0.042332582 0.10158725 0.07394918 -0.02398443
0001a0 65 f7 86 3d d5 6d 65 bd 66 c9 f9 bd 1b 0e 98 bd
       0.065901555 -0.056012947 -0.12196617 -0.074245654
0001b0 ac 89 03 be 0c 10 4e bd 19 93 39 3e 78 17 c6 3d
       -0.12845486 -0.050308272 0.1812252 0.09672445
0001c0 e4 da bb 3d 4e 2b 0a be ec 2a fe bd c5 d1 11 3c
       0.091726094 -0.13493082 -0.124105304 0.008900111
0001d0 cf 85 fb 3c 4e 25 f4 bd ca 16 73 bd 43 80 ee bd
       0.030703453 -0.11921178 -0.059347905 -0.11645558
0001e0 18 62 91 bc 4e 86 8d bd 0e c7 0f 3c 97 de c6 bd
       -0.01774697 -0.06910382 0.008775486 -0.097104244
0001f0 bb bb 29 be 48 67 c9 bd dc bc d5 bd ac 5a 18 be
       -0.1657552 -0.098341525 -0.10436413 -0.14878339
000200 5f f4 05 3e 26 53 5e bc 8f f3 0d 3e eb a1 10 3d
       0.13081501 -0.013569629 0.13862441 0.035310667
000210 2d 1f 3b be d7 b7 c2 3d 43 61 9a bd 58 a6 87 bd
       -0.18273611 0.09507721 -0.075380825 -0.066235244
000220 58 bc 24 be 71 45 40 be 86 a2 6f 3d 88 ec 01 bd
       -0.16087472 -0.1877649 0.058504604 -0.031719714
000230 66 95 94 3d 9c 78 ee bd be 57 df 3d ee b1 11 be
       0.07255058 -0.11644098 0.10905407 -0.14228031
000240 40 a6 79 bd 61 f3 30 3d c5 04 c0 3d 0e 85 14 3e
       -0.060949564 0.043200854 0.0937591 0.14503881
000250 32 21 0d 3e 90 3c 49 be d3 86 e2 3c b0 5a d2 bc
       0.13782194 -0.19652009 0.02765218 -0.025678009
000260 5d 7b 47 3d c8 57 1c be 01 fb d1 3d ed 60 e4 bd
       0.048701633 -0.15267861 0.10252953 -0.111512996
000270 c1 35 b8 3d f4 0c f7 3c 52 23 b0 3d 07 ea 40 be
       0.08994628 0.030157544 0.08600487 -0.18839274
000280 65 96 17 3e a7 ec 16 3d 57 cb 8c 3c 09 70 2b be
       0.14803465 0.036846783 0.017186804 -0.16741957
000290 6f de 86 3d cf 9e 0d 3c ec d4 50 bd 9d 4a 05 3e
       0.065853946 0.00864382 -0.050984308 0.13016744
0002a0 42 fa d5 3d 62 e8 2c be 66 98 0b bd 12 63 1c 3d
       0.104481235 -0.16885522 -0.034080885 0.03818042
0002b0 15 73 c8 3d 37 23 3b bc da ad 0c be 90 4c 98 bd
       0.09787575 -0.01142197 -0.13738194 -0.07436478
0002c0 58 a5 ed bd 44 ff 9c 3d 37 f8 01 3e 01 50 ff bd
       -0.116038024 0.076658756 0.12692343 -0.124664314
0002d0 72 be 74 3c 53 c2 4a 3d 09 a6 68 bc 70 07 13 39
       0.014937984 0.04950173 -0.014199742 0.00014021783
0002e0 21 27 83 3d b8 e3 56 3d 19 22 ca bc 63 50 58 bd
       0.064039476 0.052463263 -0.024674462 -0.052811038
0002f0 fc 71 8a bd a0 6a 1a 3d 11 ff 0e 3d 85 5e 42 bd
       -0.06760022 0.03769934 0.03491122 -0.047453422
000300 ee 70 f8 3d 83 28 32 3e 79 42 be 3b 64 6a 85 bd
       0.12130915 0.17398266 0.005806264 -0.06514433
000310 ec 91 4e 3c e6 88 d6 3b 14 cd 5c 3d 23 cc 16 3d
       0.012608033 0.0065470813 0.053906515 0.036815774
000320 32 39 18 be dc 3a 8b bd f6 e5 12 3e 2e f2 3e 3d
       -0.14865568 -0.06798336 0.14345536 0.04661768
000330 0f c3 0e bd d3 55 02 be 89 d0 a1 bd f1 1d b7 bd
       -0.03485399 -0.12728052 -0.07901103 -0.08941258
000340 91 a1 09 3b f2 12 06 3e 32 88 eb 3d 15 df 90 3d
       0.0021000842 0.13093165 0.115005866 0.070737995
000350 fc 12 42 be 36 3d a5 bd 1e 36 e5 3c aa da 6b 3e
       -0.18952554 -0.08068316 0.027979907 0.23032632
000360 77 74 9e 3d bb 3c d0 bd 99 07 dd 3d c1 12 8c bd
       0.07737058 -0.101678334 0.10792465 -0.068395145
000370 ac ae 9f bd 38 f1 37 3e e4 a6 6b bb 87 68 3e bc
       -0.07796988 0.17963111 -0.003595763 -0.011621601
000380 8d 57 2b be a9 af a3 3d 07 ad 08 3e 85 58 15 3d
       -0.16732617 0.07992489 0.13347255 0.036461372
000390 22 01 05 be ab 6a 3c be a0 af b3 bd 04 9a d4 3d
       -0.12988713 -0.18400066 -0.08773732 0.10380939
0003a0 e2 ed 86 3d 1b 1c dd 3d e2 f1 0f 3e 03 fc f2 3c
       0.06588341 0.10796376 0.14057115 0.029661184
0003b0 81 7d 5e bd 29 18 0b be 3d fc e8 bd 83 ae 01 be
       -0.05431891 -0.13583435 -0.11376236 -0.12664227
0003c0 62 a1 9d 3c 93 2b a5 bd 71 c7 c9 bc b3 45 d6 bd
       0.019241992 -0.08064952 -0.024631234 -0.10462513
0003d0 2b dd 77 bb d4 80 a9 bd f7 47 a8 bd c0 a9 d1 3c
       -0.0037821035 -0.08276525 -0.08216851 0.025593638
0003e0 57 51 66 bd e5 46 b1 3d fe f7 44 bd 07 02 54 bd
       -0.056229915 0.086561 -0.048088066 -0.051759746
0003f0 d6 7f 59 bd c7 8b 88 bd 20 73 5f bd 28 2f 40 be
       -0.05310043 -0.066672854 -0.05455315 -0.18767989

lstm.weight_hh_l0 f4 [128, 32]
000000 35 1f 49 3d b1 9f 67 bc 29 f4 01 bd 3c 72 d2 3c
       0.049102027 -0.0141371945 -0.03172699 0.025689237
000010 b0 0c 81 3c 48 bd 82 3c 15 76 81 3c 60 d5 67 bd
       0.01575312 0.015959397 0.015803376 -0.056599975
000020 a2 b7 ab bb 59 12 0b 3e 2a 31 a6 bd b2 5f ef 3d
       -0.0052403966 0.13581218 -0.08114846 0.11688174
000030 a2 2b 9c bd 7b 81 6f be eb 20 7b ba 3a 15 5d bd
       -0.0762551 -0.23389237 -0.00095797953 -0.05397532
000040 da 88 04 3d 52 9d 8b 3c 49 ee fb 3d 5a 63 22 be
       0.032357074 0.01704279 0.12301309 -0.15858212
000050 2d b9 8c bd 91 33 f3 3c 81 73 05 3d 29 1b d1 3b
       -0.06871257 0.029687675 0.032580856 0.0063814116
000060 98 f3 87 3d 69 e3 44 bd a6 a5 0d 3d 6f 25 b8 bd
       0.06638259 -0.048068438 0.034581803 -0.08991515
000070 e9 39 f3 bd 2e 77 42 bc 0c 2d a6 3d 5e 3b d0 3d
       -0.1187628 -0.011869235 0.08114061 0.101675734
000080 67 fb 0b 3e 7f 0b 33 bc 72 15 ba 3b 20 6f 0e bd
       0.13670121 -0.010928034 0.005678826 -0.034773946
000090 85 95 ad 3d 53 19 8d 3d 0c 32 79 bd 03 d8 f9 3d
       0.08475784 0.06889596 -0.060838744 0.12199404
0000a0 44 50 fd 3c ba f7 8b bd b7 58 38 3d 86 ae 7a 3d
       0.030922063 -0.068343595 0.04500648 0.061201595
0000b0 ce 0f 3a 3e 67 4e 6f bd ec 01 d5 3d 5b 59 95 bd
       0.18170092 -0.05842438 0.10400757 -0.07292434
0000c0 e8 ab c2 bc 7f 66 00 bd 0a c3 72 bc 81 78 ef 3d
       -0.023763612 -0.031347748 -0.014817009 0.11692906
0000d0 23 6b 78 3d 00 1f 6a bd 9c 00 2c 3d 48 1e aa bd
       0.06064905 -0.05715847 0.04199277 -0.08306557
0000e0 14 d6 dc bc b1 7e 69 bd 2b 11 68 3d e9 81 ed bd
       -0.02695755 -0.057005588 0.056656998 -0.11597044
0000f0 c1 9f 18 3e aa f1 92 3d 10 6a 4b 3d 72 48 71 bd
       0.14904691 0.07175 0.049661696 -0.05890698
000100 2a 3e 7b 3d fc a2 47 3c 5f 95 ed 3d f7 02 e3 bc
       0.06133858 0.012184855 0.11600756 -0.027711375
000110 be 92 3f 3d c8 f3 6e bd 1a 61 ec bc f9 13 80 bc
       0.046770804 -0.058337957 -0.028854895 -0.015634524
000120 47 c0 8d 3c ed 81 91 bd 70 21 b9 bd 70 45 22 be
       0.017303599 -0.071048595 -0.09039581 -0.15846801
000130 5b fb d1 bd 54 8a 48 bd e5 03 7f 3d 73 60 e3 3a
       -0.102530204 -0.048960045 0.062259573 0.001734747
000140 d0 82 91 bc 1e 1b 36 3d b8 93 0a bc 42 06 22 be
       -0.017762572 0.044459455 -0.00845807 -0.158227
000150 e7 ca d7 bb c6 30 56 3d ca 54 ee 3d e4 53 88 bd
       -0.006585467 0.052292608 0.11637266 -0.06656626
000160 d3 27 6c 3d 9f 7f 25 bc 2d 96 5f 3a 15 32 37 be
       0.057655167 -0.010101228 0.0008529153 -0.17890199
000170 86 14 98 3d d6 e2 27 3e 5a e4 0b 3d 65 f9 24 3e
       0.074257895 0.16395125 0.03415332 0.16110761
000180 e6 89 e8 3d 92 f9 47 3d 16 17 fa 3d d5 e9 95 bd
       0.11354427 0.048821993 0.122114345 -0.073199905
000190 3a 67 f1 bd e0 13 56 3c 20 6c 8f 3d bf b4 9d bd
       -0.11787267 0.013066262 0.07003045 -0.0770049
0001a0 79 f2 da bd e8 af b2 bd 53 1e 01 be e0 07 08 bd
       -0.10690779 -0.08724958 -0.12609224 -0.033210635
0001b0 d7 58 50 bd 44 88 30 bd 00 64 6d 3d 9f c1 49 bd
       -0.050865974 -0.043098703 0.057956696 -0.049256917
0001c0 90 e3 34 bd 90 b8 61 3d 2e 78 a8 3d 6c f8 8f bd
       -0.044162333 0.055107653 0.082260475 -0.070298046
0001d0 65 de ac bd dc 90 c8 bc ef 33 26 3d a5 16 b9 bc
       -0.08440856 -0.024483137 0.04057687 -0.022593806
0001e0 0a 3e 59 3d 78 59 ea bc 24 87 df bc 17 43 22 be
       0.05303768 -0.028607115 -0.02728612 -0.15845905
0001f0 e5 81 90 bd c1 5b 46 3d 1d d8 6c 3c 01 be ba bd
       -0.070560254 0.048427347 0.014455822 -0.091182716
000200 81 6c fd 3b 5c d4 5e bd 5b de 20 be ca 9a db bd
       0.007733882 -0.05440174 -0.15709822 -0.10722883
000210 71 e0 2d bd c6 1d e8 3c ad 4b d8 3d fa a2 fd bc
       -0.042450372 0.02833451 0.10561309 -0.030961502
000220 d7 0f b6 3b 68 e3 8e 3d 8b 44 40 3d 71 d6 0c be
       0.0055560875 0.06976968 0.046940368 -0.13753678
000230 be f2 8b bd 64 5b 9a bd 94 58 11 b9 81 c6 b1 bd
       -0.06833409 -0.07536963 -0.00013861276 -0.0868044
000240 02 a7 ab 3b d3 22 70 bd 65 97 3c 3e 41 3d ce 3d
       0.0052384147 -0.05862696 0.18417127 0.10070277
000250 84 82 5e 3d c6 07 6f 3d de 27 f0 bc 2a e0 9c 3c
       0.05432369 0.058357023 -0.029315885 0.019149859
000260 d2 ba fe bd 65 ab d5 bd ee f6 22 3b 78 19 46 bd
       -0.12437977 -0.104330815 0.002486642 -0.048364133
000270 b3 ac 89 bd 1c 64 8f 3d e5 46 0b 3e af 5d 16 bc
       -0.06722393 0.07001516 0.13601263 -0.009177609
000280 93 6a ff 3d 5b 61 f9 3c c8 6d ac 3d 89 64 8c 3d
       0.12471499 0.03044193 0.084193766 0.06855113
000290 40 03 c4 3d b2 0d 79 3d 70 95 04 3d 80 03 61 3d
       0.095709324 0.060804076 0.032369077 0.05493498
0002a0 d1 e8 08 3d 72 cb 22 bc 50 91 d6 b9 65 58 83 bd
       0.033425156 -0.0099362 -0.00040925527 -0.06413344
0002b0 0c d3 41 3c 4f 0b 3c bd 76 98 22 3d 3f a3 cd bd
       0.011830103 -0.045909222 0.03969618 -0.10040902
0002c0 39 8e 65 bd 5a e6 b9 3d c8 9f bd 3b 26 8d e1 3b
       -0.056043837 0.09077139 0.0057868697 0.0068832813
0002d0 15 b1 81 3d 22 93 12 3e ac 08 22 bd 5d c3 74 bd
       0.06332604 0.14313939 -0.03955905 -0.059756625
0002e0 35 81 36 bd 91 66 28 bd 8d 04 6f 3d 00 9e dd bd
       -0.044556815 -0.04111344 0.05835395 -0.10821152
0002f0 c4 aa 62 bc 60 39 13 3e 91 db b0 3d 55 37 37 3e
       -0.013834659 0.14377356 0.08635629 0.17892201
000300 fa b2 a9 bb 5f c1 c9 3d 87 96 01 3e ca ed ab bc
       -0.0051788064 0.09851336 0.12655078 -0.02098741
000310 94 0f 39 bd af eb 3a bd af ce fe bb 27 43 c2 ba
       -0.045180872 -0.04563492 -0.0077761034 -0.0014821038
000320 68 8e c7 bd 95 86 17 3c 47 02 e0 bc 95 80 10 bd
       -0.09743959 0.009248395 -0.027344836 -0.035278875
000330 19 be d7 3a 7b 75 6e bd 7c b2 9f bd ff 93 10 be
       0.0016459852 -0.058217507 -0.07797715 -0.14118956
000340 cd ee 83 bd 1b 78 9b 3d 52 cb de 3d 0a 06 bf bd
       -0.06442032 0.07591268 0.10878624 -0.09327324
000350 a5 3b 15 3d 7f 6a 6d bd d7 a1 82 bd 11 57 01 bd
       0.036433835 -0.05796289 -0.06378525 -0.031577174
000360 d9 2a d6 bd 8d 2a f1 bd 96 da e3 bd c1 b7 de bd
       -0.10457391 -0.11775694 -0.11125676 -0.10874892
000370 7c 99 0c 3e a1 25 b9 3d 4e b4 2b 3d 0c f5 98 bd
       0.13730425 0.0904038 0.04192 -0.07468614
000380 0d 9c 7b bd f0 da e8 bc b5 b1 a9 bd cf bc 96 3d
       -0.06142812 -0.02842471 -0.08285848 0.07360231
000390 ac d8 be 3c 3b 62 3a be 41 08 f1 3d 0b 7e 1a bd
       0.023296677 -0.18201534 0.117691524 -0.03771786
0003a0 e8 a1 51 bd f4 fa e8 3d 30 d7 91 bd cb 6b 82 3c
       -0.051179796 0.113759905 -0.07121122 0.01592054
0003b0 35 67 fe 3d 25 8c 97 bd 32 1c b5 bd 12 04 93 3d
       0.12422029 -0.07399777 -0.088432685 0.07178511
0003c0 6c 53 7e bc fe 41 bf 3d 68 35 fa bb 65 a2 2e 3d
       -0.015522819 0.09338759 -0.007635761 0.04263534
0003d0 8d c6 8e bd 6b b8 bd bd c1 6e b3 bd 48 f3 0a 3d
       -0.06971464 -0.092636906 -0.08761359 0.033923417
0003e0 4b 35 14 3e c3 7f e5 3d ea 50 9c 3b 82 30 99 bd
       0.14473455 0.11206009 0.004770388 -0.07479955
0003f0 3d da 89 3b 5e 64 36 bd e3 cb f5 3b 58 7d 32 bd
       0.0042069242 -0.04452931 0.007501112 -0.04357657

lstm.bias_ih_l0 f4 [128]
000000 d1 7e 16 bd d6 9c 20 3e b6 f1 60 3e f7 f6 2b 3e
       -0.036742035 0.15684828 0.21967205 0.16793428
000010 d1 56 15 3c af 15 2c 3e f9 9e 1c 3d 6d 0b 49 bd
       0.009114937 0.16805147 0.038237546 -0.049083162
000020 66 b2 1f be bc fc b1 3d 86 b3 f5 3d 26 2e 07 3e
       -0.15595397 0.086907834 0.11997132 0.13201198
000030 4b 13 d9 3d 82 df f5 3d 90 82 fe 3d 8e 0e 84 bc
       0.10599383 0.12005521 0.124272466 -0.016120221
000040 fb 89 2d 3e e3 64 63 3d 64 a6 a6 bc 5b 41 25 bd
       0.16947167 0.055516135 -0.020343013 -0.04034553
000050 cd e8 4a bd 66 cb 0c be 57 45 df 3d bb ed 31 3e
       -0.049538422 -0.13749465 0.109018974 0.17375843
000060 35 02 65 3d 01 35 42 3d c1 90 e1 3c 4e cc 52 bd
       0.055910308 0.04741383 0.027534844 -0.05146437
000070 fd b0 54 bc ca 31 c7 3d 1a 40 1f 3d 83 7a 1b bc
       -0.01298165 0.097262934 0.03887949 -0.009489658
000080 12 de 1c 3d 8b ba d6 bc 62 5d 7c 3c 5d ec 16 3e
       0.03829772 -0.026211997 0.015403124 0.14738603
000090 bc 1f 87 bd 29 51 81 3e 1f f0 94 bd 35 36 54 3e
       -0.0659785 0.25257233 -0.07272362 0.20723803
0000a0 c1 8d 16 3d 87 97 f6 3d 79 71 a0 3c 6c c0 ca bc
       0.03675628 0.1204062 0.019585358 -0.024749957
0000b0 d5 f0 15 be c1 d0 9f bd ec b1 06 3e 7c d7 21 3e
       -0.14642651 -0.078034885 0.1315381 0.15804857
0000c0 e7 34 cc 3d b1 f7 93 bd b8 91 91 3d 9e 04 6d 3c
       0.09971028 -0.07224978 0.07107872 0.014466433
0000d0 bc 58 08 be 3d dd fe bd fc b3 af 3d 67 7d 59 bd
       -0.133151 -0.124445416 0.08579251 -0.05309811
0000e0 03 a5 29 bd 27 ee 6a bd 1b 71 6f 3d ab 83 1d bd
       -0.041417133 -0.057356026 0.058457475 -0.038455646
0000f0 bf 6d ac bc 85 84 07 3e 42 40 00 3e 4f 59 50 3e
       -0.021048425 0.13234146 0.12524512 0.20346569
000100 ee a6 48 3d 59 da 48 3d 66 d3 22 3e 96 c6 17 3e
       0.04898732 0.049036358 0.15900955 0.14821848
000110 3a 76 b1 3d 4b 2b 56 3d ea 09 41 3d ca 73 14 3d
       0.08665128 0.05228738 0.047128595 0.036243238
000120 50 3f b6 3d 45 a4 79 3c 38 5c 37 be 9e 3d 12 be
       0.08898795 0.015236919 -0.17906272 -0.14281318
000130 86 6d 28 be db da 10 bd 50 bc 02 3d b3 02 59 bd
       -0.1644803 -0.035364967 0.03191787 -0.05298109
000140 ab 7a 13 be 00 1a b6 bd 86 ac 8a 3d 05 c1 e2 bc
       -0.14402263 -0.08891678 0.067711875 -0.02767993
000150 ac 67 87 bb a4 93 be 3c 42 43 bb bc b2 bf f8 bd
       -0.0041322317 0.02326376 -0.02285922 -0.12145938
000160 8c 4c 9e bd d7 a0 c1 bc a5 8a 1c be 23 fa 39 be
       -0.07729444 -0.023636265 -0.15287264 -0.18161826
000170 9b 07 3f bd 31 b4 68 3d 00 e7 18 3e 05 98 b6 3b
       -0.046638113 0.05681247 0.1493187 0.0055723214
000180 57 59 44 3e 01 b9 c5 3d 58 e0 ad bd 62 20 56 bd
       0.19174705 0.09654427 -0.08490056 -0.052276976
000190 d6 36 a8 bc f4 32 3a bc 8e 91 43 3d ff c5 73 3d
       -0.02053396 -0.011364687 0.047746234 0.059514996
0001a0 22 38 f3 bd cc 05 77 3d 36 07 d8 bd 05 73 4c 3e
       -0.11875941 0.060308263 -0.105482504 0.19965751
0001b0 e6 fc 22 3e 83 80 e1 bb 3f 26 19 3e 2b e2 d3 bd
       0.15916786 -0.006881775 0.14955996 -0.103458725
0001c0 b8 9a 4c 3e 97 75 81 3b 02 51 a3 3d 7b c7 0f 3e
       0.19980896 0.0039507854 0.079744354 0.1404094
0001d0 3d 9f db 3d 7b 04 7d 3d b7 df a5 3d 41 2f c2 3c
       0.10723732 0.06177185 0.08099311 0.023704173
0001e0 26 76 27 3e 06 e5 04 bd 83 9e 06 3b bd 50 31 3d
       0.16353664 -0.032444976 0.0020541258 0.04328989
0001f0 42 01 57 bd 25 b7 b7 bc 06 1c 17 3d 67 4e 3a 3e
       -0.052491434 -0.022426197 0.03689196 0.1819397

lstm.bias_hh_l0 f4 [128]
000000 6c de fb 3d 39 48 80 bd 3f 78 3d 3e 28 77 9e bb
       0.12298283 -0.062637754 0.18502901 -0.004835982
000010 29 e6 61 3d a3 67 0d 3e 6d a6 1b 3e ab b4 ba bc
       0.05515114 0.13809066 0.15200205 -0.022791227
000020 76 7e 67 bd 2b c1 98 3d 65 9e 57 3d d8 69 2c bd
       -0.056517087 0.07458719 0.05264129 -0.042093128
000030 22 62 3b 3e c1 c7 06 bd 70 f0 4e 3d a2 5c eb bd
       0.18299153 -0.032905344 0.050522268 -0.11492278
000040 23 d7 11 3d 53 c5 ba 3c 23 84 e0 bc 3d 58 f0 3d
       0.03560556 0.02279917 -0.027406758 0.1173558
000050 8a e8 c6 bd 09 a5 5d 3c 2c e1 65 3d 18 c4 82 bd
       -0.09712322 0.013528117 0.056122944 -0.06385058
000060 be 23 20 3e dd 56 05 3e 77 36 10 3e dd d7 a1 3c
       0.15638635 0.13021417 0.14083277 0.019756252
000070 7f 37 08 3e 74 7b e0 bc 57 69 01 be 7a fb 61 3e
       0.1330242 -0.027402617 -0.1263784 0.22068587
000080 85 36 63 bd 18 3e 12 3d f0 25 f7 3c 6e 98 2d 3e
       -0.055471916 0.03570375 0.030169457 0.16952679
000090 b4 a8 2a 3e cc 49 da bb 6e ba a4 3c ed 94 ab bd
       0.16665918 -0.0066616293 0.020108428 -0.08378015
0000a0 4c 3e a9 3d 4d cb 55 3e fc ee a2 bb f7 84 4e 3d
       0.08263835 0.20878334 -0.004972337 0.050419774
0000b0 e3 37 70 bd 2f 85 ee 3c 49 f2 15 3e 61 8c 2b be
       -0.058647048 0.029116241 0.14643206 -0.16752769
0000c0 57 60 d7 3c 7a 50 e3 bb 73 9f c5 bd 20 fa bc 3d
       0.026291056 -0.006937084 -0.09649553 0.09227395
0000d0 2f 8f c4 3d ae 8d fc bd 5f 15 bd 3d 64 7b 83 bc
       0.095976226 -0.12331711 0.09232592 -0.016050048
0000e0 7f 30 18 3e 9c c8 ea bd c9 ca 01 3e 4e cf 7c bc
       0.1486225 -0.114640445 0.12675013 -0.015430285
0000f0 d0 19 33 3e 7e e7 07 bd 27 62 0e bc 3f 9b b5 3d
       0.17490315 -0.033179753 -0.0086903935 0.088675015
000100 54 7c b5 3d 7f 05 00 3e f0 55 00 3e d5 4c 34 bd
       0.08861604 0.12502097 0.12532783 -0.044018585
000110 98 5a 06 be 7f 51 34 3b 3d 26 29 3e 70 1e 2e 3e
       -0.13120496 0.0027514396 0.16518493 0.17003798
000120 29 d6 05 be 15 92 b0 3d 11 82 3b 3d ce 5e 91 bd
       -0.13069977 0.08621613 0.045778338 -0.07098161
000130 69 72 bb 3d d1 25 1f 3c 25 68 35 3d 28 f2 bf bd
       0.091526814 0.009713606 0.044288773 -0.093723595
000140 c7 e5 6a bb 35 cd 4a 3e 23 3c cf 3d 68 6b 21 be
       -0.0035842524 0.19804843 0.10118892 -0.15763628
000150 1e a7 78 3c 45 e8 da 3d 51 06 79 bd db d8 43 bd
       0.015176563 0.10688833 -0.06079704 -0.04781423
000160 0e 04 b8 3d 58 51 47 3e 1b c9 2f 3e 80 ff 15 be
       0.08985148 0.19464624 0.1716656 -0.14648247
000170 87 1b 15 be 70 c8 ea 3d 28 7f 13 bd 5e ab 2d 3e
       -0.14561282 0.11464012 -0.036009938 0.16959903
000180 82 eb 48 3e d7 72 c1 bc 8e f8 c7 3d ba 24 b2 3d
       0.19621089 -0.02361433 0.09764205 0.08698411
000190 4c d2 0c bd d7 32 89 3e 2f 4e 1a 3d 13 aa 0f bd
       -0.034380242 0.267966 0.037672218 -0.035074305
0001a0 85 f3 10 be 41 69 62 3e 79 c6 fc bd 0c aa 24 3e
       -0.14155395 0.22110464 -0.12342543 0.16080493
0001b0 a3 53 3e bb 30 80 b8 3c 9b 05 13 3d a3 d9 30 3e
       -0.002904155 0.022522062 0.035894018 0.17270522
0001c0 b0 dd 76 bd fe 64 51 bd 79 57 02 3e e9 95 83 bd
       -0.06027001 -0.051121704 0.1272868 -0.064250775
0001d0 f2 d9 af bc fc b3 f5 3d 32 ed 00 3d 41 68 f5 3d
       -0.02146623 0.1199722 0.031476207 0.119827755
0001e0 67 34 1c bd 79 6c 1e 3e 5f 94 65 3e 5e c6 38 3d
       -0.038135912 0.15471067 0.2241988 0.045111053
0001f0 bf 3a db bc fd 8c 01 3e ec eb 90 3d 8f 28 53 3d
       -0.02676141 0.12651439 0.070762485 0.05155235

fc.weight f4 [2, 32]
000000 68 df 2b 3e 4b 3d 5f bd 87 7b 1f 3d bf fa 2d 3c
       0.16784441 -0.054501813 0.038936164 0.010618865
000010 a7 dc 42 bd a6 ef 37 3b a2 8b d0 bc d1 f6 a1 3d
       -0.04757371 0.0028066426 -0.025457207 0.079084046
000020 84 4e 23 3e 1f 23 11 3e 7a 59 09 be a8 79 3c 3e
       0.1594792 0.14173554 -0.13413039 0.18405783
000030 e4 53 45 3e ef 7f 13 3e 60 1f 46 3b d9 75 f7 bd
       0.19270283 0.14404272 0.0030231103 -0.120830245
000040 c4 71 29 be e4 56 99 bd 74 4a 18 be 18 87 b4 3d
       -0.16547304 -0.07487276 -0.14872152 0.088148296
000050 99 7f 2f be b3 4b 43 be 59 e0 e5 bd c4 63 0e 3e
       -0.17138518 -0.19071846 -0.112244315 0.13905245
000060 69 89 26 3e 8e e3 1b be 79 02 3b be 2c d9 5e 3d
       0.16263355 -0.15223524 -0.18262662 0.05440633
000070 2c 09 6b bd 1d 28 36 be 0c e7 06 3c 27 3e 4f be
       -0.057381794 -0.1778874 0.008233797 -0.20238553
000080 4f e7 f3 39 fe dd ed 3d 79 43 3e 3e b2 9a 5a be
       0.0004652091 0.11614607 0.18580426 -0.21348074
000090 00 95 16 3e 7e 54 67 3c 38 8d 43 3e cb a0 2f 3e
       0.14705276 0.014119266 0.1909684 0.17151181
0000a0 65 83 90 bd 75 eb 7a bd 7b 17 8e 3c 59 e6 e6 3d
       -0.070563115 -0.061259706 0.01734518 0.11274404
0000b0 a6 8f 19 be 93 86 12 3d 4d 91 b5 3d 28 41 3f 3e
       -0.14996204 0.03577287 0.088656045 0.18677199
0000c0 f7 91 3d 3e ec ef 5f 3e e3 7e 02 be 5f ef f3 bd
       0.18512712 0.21868867 -0.12743716 -0.11910891
0000d0 46 7e e8 bd 90 ce f7 3d 9e 34 8d 3d cb ef f1 3c
       -0.1135221 0.120999455 0.068948016 0.029533288
0000e0 93 96 2a 3d b9 e4 3a 3c 5c f2 0d 3e e0 31 e3 bd
       0.041647505 0.011407071 0.13861984 -0.11093497
0000f0 d6 22 0f 3e 4d 43 f2 bd c2 2d f8 bd 74 70 ec 3d
       0.13978133 -0.11829243 -0.121181026 0.11544886

fc.bias f4 [2]
000000 f4 4a 0b 3e 76 79 0e bd
       0.13602811 -0.034783803
