LSTMStockTrading/models/NVDA_improved_model_2.pth (torch, 29565 bytes, 6 tensors)

lstm.weight_ih_l0 f4 [128, 17]
000000 d2 76 ad 3c 18 0c a1 3c 8d 74 f3 3d 5b 0a fc bd
       0.021174822 0.019659087 0.11887465 -0.12306663
000010 6f c6 c0 3b 7b 0a a7 3d b9 d6 29 bd 22 f1 98 bd
       0.00588303 0.08156296 -0.04146454 -0.074678674
000020 b7 d9 1e 3e 78 11 d8 3d 32 f4 05 3e 4f 27 a1 3d
       0.15512739 0.10550207 0.13081434 0.07868826
000030 5f c2 49 3d 51 26 1e be 4d 0b 4b 3c e9 c4 78 bb
       0.049257632 -0.15444304 0.012392831 -0.0037959164
000040 47 fc 33 3d 35 c6 b3 3d f6 5a f0 3d b4 5e 67 bd
       0.043941762 0.08778039 0.117360994 -0.0564868
000050 50 8f 2b 3e a8 4e c9 3d ad 63 29 3e ca 05 07 bd
       0.16753888 0.098294556 0.1654193 -0.032964505
000060 10 89 27 bd 3a be 15 bd 0e be 05 be 60 1f f2 3d
       -0.040902197 -0.036558367 -0.13060781 0.118223906
000070 c7 33 03 3e 4d dd 8f 3c c4 bd 33 be 5c 74 10 3e
       0.1281272 0.01756158 -0.17552859 0.14106888
000080 66 10 91 3d c5 6b 7c bc e2 e9 be 3d be d3 ed bd
       0.07083206 -0.015406554 0.09321953 -0.11612652
000090 e8 01 85 3d 7b a2 e7 3c 64 43 0d 3e db 8f 87 3c
       0.06494504 0.028275719 0.13795239 0.016548088
0000a0 ff 02 a3 bc 99 d2 38 3e 63 b7 d3 3d fb 43 a5 bd
       -0.01989889 0.18049087 0.103377126 -0.08069607
0000b0 a7 96 eb 3c 49 54 aa bd 02 a2 fe 3d 4d c5 e5 3d
       0.02875836 -0.08316857 0.12433244 0.11219273
0000c0 b0 33 8a bd 0c c4 a0 3d 76 1d 9d bc 36 c6 5b 3d
       -0.0674814 0.07849893 -0.019179087 0.053655826
0000d0 e3 a8 82 3d 64 d7 3e be da e8 0d be 61 34 af 3d
       0.06379869 -0.18636853 -0.13858357 0.08554912
0000e0 b2 76 ca bd f6 23 03 3d a5 bf f8 3d b8 80 63 3d
       -0.098859206 0.032016717 0.12145928 0.055542678
0000f0 25 7c f3 bd 47 fa 23 bc 5d 7d d5 3c ae ba 82 3d
       -0.11888913 -0.010008401 0.026060754 0.063832626
000100 32 b1 38 3e 43 a7 a7 bd c0 6e cd bd 2f c4 db bd
       0.18036345 -0.081861995 -0.100308895 -0.107307784
000110 ed 87 30 bd f1 4e 54 bd 10 b7 3c 3b 62 1e 4f 3c
       -0.04309838 -0.051833097 0.0028795637 0.012641521
000120 2b 0a 01 be 52 0e 8f 3d 62 74 0c bc 78 77 7e bd
       -0.12601535 0.06985153 -0.00857267 -0.062125653
000130 50 9d 1b be 89 93 c4 3d c4 35 07 be 50 3b cb bb
       -0.15196729 0.095984526 -0.13204104 -0.006202139
000140 31 92 00 be 39 cb 8c bc 5b 5b 86 bb 98 32 28 3e
       -0.12555768 -0.017186748 -0.004100246 0.1642555
000150 13 08 00 3e e6 26 91 3d 76 59 05 3e 76 6f 6b 3e
       0.1250308 0.070874974 0.13022408 0.22991738
000160 ef 5c fc 3c 9d 61 81 bd 19 c2 c6 3d f2 1d 76 bd
       0.030806033 -0.063174464 0.0970499 -0.06008715
000170 43 ef 03 3c a2 5d 05 3d fa 1f 9e bd 91 f7 5d 3d
       0.00805265 0.03256 -0.07720943 0.054191176
000180 4b ee be 3d 14 1c 03 3e 99 70 dd bd 35 eb 90 bd
       0.093227945 0.1280368 -0.10812492 -0.07076112
000190 e6 0a 3e 3e 71 42 8e bd 3d bd 10 be d1 fa 0c 3e
       0.18558845 -0.069462664 -0.14134689 0.13767554
0001a0 d2 d8 00 3e 54 9c 50 bd 2f db 16 bd b3 9b 2d bd
       0.1258271 -0.050930336 -0.036830124 -0.042384814
0001b0 07 ce e7 3d ac 01 03 be 9e bf ec bc 27 d4 85 3d
       0.113185935 -0.12793607 -0.028899964 0.065346055
0001c0 ea 48 ae 3d bd c2 da 3d 34 b7 09 be 37 25 0c be
       0.08510001 0.10681675 -0.13448793 -0.13686071
0001d0 d5 91 14 3e c7 c5 10 be 83 3b cb bd c9 1f 08 3d
       0.14508756 -0.14137946 -0.0992346 0.033233438
0001e0 04 98 23 bd 39 04 da bc 53 8f 28 be 1e 9e d3 3d
       -0.039939895 -0.026613342 -0.16460924 0.10332893
0001f0 3a db 8f 3d 29 c2 9f 3d 54 96 88 bd d3 79 d1 3d
       0.07024236 0.07800705 -0.06669298 0.10228314
000200 e9 5d f9 bd a3 ee a3 3d 4d 1f 9b bd 7b 24 32 be
       -0.12176115 0.08004501 -0.075743295 -0.17396729
000210 c5 9b 8c 3d 44 7a 47 bd 1a 29 d9 bb 71 9f 00 3e
       0.06865648 -0.048700586 -0.006627214 0.12560822
000220 93 56 cc 3d 34 0b a6 bd 07 69 f6 bd aa 1a 04 be
       0.0997745 -0.081076056 -0.12031751 -0.12900797
000230 5f 72 84 3c dc 89 3f bd a3 94 3a 3e af 60 af bd
       0.016167818 -0.046762332 0.18220763 -0.08563363
000240 df 94 ad 3d 94 13 07 be cc a9 05 be 97 de e0 bd
       0.084756605 -0.13191062 -0.13053054 -0.10979956
000250 26 04 78 3c db db b7 3d 90 b0 eb bd 87 0d 51 bd
       0.015137708 0.08977481 -0.11508286 -0.05103829
000260 5d d9 81 bc c4 55 0d bd fd 1c 4b 3e 7f fb e1 3d
       -0.015850717 -0.03450562 0.19835277 0.11034297
000270 19 d7 4c bd 75 40 33 be ec b8 60 3d 4a 8d 9c bc
       -0.05000982 -0.17505057 0.054863855 -0.01911034
000280 ce cf eb 3d 1f 57 ed 3d 43 aa 3a 3e 3a df cd bd
       0.11514245 0.11588883 0.18229012 -0.10052343
000290 ab 42 6a bd 73 36 a1 3d 8b 5b 1a 3e be 23 80 3d
       -0.057192486 0.078717135 0.15073983 0.06256817
0002a0 fa 23 7c 3d 32 b2 c5 3d 9c 9d 5d 3d 42 54 15 be
       0.061557747 0.09653129 0.054105386 -0.14582923
0002b0 d3 6c e6 3d f3 23 cd bc 03 ed e7 bb ee 1a ae 3c
       0.11251225 -0.025041556 -0.0070778145 0.021253075
0002c0 38 9a 98 bb c9 32 9c 3d d8 eb dd 3d 1c f6 f2 bd
       -0.004657056 0.07626874 0.10835999 -0.11863348
0002d0 bf ad ed 3d 55 1e d0 bd 7a c0 ad 3d 79 86 7c bc
       0.11605405 -0.101620354 0.084839776 -0.01541292
0002e0 36 3a 06 3e 16 9b b3 3d 09 3d 56 3d 2e 88 b2 bd
       0.13108143 0.08769815 0.0523043 -0.087173805
0002f0 ad 2b 8f ba d6 ee aa 3d 1d 1c 00 be 84 fa 00 bd
       -0.001092305 0.083463356 -0.12510724 -0.03148891
000300 78 f3 82 3d 71 10 9f 3c 97 26 eb bb e4 4b 88 bd
       0.06394094 0.01941702 -0.007176231 -0.066551
000310 38 6d 7f 3c 00 f9 04 bd e2 60 88 3d 94 8b cb bb
       0.015590005 -0.032464027 0.06659104 -0.0062117074
000320 a0 3e c7 3c 08 28 16 bd 13 21 89 bd c2 a5 9a bd
       0.024321854 -0.03665927 -0.066957615 -0.07551147
000330 13 d8 45 bd 33 08 34 3b 13 59 65 3d 2d dc ab 3d
       -0.048301768 0.0027470707 0.05599315 0.083916046
000340 f3 6d b1 3d c8 10 06 be 87 86 24 3d 67 0c ca 3d
       0.08663549 -0.13092339 0.040167358 0.09865647
000350 74 f3 53 3e 32 d8 0e ba 15 86 36 bd f9 91 1d bc
       0.20698339 -0.0005449086 -0.044561464 -0.009617322
000360 fa 32 81 3d 9d ca e1 3c 1c dd 73 bd 31 bf a3 bd
       0.06308551 0.027562434 -0.05953704 -0.07995451
000370 f4 3e b5 bd a4 7a 94 bd b9 f0 12 3e 57 d0 c7 bd
       -0.08849898 -0.07249954 0.14349641 -0.097565345
000380 68 ca 11 3e 54 4a 45 bd 08 5b 49 bc 04 fb b1 3d
       0.14237368 -0.048166588 -0.01228977 0.086904556
000390 b0 83 11 3d e6 80 d8 bd df 94 bb 3c 41 28 e8 bd
       0.035525978 -0.105714604 0.022898136 -0.11335803
0003a0 b8 75 05 be c2 10 8a 3d 14 54 b7 bb 7c ab b3 bd
       -0.13033187 0.067414775 -0.0055947397 -0.087729424
0003b0 31 ba 8e 3d 73 f7 40 3d c2 a6 fe 3c ea d6 b7 bd
       0.06969107 0.047110986 0.031085376 -0.089765385
0003c0 37 7e ab bd e3 b4 59 3e 90 dc e2 3d 75 f9 09 3e
       -0.08373683 0.21260409 0.11077225 0.13474067
0003d0 45 b3 13 3d d7 0c 5f 3d 57 e7 1c 3e ce d9 26 3c
       0.036059637 0.054455604 0.15322624 0.010183765
0003e0 e6 6e 14 bd 72 56 4b 3e 5c e6 23 3e 65 1e f3 3c
       -0.036238573 0.19857195 0.16005844 0.02967758
0003f0 56 c9 cd 3d 24 70 1c bd d1 83 bc bd 1e 9c 18 3e
       0.100481674 -0.038192883 -0.092048295 0.14903304

lstm.weight_hh_l0 f4 [128, 32]
000000 d7 f0 a8 3b 62 98 55 bd 99 be c1 3d 40 0f 98 bd
       0.0051556635 -0.052147277 0.09460182 -0.07424784
000010 f1 0e e5 3c 1b cc 92 3d 18 4b 45 bd 65 29 4e bc
       0.027961226 0.07167836 -0.048167318 -0.012583111
000020 0d 29 29 3d 0e c9 35 bd d9 d8 b1 bd 81 99 a7 bd
       0.041298915 -0.044381194 -0.086839385 -0.081835754
000030 2e 92 63 3c 4b ae 1b bd 34 f7 26 bd 07 c6 03 bd
       0.013889832 -0.038008016 -0.040763095 -0.032171275
000040 ee cd 4c 3d 9a b8 a1 3d d7 fe 84 bc e2 03 b7 bc
       0.050001077 0.07896538 -0.016234798 -0.022340719
000050 23 f2 75 3d 03 97 f6 bb 18 b3 ed bc 12 f2 01 3e
       0.060045373 -0.007525326 -0.029016063 0.12689999
000060 35 8d 42 bd fd a1 74 3d f3 93 af 3d 7f 2b a5 3d
       -0.047497947 0.059724797 0.08573141 0.08064937
000070 f0 bf e2 3d 69 06 a9 3d 33 07 8b 3d 98 2c f2 3d
       0.110717654 0.08253176 0.067884825 0.11824912
000080 d1 3a f9 bc cc 7d a1 bc 0a 8e 12 bb dd 3a dd bd
       -0.030423554 -0.019713305 -0.0022362494 -0.10802243
000090 60 64 f5 bd ed 90 23 3e f5 89 92 3d 3f 43 c3 3c
       -0.11982036 0.15973254 0.071552195 0.023835776
0000a0 58 a4 ac bd 0d dd 60 bd 77 3b ba bd f6 3b 9a bd
       -0.084297836 -0.05489831 -0.09093373 -0.07530968
0000b0 56 3d c0 3d d8 e9 ac bd da 76 e1 bd 07 35 40 bd
       0.09386699 -0.0844304 -0.11008997 -0.04692557
0000c0 c7 91 bc bd 72 c0 70 bc e1 66 6b 3d e5 3c 9b 3d
       -0.09207492 -0.01469432 0.05747116 0.07579974
0000d0 72 07 2a bd 8b 7b c7 bd af ff c1 bc 99 a3 8e bd
       -0.041511007 -0.09740361 -0.02368149 -0.069647975
0000e0 b3 00 f6 3c 24 1b c0 3d e4 fa 19 bd 03 ea dc bc
       0.03002963 0.09380177 -0.037592784 -0.026967054
0000f0 16 21 03 be 2d 6e 9c 3c 8d d8 27 3d 80 29 ff 3d
       -0.1280559 0.019095505 0.040978003 0.12459087
000100 a1 f8 2d be bd 5d 95 bd c2 80 80 bd d6 a1 34 bb
       -0.16989376 -0.0729327 -0.062745586 -0.0027562282
000110 53 df 81 3d 28 ff b7 bd 03 d7 7c bc 8e d7 6e bd
       0.06341424 -0.08984214 -0.015432122 -0.058311038
000120 7f c4 6f bd 5d c5 ae 38 93 85 4a bd 2f ad 3f bd
       -0.058537003 8.333728e-05 -0.049443793 -0.04679602
000130 10 38 ec 3c ce 29 04 bc a0 be 2c bd 38 3f 2b bc
       0.028835326 -0.008066608 -0.04217398 -0.010452084
000140 fb 0f 83 bd 61 cd cb 3d 79 22 0f be 63 cb 71 3d
       -0.063995324 0.09951282 -0.13977994 0.059031855
000150 7c 55 92 3c 16 81 38 bd 95 10 83 3d 69 68 cc 3d
       0.017863028 -0.04504498 0.06399647 0.09980852
000160 ec 36 4e bd 32 54 b4 3d 5e d6 3d 3d 93 98 2b 3d
       -0.050345346 0.088051215 0.046347015 0.041893553
000170 3e 87 2f be ea 87 83 3d 14 1e b7 bc bb 9f 6f 3d
       -0.17141435 0.06422408 -0.02235321 0.05850194
000180 89 34 c1 3c e9 37 d7 bd d6 c2 d6 bc 24 75 05 be
       0.023584621 -0.10508711 -0.026215952 -0.13032967
000190 a6 9b 37 3d 76 3d 21 3d 89 83 f6 bb 71 eb ed bc
       0.044826172 0.039365254 -0.0075230044 -0.029042931
0001a0 53 f3 51 bc cd 1b 95 bc 07 ce 5f bb cc 0b 43 3d
       -0.012814361 -0.018201733 -0.0034149901 0.047618672
0001b0 46 e2 78 bc b5 6b 10 bd b8 57 09 3d 65 4c 05 3d
       -0.015190667 -0.035258967 0.03353092 0.03254356
0001c0 88 01 41 bd 09 05 94 3d eb 00 a5 bd 81 4d 05 bd
       -0.0471206 0.07227523 -0.08056816 -0.032544617
0001d0 36 ec 04 3d 8a d3 a8 3d 78 f6 aa 3d f6 c9 d1 3d
       0.03245183 0.08243473 0.083477914 0.10243599
0001e0 25 08 58 3d e9 89 e6 3d 78 0f da 3d 48 c9 60 bc
       0.052742142 0.11256773 0.10647482 -0.013719864
0001f0 f4 1d 82 bc 18 30 0e 3d 06 f1 8f bb 86 12 26 bd
       -0.015883423 0.034713835 -0.004392746 -0.04054501
000200 fa 73 0b bc a6 f7 50 bb a2 80 bf bb db 75 be 3c
       -0.008511538 -0.0031885891 -0.0058441916 0.023249557
000210 51 32 21 3c 7c 59 78 bc 0d 3a fb 39 13 70 98 3d
       0.0098386565 -0.0151580535 0.00047917702 0.074432515
000220 ca 08 39 3d ff 3b c0 3c af cb 22 3d 99 61 38 3d
       0.045174398 0.023466108 0.03974503 0.04501495
000230 cb 33 cd 3b db 6e a0 3b 28 b1 11 bc f7 b7 49 bd
       0.0062622777 0.0048960275 -0.008892335 -0.04924771
000240 75 ed ee 3c 4d 4b b6 bb 3a 7d 5b bb 97 9a 51 bb
       0.029165963 -0.005563176 -0.003349139 -0.0031983012
000250 c9 f5 b3 bc 00 1d d9 bc ba a3 37 bb 4b 44 99 3d
       -0.021967785 -0.026503086 -0.0028021173 0.07483729
000260 55 87 30 bd 58 c2 94 3c 85 55 da bc 13 6a 39 3b
       -0.043097813 0.018159077 -0.026652107 0.0028291985
000270 c4 c7 7f bc af d8 9c bb 73 ef 60 bd 7a 20 98 3c
       -0.015611593 -0.004786573 -0.054915857 0.018570174
000280 fa 25 1d bd 8b 7e 32 3b 18 d6 9c bd c4 77 18 3e
       -0.038366295 0.002723607 -0.07658023 0.14889437
000290 80 88 0d 3e 5c 02 bd 3d 84 79 bf 3a 23 2b 02 3e
       0.13821602 0.09228966 0.0014608358 0.12711768
0002a0 b8 78 25 3e 2d 9a ef 3d 12 2c 21 be 4b d9 9d bd
       0.16159332 0.116993286 -0.15739468 -0.07707461
0002b0 83 6f 4b 3d 70 a0 21 3e ad cc b4 bd 06 c5 d5 3c
       0.049666893 0.15783858 -0.08828101 0.026094925
0002c0 46 8a cb bd ce 00 31 3e 05 f2 03 be bc c5 bc 3d
       -0.09938483 0.17285463 -0.12885292 0.09217402
0002d0 26 d0 13 bd 7a 6c d0 bc 14 cb 09 3e 89 92 e7 3b
       -0.036087178 -0.02544235 0.13456374 0.007067029
0002e0 5f 03 ba bb 2f cc d1 bd d9 0c b1 bc 6b 79 16 bc
       -0.0056766714 -0.10244023 -0.021612572 -0.009184222
0002f0 c0 30 8c bd 14 11 8d bd 5c 37 6c bd ce e7 56 3d
       -0.06845236 -0.06888023 -0.057669982 0.05246716
000300 7e 14 a0 bd 63 00 a2 3d 66 15 fb bd 60 7c 45 bd
       -0.078164086 0.0791023 -0.12259941 -0.048214316
000310 09 78 c6 3d 4b 58 1e 3e 23 e9 01 be 20 52 a7 bd
       0.09690864 0.15463369 -0.12686591 -0.08169961
000320 1d a5 91 3d 74 3e ed 3d a4 f8 32 3d f5 85 a1 3b
       0.07111571 0.115841776 0.043694153 0.004929299
000330 93 a8 bf 3d 39 01 e5 3d 1d 75 4f bd 59 a8 4f bc
       0.09358325 0.11181874 -0.050648797 -0.012674415
000340 a4 f4 0e 3e 8f 33 0d be 75 f5 fc bd 70 9d cc 3d
       0.1396051 -0.137892 -0.12351505 0.09990966
000350 c7 d8 04 be f6 ed a3 3c ad 1f 07 be 73 73 15 3d
       -0.12973319 0.02001093 -0.13195677 0.036487054
000360 44 b2 82 3c 25 85 35 bd 7a f9 8d 3d b7 c7 42 3d
       0.015954144 -0.04431643 0.069323495 0.047553744
000370 ac e2 77 bd 65 05 96 3d 32 cc da bd ed 9d 23 3e
       -0.060518906 0.07325248 -0.106834784 0.15978213
000380 be 30 38 bd 3a c0 6a 3d bc 8a 31 be 78 6e 3d bd
       -0.04496836 0.057312228 -0.17338079 -0.04624793
000390 d5 6d ab bd 91 a0 b0 3d 8c 94 79 3d c2 c4 df 3d
       -0.08370558 0.086243756 0.06093268 0.109262004
0003a0 60 79 05 3e f4 0e 3b 3e 2e 8a 8f bd 43 85 c7 bd
       0.13034582 0.18267423 -0.070087776 -0.097422145
0003b0 ea fb 6b 3d 36 a2 97 3d be 24 c8 bd 28 93 07 3e
       0.05761329 0.07403986 -0.09772633 0.1323973
0003c0 81 1a 01 be e2 8a 44 bc 94 21 fd bd c5 11 66 3d
       -0.12607767 -0.011996003 -0.1235992 0.05616929
0003d0 00 bf ca 3c 2f a2 4c 3d d0 42 e4 3d 18 99 51 3d
       0.024749279 0.049959358 0.11145556 0.051171392
0003e0 a8 e1 89 bd f5 5e 78 3d d6 8a bf 3d 99 cd 2f be
       -0.06732494 0.060637433 0.09352653 -0.17168273
0003f0 10 de 23 3d f9 d4 8a 3d 3f 11 6f 3d a1 08 9e 3d
       0.040006697 0.067789026 0.058366057 0.077164896

lstm.bias_ih_l0 f4 [128]
000000 92 b7 ab bd 14 c8 28 3e 0e a2 31 3e 8e f6 ed bc
       -0.08384623 0.16482574 0.17346975 -0.02904823
000010 82 09 19 3e 0c 65 8e bd ea 9f 6d bd 99 7a cf bd
       0.14945033 -0.06952867 -0.058013834 -0.101308055
000020 13 9f 7d bd 42 34 1c be e7 03 08 3d 91 c3 fc 3d
       -0.061919283 -0.1525431 0.033206847 0.12341989
000030 82 27 b1 bc 38 7f 22 3c 17 3d da 3d 92 36 cf bc
       -0.021625284 0.009918027 0.10656183 -0.025294576
000040 c0 a0 1b 3e 17 32 b4 3c 4c 08 b1 3d aa 41 cd 3c
       0.1519804 0.021996541 0.08644161 0.025055725
000050 53 47 85 3d e7 1a f8 3d 42 1b 9c 3c d8 87 f4 bc
       0.06507745 0.12114506 0.019055966 -0.029849932
000060 5a 08 93 3a ea a6 ea 3c 60 00 26 3e f3 14 92 bb
       0.0011217699 0.028644044 0.1621108 -0.0044580637
000070 ab ed aa bd df 13 1a bd da 3d 9e 3d 3c 9d f0 bd
       -0.08346113 -0.037616607 0.07726641 -0.1174874
000080 16 b7 3a 3e 48 8b 52 bd ec ec ee bc 9f a6 0f 3e
       0.18233904 -0.05140236 -0.029165708 0.14028405
000090 0c 59 1e 3e 35 73 ec 3d c1 d0 fd 3c 58 e7 09 3e
       0.15463656 0.115454115 0.03098333 0.13467157
0000a0 2b 2d 17 be 82 e0 76 bd 18 b1 06 bc ed 31 93 3c
       -0.14763324 -0.0602727 -0.008220933 0.017968142
0000b0 ee e9 b5 bd 36 73 f8 bd e3 94 44 bd 9d d5 6d 3d
       -0.08882509 -0.1213135 -0.047993552 0.058065046
0000c0 97 cc 25 3e bd fd 91 bd e0 4f e5 bd 67 9f 87 bd
       0.16191326 -0.07128475 -0.111968756 -0.066222005
0000d0 2f 81 a2 3d e3 e7 95 bd e6 45 ee bd f3 01 73 bb
       0.07934796 -0.073196195 -0.11634426 -0.003708002
0000e0 69 52 ce bd 51 3e f3 bc 31 dd f1 3d 3c 79 4a 3e
       -0.10074312 -0.0296928 0.11809767 0.1977281
0000f0 dd 0a b6 bd 2d 76 b9 3d 95 6f 27 3e 5e 34 8b 3d
       -0.08888791 0.09055743 0.16351159 0.067970976
000100 86 76 3e bd d6 d8 ba 3d 08 0b 49 be 13 77 14 3d
       -0.04649975 0.091233894 -0.19633114 0.03624637
000110 ea 15 86 3d 8d aa 15 3e fc 61 d3 bd 8e f9 32 3e
       0.065471485 0.14615841 -0.103214234 0.1747801
000120 0b 93 f6 3d 77 27 09 be 74 2f a1 3d 3e 7e 72 3d
       0.12039765 -0.13393961 0.07870379 0.059202425
000130 a0 22 23 3c 26 69 c5 3d 79 09 12 3a 8a 33 84 bd
       0.009956986 0.09639196 0.00055708695 -0.06455143
000140 d1 cb 23 3c 35 87 b0 bd 83 fb 22 be 82 eb 87 3d
       0.009997324 -0.08619539 -0.15916257 0.066367164
000150 9a 6d c8 3c 0e a4 8c bd 7c 0c de 3d 81 3f ea 3d
       0.024466325 -0.068672284 0.10842225 0.11437894
000160 72 1d 59 bd 2a 84 e6 3d 31 fd 04 3e fa b4 18 be
       -0.053006597 0.11255677 0.1298721 -0.14912787
000170 7c 22 37 3e 04 4f ba 3b 78 22 ab bd bd 30 22 3e
       0.17884248 0.005685689 -0.08356184 0.15838905
000180 97 98 1b 3e 4b c5 67 3d 7c 54 0d 3e 52 84 e7 3b
       0.15194927 0.056584638 0.1380176 0.0070653344
000190 14 6b b2 3c 95 b7 0c 3e 96 20 35 3e 63 bd 30 3e
       0.021779574 0.13741906 0.17688212 0.17259745
0001a0 21 11 f5 bd 40 a7 0f 3e b6 48 4b 3c 3f 2d c1 bc
       -0.11966158 0.14028645 0.012407472 -0.023581145
0001b0 c8 3e 04 bd 7c e7 12 3e 25 d4 23 3e 3f ee 26 3e
       -0.032286435 0.14346117 0.15998895 0.16301821
0001c0 47 d5 50 3d 55 3f fd 3d bd 46 d0 3d d5 94 44 bd
       0.050984647 0.12365595 0.10169742 -0.0479935
0001d0 53 ae 28 be 48 ff 1a 3e 9b 3e 83 bc de 82 ce bd
       -0.1647275 0.15136445 -0.016021064 -0.10083555
0001e0 73 18 c8 3d ba e1 31 bc 22 b7 3d 3e 26 da a9 bc
       0.09770288 -0.01085704 0.18526891 -0.020733904
0001f0 e6 d8 9e 3b 86 65 00 bd 37 62 86 bc d0 68 fa ba
       0.0048476337 -0.03134682 -0.016404254 -0.0019104723

lstm.bias_hh_l0 f4 [128]
000000 86 32 98 3d c5 15 72 bd 19 34 fe 3d cb 7e d8 3d
       0.074315116 -0.059102792 0.124122806 0.10571059
000010 50 7e 2b 3d 0e 17 5c bd 7e 6d fe 3d 48 97 35 3e
       0.041868508 -0.053732924 0.12423228 0.1773349
000020 15 04 1b bd 44 df 07 3d fc 79 0e 3e f1 02 24 3d
       -0.03784569 0.033171907 0.13913721 0.040041868
000030 64 b6 5d 3d 77 00 01 bd 00 53 00 3e 72 f7 2f 3e
       0.05412902 -0.031494584 0.12531662 0.17184237
000040 96 f5 1f 3e 2f 2c 13 bd 4e 1c 3e 3e 07 54 72 3d
       0.15621027 -0.03593081 0.18565485 0.059162166
000050 43 ff db 3c 40 41 01 bd 0b 12 98 3c af 01 35 3e
       0.026855117 -0.031556368 0.018563291 0.17676423
000060 fe e0 4d 3e c5 9a 58 bc 47 80 d8 3d 42 70 9f 3d
       0.20105359 -0.013220494 0.10571342 0.07785083
000070 17 9b 2c 3c 8f 1c aa bc a6 4b 16 bd a1 02 f2 bd
       0.010535023 -0.02076557 -0.036693238 -0.11816908
000080 4a 09 53 bd 40 de 82 bd 96 6b 29 3e c3 4c ab 3d
       -0.05152253 -0.06390047 0.16544947 0.083642505
000090 b9 43 2f 3e 39 f2 b5 3d b2 76 3f 3c 46 94 46 bd
       0.17115678 0.08884091 0.011686014 -0.04848125
0000a0 51 4d da 3d ce 54 61 3d e5 0e 01 3e 49 0b 2e bd
       0.10659278 0.055012517 0.12603338 -0.04249123
0000b0 93 20 2b 3e 2a 1b 07 3e b1 aa c6 bd 07 8f 38 bd
       0.16711645 0.13193956 -0.097005256 -0.045058277
0000c0 41 4a 4d 3d f2 b8 35 3e ab 5c 07 be 5a 89 fa bd
       0.050119642 0.17746332 -0.13218944 -0.12233229
0000d0 98 1b db 3d bc e1 ce 3c 78 80 bc 3d 87 45 99 3d
       0.106986225 0.025254123 0.09204191 0.074839644
0000e0 10 e3 49 3e 17 05 5a 3e ad 3f 65 bc 80 b0 27 bd
       0.19715524 0.21291004 -0.013992232 -0.040939808
0000f0 dd 5e 1f bd f3 69 45 bc 03 58 7d 3d e4 93 fa bc
       -0.038908828 -0.012049186 0.061851513 -0.030588098
000100 64 b6 82 3d 8a 00 3a bd f0 18 cf 3d 17 58 00 be
       0.063824445 -0.04541067 0.10112178 -0.12533604
000110 06 82 a8 3d 4c 63 94 bd b5 82 75 3d 86 c1 a3 bc
       0.08227925 -0.07245502 0.059939105 -0.01998974
000120 bc 34 06 3e eb 54 4e 3e 0f 05 70 bd b5 8d d5 bd
       0.13106054 0.20149581 -0.058598574 -0.10427419
000130 7a 28 16 be fb a4 27 bd 53 d8 17 be 79 89 1a 3e
       -0.14663878 -0.040928822 -0.14828615 0.15091504
000140 e8 b0 0b 3e da 3e 23 3e 82 b4 8a 3b c4 bc 0c be
       0.13641703 0.15941945 0.004232944 -0.13743883
000150 30 67 12 be 4a db 09 3e 40 0f ed 3d 5e b0 28 3e
       -0.14297175 0.13462558 0.11575174 0.16473529
000160 ae de ec 3c 4f e4 94 bc 8f 61 15 3e 9e 60 eb 3c
       0.028914776 -0.018175272 0.14587997 0.028732594
000170 d7 74 df bd b1 aa 0c be a1 c0 92 bd a3 e6 09 3e
       -0.10910957 -0.13736989 -0.07165647 0.13466887
000180 ae 9a 36 bc de 15 f8 bc 2c a9 9a 3d 47 06 94 3d
       -0.011145277 -0.030283865 0.07551798 0.0722776
000190 8a 92 77 bc 37 d4 9f bd 53 3b 09 bd 46 e1 09 3e
       -0.015110621 -0.07804149 -0.03350384 0.13464841
0001a0 65 6e a4 3d dd e1 96 bd e5 b4 f7 3d d2 d7 8f 3c
       0.080288686 -0.07367299 0.1209505 0.017558966
0001b0 d2 35 bf 3d c9 c6 81 bd 15 fb 26 3e 17 bc 0b bd
       0.09336437 -0.063367434 0.16306718 -0.034114923
0001c0 46 30 f5 bd 7e b2 f6 3d 37 bf 08 3e fb 00 05 3e
       -0.11972098 0.120457634 0.13354193 0.12988655
0001d0 25 ba 76 3d fd da 22 3e 6f f3 e5 bd 69 fc f5 3d
       0.060236115 0.1590385 -0.11228072 0.12011034
0001e0 b2 55 b6 3d ef f6 5a bd 0f 7f bc 3d a3 90 8e bd
       0.08903064 -0.05345815 0.09203922 -0.06961181
0001f0 a3 46 e0 3d 06 3a 95 3d 51 c8 49 3d 8d 19 1c 3e
       0.10950973 0.07286458 0.049263302 0.15244122

fc.weight f4 [2, 32]
000000 6e 99 d0 3b 8b 18 08 bc 30 0c cd 3c 43 8c 12 3d
       0.0063659465 -0.008306633 0.025030226 0.035778295
000010 d1 b9 94 bd 11 19 c8 bd d8 bf 07 3e c1 ec dc bd
       -0.07262004 -0.09770406 0.13256776 -0.10787345
000020 b3 ff df bc 13 05 28 3e c7 6a 90 3d 73 0f 00 3e
       -0.027343607 0.16408186 0.07051616 0.12505893
000030 e0 b1 01 bd 2a 73 16 3e 03 d5 52 be 9b f2 e0 bd
       -0.031663775 0.14692369 -0.2058907 -0.10983773
000040 4c 20 10 be 2d 8e 56 3b 4c de 18 3e 31 09 1b 3e
       -0.1407482 0.0032738552 0.1492855 0.15140225
000050 80 77 81 bd 64 6b 1e be cb 26 d9 3d ce a0 38 3e
       -0.06321621 -0.15470654 0.10603102 0.18030092
000060 a1 21 5e be fd 03 b0 3d 50 9e e3 3d 4e 7f 82 3d
       -0.21692516 0.08594511 0.1111418 0.06371938
000070 64 37 cd 3c eb 08 8b bd 6d 8c 64 3e 70 68 13 be
       0.025050826 -0.0678881 0.22319193 -0.14395308
000080 65 5a 55 3a c1 ea 2b 3e d3 5d 2e bc 87 fe ac 3d
       0.0008138775 0.1678877 -0.010642487 0.08446985
000090 cc c9 06 bd 57 91 47 bd 69 3d 0d be c6 da 28 3e
       -0.032907292 -0.04872259 -0.13792957 0.16489705
0000a0 cc cf 9f bd f9 8d 22 be 8d da 3a 3e 1c 2e 43 3d
       -0.07803306 -0.15874471 0.18247433 0.047651395
0000b0 cf 85 43 3c 38 8c 20 be 8c 46 f0 3d 53 7a f7 3d
       0.011933758 -0.15678489 0.11732206 0.12083878
0000c0 c0 b4 14 3e 87 16 1b be bf 6f 7b be f7 5d b0 bd
       0.14522076 -0.15145312 -0.24554347 -0.08611672
0000d0 0b 9e e5 bb dd 74 92 3d f0 a5 21 be f3 59 91 3d
       -0.0070073656 0.07151196 -0.15785956 0.070972346
0000e0 f9 e9 cb 3b c8 c2 85 bd 4f 8d 3d 3e 06 03 20 be
       0.00622296 -0.06531292 0.18510936 -0.15626153
0000f0 ac a8 29 3e 60 b5 d5 3d 0a 59 10 be c8 2e 4c 3d
       0.1656825 0.10434985 -0.14096466 0.0498493

fc.bias f4 [2]
000000 09 59 06 be e3 1b fe bd
       -0.13119902 -0.12407663
