LSTMStockTrading/models/NVDA_improved_model_1.pth (torch, 29565 bytes, 6 tensors)

lstm.weight_ih_l0 f4 [128, 17]
0	0xbb3cbc8a	-0.0028798901
1	0xbdb854f7	-0.09000581
2	0x3e1c64fb	0.15272896
3	0xbc1ff3bd	-0.009762702
4	0xbe051020	-0.12994432
5	0xbe2ed2cd	-0.17072602
6	0x3e0e09a7	0.1387087
7	0xbd848b04	-0.064718276
8	0x3df7a2a7	0.1209157
9	0x3d551ef6	0.05203148
10	0x3e1cc0db	0.15307944
11	0xbe0bb4f7	-0.13643251
12	0xbccac8f8	-0.024754032
13	0x3dc81395	0.0976936
14	0xbcfebf27	-0.031097008
15	0x3dcc5cdc	0.09978649
16	0x3d119305	0.0355406
17	0xbd648b66	-0.055797003
18	0x3e080701	0.13283922
19	0xbdbbc19e	-0.09167789
20	0xbe16e9af	-0.1473758
21	0x3d729783	0.059226524
22	0xbdbf748f	-0.09348404
23	0x3e3aca60	0.18241262
24	0xbde69585	-0.11258987
25	0x3e0cfc1b	0.13768046
26	0x3d250cd0	0.040295422
27	0xbd53ea21	-0.051736955
28	0x3dcc4ca6	0.09975557
29	0xbdbda4be	-0.09259938
30	0x3d676c0b	0.056499522
31	0xbd982bd7	-0.07430237
32	0x3c91a3cd	0.017778302
33	0x3d992066	0.07476883
34	0x3dd3e309	0.10346038
35	0xbe00052c	-0.12501973
36	0x3d108637	0.035284247
37	0xbcaf2cdc	-0.021383695
38	0x3db3653e	0.08759545
39	0xbe11ba2d	-0.14231177
40	0x3b2f41ae	0.002674203
41	0x3e51b29c	0.2047829
42	0x3db3d140	0.08780146
43	0xbd7ded28	-0.061993748
44	0x3c9b6d5b	0.018973043
45	0x3ccd5478	0.025064692
46	0xbdd8a7e2	-0.10578896
47	0xbd3a6403	-0.045505535
48	0xbe40b411	-0.1881869
49	0x3d1195ce	0.035543256
50	0xbd122f8b	-0.03568987
51	0x3d80c4b8	0.06287521
52	0xbe1d34ad	-0.15352125
53	0x3e024272	0.1272066
54	0x3da389d0	0.0798527
55	0x3c91b3f2	0.017786
56	0xbd7b9f11	-0.061430994
57	0xbc490a8d	-0.012270582
58	0xbe008e9d	-0.12554403
59	0xbe13e940	-0.14444447
60	0xbda6d5cc	-0.08146247
61	0x3e03668a	0.12832084
62	0xbe06f406	-0.13179025
63	0x3e10f73d	0.14156814
64	0x3db09abc	0.08623263
65	0xbdf9eab3	-0.122029684
66	0x3e0ec9eb	0.13944213
67	0x3d84e9fc	0.064899415
68	0xbdaef07d	-0.08541963
69	0xbd35879b	-0.044318777
70	0x3cdb9f78	0.026809439
71	0x3e07b7a1	0.13253643
72	0x3e2f7a3a	0.1713647
73	0x3ceb1f4f	0.028701453
74	0x3d53a44e	0.051670365
75	0x3d3d5908	0.046227485
76	0x3d744c11	0.059642855
77	0xbd996d6b	-0.07491573
78	0xbd17064b	-0.036871236
79	0xbe20da40	-0.15708256
80	0x3e03d02f	0.12872384
81	0xbda48cdb	-0.080346785
82	0xbd52dd04	-0.05148031
83	0xbdd4a15b	-0.103823386
84	0x3baf4d69	0.005349804
85	0x3e103474	0.1408251
86	0xbded0495	-0.115731396
87	0x3da3c61f	0.07996773
88	0x3e439bc4	0.19102389
89	0xbe2bc47c	-0.16774172
90	0xb94f7c39	-0.00019787335
91	0x3c3546e8	0.011064269
92	0xbb9651c9	-0.0045873863
93	0xbcdc16b0	-0.026866287
94	0x3e2cf582	0.16890529
95	0x3e2f287d	0.17105289
96	0xbb53dd77	-0.0032328048
97	0x3ce8cfab	0.028419336
98	0xbdd23c26	-0.10265379
99	0xbda62581	-0.08112622
100	0x3b2c2f42	0.0026273285
101	0x3df43754	0.119246155
102	0x3e407ce6	0.18797645
103	0x3e1f1a56	0.1553739
104	0x3d91b0a8	0.07113773
105	0x3daa6536	0.08320086
106	0xbdbe9714	-0.093061596
107	0x3c8c8a23	0.017155712
108	0xbdcf9580	-0.10135937
109	0x3e1527e5	0.14566
110	0xbd703561	-0.058644656
111	0x3e67673d	0.22597976
112	0x3c7a8823	0.015291247
113	0x3dc6577d	0.09684656
114	0xbcae524b	-0.021279475
115	0x3e0e872a	0.13918748
116	0xbe115eed	-0.14196368
117	0xbdf94c81	-0.12172795
118	0xbdb4577f	-0.08805751
119	0x3e357851	0.17721678
120	0x3dd2827f	0.102787964
121	0x3dbaacc9	0.091149874
122	0x3e4915d6	0.19637236
123	0x3dc2fa50	0.095203996
124	0x3d97cd92	0.07412256
125	0xbdc72d86	-0.0972548
126	0xbe17e249	-0.14832415
127	0x3ced5794	0.028972425
128	0x3e174944	0.14774042
129	0xbd9583b9	-0.07300515
130	0x3db3216f	0.08746611
131	0xbd702afc	-0.058634743
132	0x3dbdd101	0.0926838
133	0xbca27256	-0.01982991
134	0xbd3bb036	-0.045822345
135	0xbb58a460	-0.003305696
136	0x3b1a4a09	0.0023542664
137	0x3e2845a6	0.16432819
138	0xbd840c4a	-0.064476565
139	0x3d76f7a4	0.060294762
140	0x3bf033a8	0.0073303767
141	0x3e1c95a1	0.15291454
142	0x3e29e1df	0.16590069
143	0xbd3d636b	-0.04623739
144	0x3af2a0ce	0.0018511058
145	0x3a679e3e	0.00088355306
146	0xbd6fa612	-0.058507986
147	0x3df70d60	0.12063098
148	0x3e21fbfe	0.15818784
149	0xbd4d0b06	-0.05005934
150	0xbd8c99da	-0.06865282
151	0x3dd64248	0.10461861
152	0x3d3de492	0.04636056
153	0xbdde968f	-0.108685605
154	0x3d6f9885	0.058495063
155	0xbdc08b2b	-0.09401544
156	0xbdfff1cc	-0.12497291
157	0xbe33b711	-0.17550303
158	0x3d9fa469	0.077950306
159	0x3d08148c	0.03322272
160	0xbb5f8f1a	-0.0034112395
161	0xbd13c119	-0.036072824
162	0xbe491475	-0.1963671
163	0xbb9cd29b	-0.0047858483
164	0x3c4e754c	0.012601208
165	0xbcb49ecd	-0.022048378
166	0xbcb52a10	-0.022114784
167	0xbe69d82a	-0.22836366
168	0xbdc26ad8	-0.09493035
169	0xbd9e66c6	-0.07734446
170	0x3d6466a6	0.055761956
171	0x3da77bc8	0.08177906
172	0xbdd33769	-0.10313303
173	0xbe1be0a0	-0.15222406
174	0x3e1046f0	0.1408956
175	0x3dd46884	0.10371497
176	0xbddd12b1	-0.10794581
177	0xbdf09e77	-0.11748975
178	0x3c81534a	0.015786786
179	0xbdc57a16	-0.09642427
180	0x3de2c039	0.1107182
181	0x3d632fa7	0.055465367
182	0xbda3bfe4	-0.079955846
183	0xbe1a3923	-0.15060858
184	0xbd259e76	-0.040434323
185	0xbe22e992	-0.15909413
186	0xbd26b9c6	-0.04070451
187	0xbd5be337	-0.053683486
188	0xbdbf1f0d	-0.09332094
189	0x3d4ff57b	0.050771218
190	0xbd16dc9c	-0.036831483
191	0x3e069b96	0.13145289
192	0x3dc6bcd4	0.09703985
193	0xbc163725	-0.009168421
194	0xbdba3778	-0.09092611
195	0xbe277d45	-0.1635638
196	0x3cd10241	0.02551377
197	0xbdac0ef2	-0.08401288
198	0x3e33e907	0.17569362
199	0x3da437d9	0.080184646
200	0xbd0fdc43	-0.035122167
201	0xbbefe10a	-0.007320528
202	0xbd324901	-0.043526653
203	0x3e4d3d2b	0.20042865
204	0xbc9df419	-0.019281434
205	0x3cfb20c4	0.030655272
206	0x3dd973ff	0.106178276
207	0x3e0d14a0	0.13777399
208	0x3d3f815c	0.046754226
209	0x3e2312e3	0.15925173
210	0xbdcd054a	-0.100107744
211	0x3c87a2c3	0.016557103
212	0xbe3cf4c7	-0.1845275
213	0x3df3e659	0.1190917
214	0x3e409343	0.18806176
215	0x3c243f32	0.010024833
216	0xbe13c8a3	-0.14432006
217	0xbde62f38	-0.11239475
218	0x3d856122	0.06512667
219	0xbe11cb6d	-0.14237757
220	0xbd385e2f	-0.045011695
221	0xbdb9e207	-0.090763144
222	0xbddfb4b8	-0.10923141
223	0x3e0e6e89	0.13909353
224	0xbd8e722f	-0.069553725
225	0x3d8e6975	0.06953708
226	0xbdb49583	-0.088175796
227	0x3d4d6350	0.05014354
228	0x3e116392	0.1419814
229	0xbe263679	-0.16231717
230	0xbddb2605	-0.10700611
231	0x3e13a3ec	0.14418
232	0x3de26f44	0.110563785
233	0xbe09b3da	-0.13447514
234	0x3d21e9f7	0.039529767
235	0xbdf74276	-0.12073223
236	0xbd964c2e	-0.07338749
237	0xbce655dd	-0.028117115
238	0x3d15769a	0.03649006
239	0xbd7c16b6	-0.061545096
240	0x3de9ba60	0.11412501
241	0x3d3b03e7	0.04565802
242	0xbd52392f	-0.051324066
243	0x3e07c4ca	0.13258663
244	0x3e12faf5	0.14353545
245	0x3e0c032b	0.13673083
246	0xbe0406e4	-0.12893254
247	0xbe26e641	-0.16298772
248	0x3dbf3e06	0.09338002
249	0x3dff055c	0.12452194
250	0x3bbd543c	0.005777864
251	0x3d9bffe5	0.076171674
252	0xbe30e79d	-0.17275853
253	0xbb5c5bb4	-0.0033623995
254	0x3c84b209	0.016198175
255	0xbd3be0fa	-0.04586885

lstm.weight_hh_l0 f4 [128, 32]
0	0x3b6212fc	0.003449618
1	0x3d0768f3	0.03305907
2	0x3d83d4fc	0.06437108
3	0xbc83ea66	-0.01610298
4	0xbd434a05	-0.047678012
5	0xbdf707ae	-0.12062012
6	0x3d9f1bb0	0.07768953
7	0x3d5a3d2e	0.053281
8	0xbc3a8a4b	-0.011385511
9	0x3d554475	0.05206724
10	0x3d627982	0.05529166
11	0xbc836762	-0.016040508
12	0xbda5bca3	-0.0809262
13	0x3e04833a	0.12940684
14	0xbcf5bfae	-0.029998627
15	0xbdc4f39d	-0.09616778
16	0xbddd8d68	-0.10817987
17	0xbdeb7bf0	-0.114982486
18	0xbdac872b	-0.08424219
19	0x3c620a6d	0.013796431
20	0x3ca45225	0.0200587
21	0xbd554d14	-0.05207546
22	0x3d5aa44d	0.053379346
23	0xbd9635f2	-0.07334508
24	0xbd20e58d	-0.039281417
25	0x3d0660da	0.03280721
26	0xbda09d28	-0.07842475
27	0x3c5a7328	0.013333119
28	0x3c5a6c52	0.01333149
29	0x3cef62d2	0.029221926
30	0x3d48dff7	0.049041715
31	0x3d671ad1	0.05642206
32	0xbdb9871a	-0.09058972
33	0xbd793240	-0.060838938
34	0xbde11c22	-0.10991694
35	0xbce17262	-0.027520362
36	0xbdafe468	-0.08588487
37	0xbe15a02b	-0.1461188
38	0x3d891d8f	0.06695091
39	0x3e02e5e5	0.1278301
40	0xbb733a46	-0.003711359
41	0x3c6eac0b	0.014567385
42	0x3dab1c2d	0.083549835
43	0x3dda44f4	0.10657683
44	0xbdf5ee1e	-0.12008308
45	0x3baa04ed	0.0051885755
46	0xbd5d17f7	-0.053977933
47	0xbd317877	-0.043327775
48	0xb9e610b3	-0.0004388146
49	0xbd2d0d18	-0.042248815
50	0x3d0dfa98	0.034662813
51	0xbcda0e3f	-0.026618121
52	0x3e24a01b	0.160767
53	0xbcd409c8	-0.02588357
54	0xbd9a2ae8	-0.07527715
55	0xbcbd65cd	-0.023119831
56	0xbcb7d033	-0.022438144
57	0xbd8c496a	-0.0684994
58	0x3c98f8e9	0.018673377
59	0xbd15ce7d	-0.036573876
60	0xbd361a42	-0.044458635
61	0xbd9e89d4	-0.077411324
62	0xbda17b7e	-0.078848824
63	0x3dabfcab	0.08397802
64	0x3d44ed0e	0.048077635
65	0x3daa3ee3	0.08312776
66	0x3dab973c	0.08378455
67	0xbd8ce677	-0.06879895
68	0x3c5b8b88	0.013399966
69	0x3d0a1ee4	0.033720866
70	0x3c980cdf	0.018560825
71	0x3d8a99e8	0.067676365
72	0x3e450f4b	0.19244115
73	0x3dd4f7ee	0.10398851
74	0x3c39bfea	0.01133726
75	0x3b75c8f9	0.0037503822
76	0xbdf1343f	-0.11777543
77	0x3ceac58e	0.028658655
78	0x3b81580f	0.003947265
79	0xbdb4a6d5	-0.08820883
80	0xbe202391	-0.15638568
81	0x3c97f784	0.018550642
82	0x3d727ceb	0.059201162
83	0xbde5ca30	-0.11220205
84	0x3d02ae6c	0.031904623
85	0xbd0bbf5a	-0.034118034
86	0x3d01005e	0.03149449
87	0xbd5c4be5	-0.053783316
88	0xbd86e2c9	-0.065862246
89	0x3dae9485	0.085244216
90	0xbc9f916c	-0.019478522
91	0xbd216259	-0.039400432
92	0xbe034189	-0.12817968
93	0xbbbe0109	-0.0057984632
94	0xbdac0b00	-0.084005356
95	0xbe04a4d4	-0.12953502
96	0xbd5616ba	-0.052267767
97	0x3d9363cf	0.07196771
98	0xbd75240d	-0.059848834
99	0xbe07b457	-0.13252388
100	0x3e18e572	0.14931276
101	0xbccb0d5e	-0.024786647
102	0xbdb48c6e	-0.08815847
103	0xbd0af20f	-0.03392225
104	0x3c8a1793	0.016856944
105	0x3d6a45a1	0.05719531
106	0x3e29f3df	0.16596936
107	0x3cf54266	0.029938888
108	0x3e2db31e	0.16962859
109	0xbd92b79f	-0.07163929
110	0x3da52fd7	0.08065765
111	0x3d4b383f	0.049614187
112	0xbdd7522f	-0.10513722
113	0xbd8577fe	-0.06517027
114	0xbdc69446	-0.0969625
115	0x3d623a98	0.05523166
116	0xbd23d8b6	-0.040001594
117	0xbd2b9de1	-0.041898612
118	0xbc1c4712	-0.009538429
119	0x3d404a9b	0.04694615
120	0xbd838a7d	-0.06422899
121	0xbc83245b	-0.016008547
122	0x3d2b2b6b	0.041789453
123	0x3d76be8a	0.060240306
124	0xbde90691	-0.113782056
125	0x3e06dc49	0.1316997
126	0x3de9f460	0.11423564
127	0x3db4eded	0.08834443
128	0x3d1614db	0.036640983
129	0xbdc9c34e	-0.098517045
130	0x3c9f7307	0.019464029
131	0xbc247a2a	-0.010038892
132	0xbd971e63	-0.07378843
133	0xbd22f690	-0.03978592
134	0x3c75e25d	0.0150075825
135	0xbcb94a01	-0.022618296
136	0x3c6aa9a0	0.014322668
137	0x3cbf38ec	0.023342572
138	0x3ddf4e62	0.10903622
139	0xbd5e06b4	-0.05420561
140	0xbd7871d9	-0.06065545
141	0x3d7c937a	0.061664082
142	0x3d86c03f	0.06579637
143	0x3d159a0d	0.036523867
144	0xbd7e4b90	-0.06208378
145	0xbdb683fa	-0.08911891
146	0xbd927f59	-0.07153196
147	0x3d0adcdc	0.033902034
148	0xbe0d0bf8	-0.13774097
149	0x3d3b980e	0.045799308
150	0xbd472d38	-0.04862711
151	0x3d7302fb	0.059329014
152	0xbd441b51	-0.047877613
153	0xbdb49c81	-0.08818913
154	0xbd934eef	-0.0719279
155	0x3cb84427	0.022493435
156	0x3da0cf4e	0.0785204
157	0x3bf3672f	0.007428072
158	0x3d5af385	0.053454895
159	0x3c569959	0.013098084
160	0xbcb649dd	-0.022252018
161	0xbcb3700e	-0.021904018
162	0xbcbd0d3a	-0.023077596
163	0xbd9acbd3	-0.07558408
164	0xbd54eebe	-0.051985495
165	0xbd89bcc1	-0.06725455
166	0xbcecda34	-0.028912641
167	0x3dac7a3c	0.08421752
168	0x3d3fd2bc	0.04683183
169	0x3d76e557	0.06027731
170	0xbd2470c6	-0.04014661
171	0x3d735a58	0.05941233
172	0xbd12702e	-0.035751514
173	0xbc8404b3	-0.016115522
174	0x3d50d1fa	0.0509815
175	0xbce66237	-0.028123004
176	0x3d1dd247	0.038530614
177	0xbd9bbda8	-0.076045334
178	0xbb7732df	-0.003771953
179	0x3d684a06	0.05671122
180	0xbcc8e3bd	-0.024522657
181	0xbd43bee9	-0.047789488
182	0x3bf21149	0.0073873145
183	0x3d99c284	0.07507804
184	0xbcd8ce76	-0.026465636
185	0x3da7cf55	0.08193842
186	0xbbfd199f	-0.0077240015
187	0x3dc812da	0.09769221
188	0xbd21a209	-0.03946117
189	0x3d0d7693	0.03453691
190	0x3c13b84c	0.009016108
191	0x3c44deef	0.012016042
192	0xbc6f2559	-0.014596307
193	0xbd65e46b	-0.05612604
194	0xbd8167b7	-0.0631861
195	0x3c66c208	0.014084347
196	0x3d13717b	0.035996895
197	0x3c3e6fef	0.011623367
198	0x3e00024e	0.12500879
199	0xbd04e5a9	-0.032445583
200	0x3dfc1f8d	0.12310705
201	0xbd211f92	-0.03933675
202	0x3d381a47	0.044946935
203	0x3d8eb5ac	0.06968245
204	0xbcbcb7dd	-0.023036892
205	0x3df46ff1	0.11935414
206	0x3db7dd2e	0.089777336
207	0xbde2c459	-0.110726066
208	0xbe35e182	-0.17761806
209	0x3e2ea366	0.17054519
210	0xbd65c5d9	-0.056096885
211	0xbdc33e91	-0.09533418
212	0x3dcaca38	0.099018514
213	0x3da1599c	0.0787842
214	0xbd4a0f94	-0.049331263
215	0x3dad96ce	0.08476029
216	0xbdc01319	-0.093786426
217	0x3d8eba2e	0.06969105
218	0xbd83c117	-0.06433313
219	0xbe0007fb	-0.12503044
220	0xbd3138ad	-0.04326694
221	0x3e65f5ee	0.22457096
222	0xbd588188	-0.052857906
223	0xbc6170ac	-0.013759773
224	0xbe01a9a9	-0.12662376
225	0x3d61cb79	0.055125687
226	0xbd78fc30	-0.06078738
227	0xbe0fbaab	-0.14036052
228	0x3daa9988	0.08330065
229	0x3cc2e90e	0.02379277
230	0xbe3d513d	-0.18488021
231	0x3e1ce86a	0.15323034
232	0xbdc99d27	-0.098444276
233	0x3d834229	0.064091034
234	0x3db425c8	0.08796269
235	0xbdd006fc	-0.10157582
236	0x3c41a620	0.011819392
237	0xbe0d3dd1	-0.13793112
238	0xbd8930b8	-0.066987455
239	0x3d51d2a1	0.051226262
240	0x3bdd8cdd	0.006761177
241	0xbe16bc16	-0.14720187
242	0xbe2725d6	-0.16323027
243	0x3e3b6992	0.1830199
244	0xbe163848	-0.14669907
245	0xbc75ecdb	-0.015010084
246	0x3c9b694c	0.018971108
247	0x3d2988d0	0.04139024
248	0xbdfa62e1	-0.12225891
249	0xbe2dbd84	-0.16966826
250	0xbc740493	-0.014893669
251	0x3d975558	0.07389325
252	0xbd07c3f2	-0.033145852
253	0x3dcf58e5	0.10124377
254	0x3d7a0816	0.061042868
255	0xbe12c3e6	-0.14332542

lstm.bias_ih_l0 f4 [128]
0	0xbdcaed1a	-0.09908505
1	0x3de085ff	0.10963058
2	0x3e49344c	0.19648856
3	0xbc82655c	-0.015917473
4	0x3e12bcca	0.1432983
5	0x3c231aa1	0.009955079
6	0xbcea9f15	-0.02864031
7	0x3d13e460	0.036106467
8	0xbbbadff1	-0.0057029654
9	0xbe059bd1	-0.1304772
10	0x3d2b795c	0.041863784
11	0x3e094027	0.13403378
12	0x3e27f364	0.1640144
13	0x3dccdf69	0.100035496
14	0x3d1ba287	0.037996795
15	0xbd871d2e	-0.065973625
16	0x3d459d68	0.048245817
17	0x3e2c4009	0.16821302
18	0x3decd2cd	0.115636446
19	0x3cf78251	0.030213507
20	0xbdbfad94	-0.09359279
21	0x3e2836a7	0.16427098
22	0xbcb6d35f	-0.022317586
23	0xbc83ad70	-0.016073912
24	0xbce35f4c	-0.027755402
25	0x3cd9a045	0.02656568
26	0x3e68b213	0.2272418
27	0xbdc03e1f	-0.09386849
28	0xbca55edd	-0.020186836
29	0xbb868299	-0.004104924
30	0xbd88432d	-0.06653438
31	0xbdcd2072	-0.10015954
32	0xbcee71aa	-0.029106934
33	0xbdc12189	-0.094302244
34	0x3ce5e487	0.028063072
35	0x3e25cee5	0.16192205
36	0x3d479c4a	0.048733033
37	0x3d2b1081	0.041763786
38	0xbdcd14e6	-0.10013752
39	0x3afd23ed	0.0019313075
40	0x3e125416	0.14289889
41	0xbe172315	-0.14759476
42	0x3e48004b	0.19531362
43	0xbe3717cf	-0.17880176
44	0x3d99f0c4	0.075166255
45	0xbe2b30d8	-0.16717851
46	0x3e0896bc	0.1333875
47	0xbde850dc	-0.11343548
48	0x3e49bd41	0.19701101
49	0xbdae5f5c	-0.08514282
50	0x3d99eafc	0.07515523
51	0xbddd4762	-0.10804631
52	0x3da6a5ef	0.08137118
53	0xbdd2dc66	-0.10295944
54	0x3ccde944	0.025135644
55	0xbdf0dfb1	-0.11761416
56	0x3d980084	0.07421973
57	0x3cb0c972	0.021580432
58	0xbe4c20fc	-0.19934458
59	0xbe195f6c	-0.14977807
60	0xbdca20e2	-0.09869553
61	0xbd6a9b2d	-0.057276893
62	0x3d0e48c6	0.03473737
63	0x3dc150a3	0.09439208
64	0xbd67c071	-0.05658001
65	0x3e1d1e1d	0.15343519
66	0x3e348a88	0.1763097
67	0xbdbb40f3	-0.091432475
68	0x3e0de23b	0.13855831
69	0xbdb8f521	-0.0903113
70	0xbe2c8878	-0.16848934
71	0xbc5c2293	-0.0134359775
72	0xbe2b625b	-0.16736738
73	0xbe419e88	-0.18908131
74	0x3dea4313	0.11438575
75	0x3d5f1438	0.05446264
76	0x3cd00f56	0.025397938
77	0xbd4a1d76	-0.049344502
78	0xbdfed31c	-0.1244261
79	0xbdba9978	-0.09111303
80	0x3d33ed0b	0.043927234
81	0x3cd551b0	0.026039928
82	0xbd6a783f	-0.05724358
83	0x3d7500fb	0.05981539
84	0x3e0313d9	0.1280054
85	0xbe13722e	-0.14399025
86	0xbbcc3b36	-0.0062326444
87	0xbdac36a7	-0.084088616
88	0xbe0f0d4e	-0.13969919
89	0xbd469bb5	-0.048488338
90	0x3e220b31	0.15824582
91	0xbde03695	-0.10947911
92	0x3dd2f7fd	0.10301206
93	0xbd800f6d	-0.06252942
94	0x3e30b131	0.17255093
95	0x3df385a7	0.118907265
96	0xbd36a2e5	-0.044588942
97	0x3e0ce0ab	0.13757579
98	0xbd8bb882	-0.068223014
99	0x3de8ed53	0.11373391
100	0x3de971b6	0.11398642
101	0x3e208ed2	0.15679482
102	0xbba4b998	-0.0050270073
103	0xbdb0ddf5	-0.08636085
104	0xbe0568a9	-0.13028206
105	0x3d635c00	0.05550766
106	0x3d25a647	0.040441778
107	0x3d88a50a	0.06672104
108	0x3dafe480	0.08588505
109	0x3dacc935	0.08436815
110	0xbd914d9f	-0.07094883
111	0x3da3dc15	0.08000962
112	0x3d7011ba	0.058610655
113	0xbc21a18b	-0.009865175
114	0x3da0d589	0.078532286
115	0x3e23a0a0	0.15979242
116	0x3e020e3f	0.12700747
117	0x3ded1b21	0.1157744
118	0xbd2dbba1	-0.042415265
119	0x3da94e1d	0.08266852
120	0x3d57a7fc	0.052650437
121	0x3d6e06bb	0.058111887
122	0x3e1abbf6	0.15110764
123	0x3dc6d079	0.09707732
124	0x3d1a91bb	0.037736636
125	0x3e2f1a8c	0.1709997
126	0x3e0fec02	0.14054874
127	0xbcdafbd4	-0.02673141

lstm.bias_hh_l0 f4 [128]
0	0xbd85a236	-0.0652508
1	0xbd8212f8	-0.06351274
2	0x3dcb9c4e	0.09941922
3	0xbe0182ef	-0.12647603
4	0x3cf78142	0.030213002
5	0x3d4b22b9	0.04959366
6	0x3d61c217	0.05511674
7	0xbe06c173	-0.13159733
8	0xbd60e623	-0.054906975
9	0x3d369789	0.04457811
10	0xbdb8777c	-0.09007165
11	0x3e453675	0.19259055
12	0xbddce953	-0.107866906
13	0x3dac9348	0.08426529
14	0x3ce619e5	0.02808852
15	0xbdb61d1d	-0.08892272
16	0x3e1b001f	0.15136765
17	0xbd68ca94	-0.05683382
18	0x3d961a87	0.073292784
19	0x3e22c18b	0.15894143
20	0x3dc6ca4c	0.09706554
21	0x3cd7dad3	0.02634946
22	0xbdd252e3	-0.10269716
23	0x3e441d19	0.19151725
24	0xbdba4bed	-0.09096513
25	0x3dd8830f	0.105718724
26	0x3cf4e393	0.029893672
27	0xbd42a4f2	-0.047520585
28	0x3bfdd620	0.007746473
29	0x3c427217	0.011868021
30	0x3d64e80a	0.055885352
31	0x3df391da	0.11893053
32	0x3e355a13	0.17710142
33	0x3c662803	0.0140476255
34	0xbd1dfbb1	-0.03857011
35	0x3e22617f	0.15857504
36	0xbc5bd06d	-0.013416392
37	0x3e0123e3	0.12611346
38	0xbe1c7603	-0.15279393
39	0x3dc4101c	0.09573385
40	0x3dac0b67	0.08400612
41	0x3d830819	0.06398029
42	0x3e3d3fc6	0.18481359
43	0xbd03827b	-0.032106858
44	0xba93c391	-0.0011273493
45	0xbdc31f7a	-0.09527488
46	0xbdd6e528	-0.10492927
47	0x3e0ca61f	0.13735245
48	0xbaa54b6e	-0.0012610981
49	0x3dbb7669	0.09153444
50	0xbe243e78	-0.16039455
51	0x3d69a3d9	0.057041023
52	0xbde77b54	-0.1130282
53	0xbd86ebff	-0.065879814
54	0x3d31026c	0.0432152
55	0xbcfa2f2d	-0.030540073
56	0xbcb8d65e	-0.022563156
57	0xbdc3afe9	-0.095550366
58	0xbdf3318e	-0.11874686
59	0xbe0971ec	-0.13422364
60	0x3d5b3cde	0.053524844
61	0xbe280eea	-0.1641194
62	0xbdc7f00c	-0.09762582
63	0xbdd7f66c	-0.10545048
64	0x3d8548f9	0.06508059
65	0x3e1791b6	0.14801678
66	0xbbcb2d97	-0.006200503
67	0xbe2ead0c	-0.170582
68	0xbd44cfc4	-0.048049703
69	0xbe2f843b	-0.17140286
70	0x3dd1cbe2	0.10243966
71	0x3e17d773	0.14828281
72	0x3e1cdc80	0.15318489
73	0xbd7c2768	-0.06156102
74	0xbe09e115	-0.13464768
75	0x3c1e3f7f	0.009658693
76	0xbbcb68ba	-0.0062075527
77	0x3d7f9616	0.062398992
78	0xbaf4c88e	-0.0018675493
79	0x3d882b9a	0.06648941
80	0xbdb8d280	-0.09024525
81	0xbde5414b	-0.11194094
82	0xbd9ce056	-0.07659976
83	0xbcf031b0	-0.029320568
84	0xbe02710e	-0.1273844
85	0x3d00ed7e	0.03147649
86	0xbc710fad	-0.01471321
87	0x3c5ad713	0.013356942
88	0xbe1ec2c4	-0.15503985
89	0x3ced76bd	0.028987283
90	0xbd9b8609	-0.075939246
91	0xbb8abba4	-0.0042337943
92	0xbe2a7d4f	-0.16649364
93	0x3e0c4103	0.13696675
94	0xbe1f5939	-0.1556138
95	0xbd87add8	-0.06624955
96	0x3dfac4af	0.12244546
97	0xbc6e885a	-0.014558876
98	0x3e018926	0.12649974
99	0xbaf8a062	-0.0018968696
100	0x3df2da6b	0.11858066
101	0x3da2e390	0.0795356
102	0xb9d2de2e	-0.00040219858
103	0x3e1927b2	0.14956549
104	0xbe0760a2	-0.13220456
105	0xbd0b295d	-0.033974994
106	0x3da7140b	0.0815812
107	0xbd18822e	-0.037233524
108	0x3d363517	0.044484224
109	0xbdd8267f	-0.105542175
110	0x3e2e94aa	0.17048898
111	0x3e0b04b2	0.1357601
112	0xbd39a296	-0.04532107
113	0x3dbb8a2b	0.09157213
114	0xbb1f34f0	-0.0024293028
115	0x3e0cd63f	0.13753603
116	0x3d801556	0.062540695
117	0x3e0e5550	0.13899732
118	0x3d03433b	0.032046538
119	0x3ca5e54f	0.020250944
120	0xbd3a9983	-0.045556556
121	0xbd9d20df	-0.07672285
122	0x3de0a00b	0.10968026
123	0x3ddeb88b	0.108750425
124	0x3e088e22	0.1333547
125	0xbdb14906	-0.08656506
126	0xbd57922d	-0.05262964
127	0xbd82bdb0	-0.06383836

fc.weight f4 [2, 32]
0	0x3d12997c	0.035790905
1	0x3e491641	0.19637395
2	0x3e533901	0.20627214
3	0x3d90de4b	0.07073649
4	0xbe08654f	-0.13319896
5	0xbdfdb128	-0.123873055
6	0xbdcf7554	-0.101298004
7	0xbe316191	-0.17322375
8	0x3d9a1b7c	0.075247735
9	0x3d78ca68	0.060739905
10	0xbc977579	-0.018488633
11	0x3e17b4c5	0.14815052
12	0xbe2b8d73	-0.16753177
13	0x3e3e660a	0.18593612
14	0x3cfc655e	0.030810054
15	0x3dfce33c	0.12348029
16	0xbc48b3a9	-0.012249866
17	0x3e440ec2	0.19146255
18	0x3e4e6da4	0.20159012
19	0x3de80a79	0.113301225
20	0xbc86ed74	-0.016470648
21	0xbdd7dfa2	-0.105407014
22	0xbd5ffd21	-0.054684762
23	0xbc087d56	-0.008330664
24	0x3db51147	0.08841186
25	0x3e1e5481	0.15461923
26	0xbe3ce89e	-0.18448111
27	0xbc996a7d	-0.018727535
28	0x3c331940	0.010931313
29	0xbdad99cb	-0.08476599
30	0x3e43ad5e	0.19109103
31	0x3dae18b1	0.08500803
32	0xbdef5c93	-0.11687579
33	0xbb59f0f5	-0.0033255194
34	0x3b9e6d0f	0.004834778
35	0xbd204acd	-0.039133836
36	0xbd615d24	-0.055020466
37	0xbe420a9f	-0.18949364
38	0x3e6340f2	0.22192743
39	0x3c005e01	0.007834912
40	0x3e176e5d	0.14788194
41	0xbd8ea1d5	-0.06964461
42	0x3e27542e	0.16340706
43	0xbe1ac043	-0.15112405
44	0x3e2b4280	0.16724586
45	0xbde12f39	-0.10995335
46	0xbe18907a	-0.14898863
47	0xbd826dd8	-0.06368607
48	0x3d240a51	0.0400489
49	0xbdc10229	-0.0942424
50	0xbd657a42	-0.056024797
51	0xbca3f2bd	-0.020013208
52	0xbddf88f5	-0.10914794
53	0x3c391556	0.011296591
54	0x3dd86fed	0.10568223
55	0x3dc1a8bd	0.094560124
56	0xbe179a49	-0.14804949
57	0x3e3b1220	0.18268633
58	0x3de91e8e	0.11382781
59	0xbe0d7199	-0.13812865
60	0x3e1280e6	0.14306983
61	0x3e2cdfcb	0.16882245
62	0xbd29d5ea	-0.04146377
63	0xbe2e8e91	-0.17046572

fc.bias f4 [2]
0	0x3d9ab9f5	0.07555
1	0xbcdbbcca	-0.02682342
